checkpoint_actor.pth (torch_old, 613373 bytes, 14 tensors)

fc1.weight f4 [512, 33]
000000 5d 84 e7 3d e5 28 81 bd 98 f8 1e be e2 5e 05 3e
       0.11304543 -0.06306628 -0.15524518 0.13024476
000010 e2 92 85 bd 94 66 c1 be e9 4f aa 3d d7 bd fe 3d
       -0.06522156 -0.37773573 0.08316023 0.12438553
000020 b6 7d 44 bd 6a 12 4d be ed 08 17 bc 09 20 90 bd
       -0.04797145 -0.20026556 -0.009218437 -0.0703736
000030 75 48 5f 3e 69 91 4b be 3c 69 a2 3d 1f cc cc 3d
       0.21804984 -0.19879688 0.07930228 0.099998705
000040 ed 6a a4 be 27 df a8 be eb f6 63 3d 2f da ad 3e
       -0.32112828 -0.32982752 0.0556554 0.33955523
000050 c7 34 8b 3d ae 46 d2 3d e9 c3 8d bd 83 86 37 be
       0.06797176 0.10267387 -0.069221325 -0.17922406
000060 84 80 3b 3c 39 8d e0 bd 39 52 3a 3d 60 73 5d 3e
       0.011444215 -0.10964436 0.04548857 0.21626043
000070 4e 7c 7e 3e da 90 e1 3c 60 bd 86 be 29 13 29 bd
       0.24852106 0.02753489 -0.26316357 -0.04127804
000080 4c 01 65 3f e9 1b 35 be 95 81 d8 bc 56 b5 3a 3c
       0.89455104 -0.17686428 -0.026428977 0.011395773
000090 cb ff ac be bf be 43 bf a9 e7 66 bf 04 cb 4e 3e
       -0.33788905 -0.7646293 -0.90197235 0.20194632
0000a0 bc cf db 3b d5 4d ef bd bc 60 06 3e 40 7c 22 3c
       0.0067081135 -0.11684767 0.13122839 0.009917319
0000b0 cd 23 1b bd 0c 0d dc 3a 4d cb ec 3d fa db e0 3d
       -0.03787594 0.0016788556 0.11562214 0.10979457
0000c0 91 82 ee 3d 99 fd 90 be 79 c8 a9 3c 39 bc d9 be
       0.11645997 -0.2831848 0.020725476 -0.42526415
0000d0 3b a3 19 3e 9a b0 fb 3d cc ef 5d bd 9c 54 33 be
       0.15003674 0.122895434 -0.054183766 -0.17512745
0000e0 65 09 f5 bd 12 6b 64 3d 17 60 51 3d 4e 9d 54 3d
       -0.119646825 0.055766173 0.05111703 0.05190783
0000f0 0f 59 87 3e 83 f5 3b 3d c4 22 92 3c ac 48 73 be
       0.26435134 0.045888435 0.017838843 -0.23758191
000100 40 cd 85 3c cc ef 67 3f ac de 06 bf 27 8b d1 bd
       0.016333222 0.90600276 -0.5268352 -0.10231619
000110 7b 98 c4 bc 22 ed bd 3d e2 f2 76 3e df 6c 25 be
       -0.02399849 0.09273745 0.2411609 -0.16154812
000120 ab 55 95 be 15 e1 3e 3e ae 86 b4 bd 7a eb 23 be
       -0.29166922 0.1864055 -0.088147506 -0.16007796
000130 e0 be 45 bd b1 13 39 bd f2 29 c2 bd f6 63 0a 3e
       -0.048277736 -0.045184795 -0.09480657 0.13514695
000140 b3 22 1b bd a0 fb 19 be 44 fe 85 3e e8 c6 8b bc
       -0.03787489 -0.15037394 0.26170552 -0.01706262
000150 84 ad e8 be e7 a4 96 be 76 ee de 3c 01 2c c8 bd
       -0.45444882 -0.29422686 0.027213316 -0.09774018
000160 1c ee 34 3e 64 0b f8 3c 59 e9 80 3b aa 2e 10 bb
       0.17668957 0.030278869 0.003934067 -0.002200047
000170 39 ad 06 3e d2 79 ff 3e f5 da 87 bc f0 3d fb 3b
       0.13152017 0.4989763 -0.016583899 0.0076672956
000180 a4 d5 03 bf 3c 1b 8b bc 31 0e 17 be 11 b4 80 3e
       -0.51497865 -0.01698076 -0.14751507 0.2513738
000190 05 c3 2b bd 85 94 86 bd 77 e7 02 3f 5b 52 31 3e
       -0.041934032 -0.065712966 0.5113444 0.17316572
0001a0 fd 0a e7 3e 96 94 b1 bd 93 65 95 3e 45 da ad be
       0.4512557 -0.08670919 0.29179057 -0.3395559
0001b0 a5 a8 a8 3d 7d b1 08 3e c3 4b 57 3c 05 c6 33 3d
       0.082352914 0.13348956 0.013140622 0.043890018
0001c0 f9 7c 7c bd 71 74 29 3e 44 87 8d be c0 df bf be
       -0.06164262 0.16548325 -0.27642262 -0.37475395
0001d0 11 a8 1d 3f 30 30 1b be 27 2e bf 3e 5a 8f 64 3c
       0.61584574 -0.15155101 0.373399 0.013950193
0001e0 82 a6 08 3d 70 de c0 be 58 f7 8d bd 6b 56 af 3d
       0.03336192 -0.37669706 -0.06931943 0.08561405
0001f0 62 e7 86 bc c5 da b0 bd 13 cf 91 3e 6a 7b a0 bd
       -0.016467754 -0.08635477 0.28478298 -0.07836039
000200 10 c6 38 bc 5f 09 91 be 6a 40 5f bc 18 90 b4 3e
       -0.0112776905 -0.28327462 -0.013626197 0.35266185
000210 1d 3e a7 bd 66 2a e3 3d 3e 05 75 3c 9d bd 47 bf
       -0.08166144 0.11092071 0.014954863 -0.780237
000220 fb b5 25 be d6 5b 5c be d6 3e 45 3f 46 79 eb 3d
       -0.16182701 -0.21519408 0.77049005 0.114977404
000230 48 b2 84 bd b1 ae a3 3e ab 09 e1 bb 93 50 41 bd
       -0.06479317 0.31969216 -0.0068676076 -0.047195982
000240 aa 9c 12 bc c9 4e f1 3d e1 66 30 3e 7c 92 ff bd
       -0.008948484 0.11782605 0.17226745 -0.124791116
000250 1b e5 e0 bd 54 ed 18 3d e8 4a 3f bd 57 a2 81 3e
       -0.109811984 0.03733571 -0.046702296 0.25319168
000260 4f 81 b5 bb ab 85 82 bd 74 89 03 3e ad bb 04 3e
       -0.0055390964 -0.063731514 0.12845403 0.12962218
000270 c2 bd 76 be 0e 02 9d bc bd 42 06 bd 9c 64 97 3e
       -0.24095824 -0.019166019 -0.03277849 0.29568946
000280 a1 c1 22 be 1b ff 31 bd 50 ce a7 be 00 51 85 bb
       -0.15894176 -0.04345618 -0.3277459 -0.004068494
000290 38 be 96 be 4d 62 88 3d 54 54 54 3d ce 86 02 3e
       -0.29442 0.066593744 0.051838234 0.12746736
0002a0 44 7a 34 3d 7d ed dd 3e 7a 58 ff 3e f8 7c 25 3e
       0.044061914 0.43345252 0.4987219 0.16160953
0002b0 aa e1 9a bd 31 0a c3 bd e1 48 3c be 39 fd d6 3d
       -0.07562573 -0.09523428 -0.18387176 0.10497517
0002c0 80 2b f1 3d b4 c1 0c 3e cc 97 87 3e d9 7b ae be
       0.11775875 0.13745767 0.26483 -0.34078863
0002d0 d0 6e 78 3d 4f 1b 1a bd f5 00 81 3e 3b 0e 01 3e
       0.060652554 -0.0376237 0.25196043 0.12603085
0002e0 e3 6f 79 3c 8d 5e 3a 3e 99 49 7c 3b 9e 9b 73 be
       0.01522443 0.18200131 0.0038496016 -0.23789832
0002f0 6c 7f 5e 3e f5 fb 09 be 6e ac 83 3d cf fc af bd
       0.21728295 -0.1347502 0.06429373 -0.08593141
000300 20 13 54 3e 9a 07 0f 3e 3c e4 d8 bc be 05 26 be
       0.2071042 0.13967744 -0.026476018 -0.16213128
000310 00 d4 23 bd 64 35 f3 be da c2 da 3c 87 d0 99 bd
       -0.0399971 -0.4750167 0.02670424 -0.075104766
000320 e4 47 0d be 74 a8 a6 be 17 f3 84 bf c0 3d 50 bf
       -0.13796955 -0.32550395 -1.0386685 -0.81344223
000330 6d 17 ab be d6 10 11 3d 4a 50 9e 3c 97 71 11 bd
       -0.3341631 0.035416447 0.019325394 -0.03550872
000340 9d 8c 88 3c cb 9b a7 3d d3 7d 92 3d 34 41 2a bd
       0.016668612 0.08184012 0.07152905 -0.04156609
000350 30 c8 49 be 99 7e 31 bc ff b7 c3 3e 42 50 f0 3d
       -0.19705272 -0.010833406 0.38226315 0.11734058
000360 6a 56 19 3e 70 94 b8 3e 86 aa b7 bd 78 be 5a be
       0.1497437 0.3605075 -0.08968072 -0.2136172
000370 23 80 1d be 10 9f 6c bd c0 a1 9f 3d 56 b0 9d 3a
       -0.15380912 -0.05776888 0.07794523 0.0012030702
000380 a3 f1 ec bd 8b 8b a7 3e 3f 98 e7 3d a0 2a a6 ba
       -0.11569526 0.3272365 0.113083355 -0.0012677498
000390 52 4e cb be 71 f4 1d bd d5 6c 34 bf c6 4b 19 be
       -0.3970819 -0.038563196 -0.70478565 -0.14970312
0003a0 d8 a2 8a 3d ce ed f2 bc cc 56 cb be 58 14 5a 3f
       0.06769341 -0.02965441 -0.39714658 0.8518729
0003b0 f5 0a 0f be bd dd 36 3e e9 2b 11 3e 8c 86 2a 3c
       -0.13969024 0.17858024 0.14176907 0.010408055
0003c0 9a 72 b6 bd b4 5f 07 bc ee bf b7 bd b7 85 f5 bc
       -0.08908577 -0.0082625635 -0.089721546 -0.029970987
0003d0 4d 5c 87 3c 3a 3a 17 be 2a 19 a6 be 62 5e 8d bc
       0.016523505 -0.14768305 -0.32441074 -0.01725692
0003e0 d7 cb 3a bc db b0 7a bd bb 90 41 3e 65 77 08 3c
       -0.011401138 -0.06120382 0.18902867 0.008329247
0003f0 6f 19 15 bd 82 0e b6 be 29 e4 6c bc 76 58 5d 3d
       -0.03640121 -0.35557944 -0.0144586945 0.05403944

fc1.bias f4 [512]
000000 dc ed 9d be 44 9b ce be 15 d8 2b bf e0 4c 8f be
       -0.30845535 -0.40352833 -0.6712659 -0.27988338
000010 10 59 cc be 48 3a aa be e5 53 47 be 5a aa 1b bf
       -0.399117 -0.3324759 -0.19465597 -0.6080681
000020 dd 13 b4 be 26 67 20 be b8 d1 a4 be ea f8 28 bd
       -0.35171404 -0.15664348 -0.32191253 -0.041253008
000030 ef 2e ce be b3 d6 62 be d5 c9 99 be 47 e8 83 be
       -0.40270182 -0.22152214 -0.30036798 -0.2576315
000040 d3 7c b3 be b0 47 88 be 33 ef e5 be a2 aa 8f bd
       -0.3505617 -0.26617193 -0.44909057 -0.070149675
000050 8f 03 81 be 28 b8 a6 bd d9 e7 7f be ba de b5 be
       -0.25198027 -0.08140594 -0.24990787 -0.3552149
000060 22 fa b2 bd 4e 00 c7 bc d3 b8 05 be 80 35 86 be
       -0.08739115 -0.024292137 -0.13058786 -0.26212692
000070 46 49 c9 be e9 29 4d be 9e 45 ba 3c 8b 3c d8 bd
       -0.39313716 -0.20035519 0.022738274 -0.10558423
000080 35 f3 8f be cd 08 c7 be 0d 0c ad be 79 23 a2 be
       -0.2811524 -0.38873902 -0.33798257 -0.31667688
000090 4b 7b a0 be 20 d3 f9 be 99 74 c3 bc e3 b5 a5 be
       -0.31344065 -0.48793888 -0.023859309 -0.3236533
0000a0 36 36 8e be 1f 86 36 be 6d 03 72 be d4 c6 05 bf
       -0.27775735 -0.178246 -0.2363412 -0.5225651
0000b0 55 2d 0d bf 1e 89 bb be 69 79 0d be 1c 80 5a be
       -0.55147296 -0.3662805 -0.13815846 -0.21337932
0000c0 d0 fa 8e be c9 05 8c be a5 da 52 bd 2c bc a5 be
       -0.2792573 -0.27348164 -0.051478047 -0.32370126
0000d0 3a 0a af bd d0 ac b0 be d0 a3 bd be 15 f3 af be
       -0.085468724 -0.34506845 -0.37039042 -0.34365144
0000e0 d1 8c 41 be dd b5 07 bf ed ec 80 be 40 a3 a3 be
       -0.18901373 -0.53011876 -0.2518076 -0.31960487
0000f0 bf 0f f2 be c9 42 f3 be ab b8 ca be 0c cf 83 be
       -0.47277638 -0.4751189 -0.39594015 -0.25743902
000100 04 9e 09 be be 2e e3 bd 0f 7f 5e bd ac 06 a8 be
       -0.13439184 -0.110929 -0.05432039 -0.3281759
000110 44 fb fb be 54 9f c4 be ac 0a 8a be 80 39 94 be
       -0.49215138 -0.38402808 -0.26961267 -0.2895012
000120 15 3e 00 be e0 72 0b be 99 1a 55 bd 89 19 98 be
       -0.12523682 -0.1361804 -0.05202732 -0.29706982
000130 62 aa f4 be b6 db df bd 84 7a 53 3d d6 2d d0 be
       -0.47786242 -0.109305784 0.051630512 -0.4065997
000140 00 d5 bd 3d 1e 2c b1 bd c2 56 d5 be 40 79 a8 bd
       0.09269142 -0.08650993 -0.41667753 -0.082262516
000150 2e 71 75 bd 4c ac d4 bd b8 1e 32 be 4c a2 f6 be
       -0.05992239 -0.103844255 -0.17394531 -0.48170698
000160 cb d6 6a be 96 61 68 3d c4 22 00 bf 89 60 ab be
       -0.229335 0.05673369 -0.5005305 -0.33472088
000170 89 23 60 be 1f 37 19 be f1 bb a0 be d5 90 f5 be
       -0.21888556 -0.14962433 -0.31393388 -0.4796206
000180 08 f4 aa bb 35 e9 6a be 51 f9 8e bd b3 4f 24 be
       -0.005217079 -0.22940524 -0.06981147 -0.16046028
000190 b4 1d 42 be 82 92 42 be ae 64 a8 be b9 5f f6 be
       -0.18956643 -0.19001201 -0.32889313 -0.48119906
0001a0 c6 d8 cd be b8 3e e9 be eb ba 03 3d 74 ce b2 be
       -0.40204448 -0.45555663 0.03216068 -0.34923136
0001b0 db ae c3 be 73 2b 0b be 32 f5 cd bd cc 87 bb be
       -0.38219342 -0.13590793 -0.10056533 -0.36627042
0001c0 0b c2 71 be ea 21 ee bd fa 9e e7 bd e3 9e ee be
       -0.23609178 -0.11627562 -0.11309619 -0.46605596
0001d0 e5 68 9a be cd fe 8e be b5 99 94 be a5 4e c8 be
       -0.30158153 -0.27928773 -0.2902352 -0.391225
0001e0 ff 97 bb be 16 d0 8b be 26 a9 b5 be 23 81 9f be
       -0.366394 -0.27307194 -0.35480613 -0.3115321
0001f0 5e 43 ad be 29 77 9b be d9 81 a5 be 23 f6 f8 bc
       -0.3384046 -0.3036435 -0.32325628 -0.030390805
000200 9a e2 3f be ca c9 b1 bd 39 5a 95 be 20 d5 e4 be
       -0.18738785 -0.08681066 -0.29170397 -0.4469385
000210 72 94 d1 bd 3d 9b d6 be 24 99 9e be 4c c4 e6 bd
       -0.10233392 -0.41915312 -0.30976212 -0.112679094
000220 4b ab 95 bd bf 1f 2e be 66 c4 8f bd 77 c4 cf bd
       -0.07308062 -0.17004298 -0.07019882 -0.101448946
000230 b8 56 83 bd 1e 1c ed be 87 70 98 bd 74 0b cc be
       -0.06413025 -0.46310514 -0.07443338 -0.39852488
000240 00 b6 1e bf dc d8 a7 be 0c 85 9a be df 0d 03 bf
       -0.6199646 -0.32782638 -0.30179632 -0.5119304
000250 ad fe 9a be 30 41 ea be 3c 24 86 be 5e 04 08 bf
       -0.30272427 -0.4575286 -0.2619952 -0.53131664
000260 85 cc 83 be 30 cf 07 be b8 8f d4 be 92 db 51 bd
       -0.25741974 -0.1326263 -0.415159 -0.05123479
000270 1d b5 d4 be fc 20 4e be ac 63 38 be 61 d3 57 be
       -0.41544428 -0.2012977 -0.18006772 -0.21076728
000280 d4 17 4f be 7e 3f 91 be aa aa a2 be fd ea 77 be
       -0.20223933 -0.28368753 -0.3177083 -0.24210735
000290 49 b9 aa be 2b 43 54 3d 2f 9f 16 bf 1e ef ee bd
       -0.33344486 0.05182187 -0.58836645 -0.11666702
0002a0 c5 a7 ae be 66 d2 7e be ac 4f bd be 55 49 c0 be
       -0.34112373 -0.24884948 -0.36974847 -0.37555948
0002b0 d4 34 17 be b2 05 49 bd e5 73 07 be cb 32 c2 be
       -0.14766246 -0.049077697 -0.13227804 -0.37929377
0002c0 1b d2 a1 be ec 72 c5 be 0e 89 5b be 13 52 ff be
       -0.3160561 -0.3856424 -0.21439001 -0.49867305
0002d0 99 3a d0 be 34 76 66 bd 22 8d a5 be 46 69 f8 be
       -0.40669706 -0.05626507 -0.32334238 -0.48517817
0002e0 ce 54 f4 be 16 f3 26 bd dd d6 39 bd a7 96 91 be
       -0.4772095 -0.04075917 -0.045370925 -0.2843525
0002f0 ac 12 16 bf 94 8f 08 3d 75 d0 4a be a4 35 55 be
       -0.5862224 0.03334005 -0.19806083 -0.20821244
000300 1d 77 d5 be fe 93 cd bd 31 35 a0 be 8e 68 b4 be
       -0.4169244 -0.10037993 -0.31290582 -0.3523602
000310 e9 cb ae be c7 0f 69 3e e7 30 eb be 32 e7 f4 be
       -0.34139946 0.22759925 -0.45935747 -0.47832638
000320 90 e9 cf be 67 34 3d be f8 5a ff be bd c9 82 be
       -0.40607882 -0.18477021 -0.4987409 -0.2554454
000330 ce e3 65 be d9 eb 36 be f9 be 9e be 05 6d 11 bf
       -0.22450182 -0.17863406 -0.31005076 -0.56806976
000340 b5 a6 bb be e3 3e dc bd b3 29 e8 be c2 83 1e bf
       -0.36650625 -0.10754182 -0.45344314 -0.61919796
000350 61 f5 74 be 72 1c db bd d6 38 e2 be 10 64 45 be
       -0.2392173 -0.10698785 -0.44183987 -0.19276452
000360 f2 4a a9 be 1c fe b6 be 6c e9 99 bd 29 84 dc be
       -0.3306499 -0.35740745 -0.07515225 -0.4306958
000370 04 8f a6 be e1 62 c4 be 26 53 02 bf 9f 28 0f be
       -0.32530987 -0.3835669 -0.50908124 -0.1398034
000380 12 a5 94 be b3 58 92 3d 54 42 ae be ea 26 aa bd
       -0.2903219 0.07145824 -0.3403498 -0.083082035
000390 cb d1 cd be fd e7 fa be 6d 00 08 bf 72 e9 87 be
       -0.40199122 -0.49005118 -0.5312565 -0.26545292
0003a0 84 a5 b9 be a6 a9 cf bd 41 a0 ed be 73 44 4c bd
       -0.3625909 -0.1013978 -0.46411327 -0.049869966
0003b0 73 c8 cf be 0f a0 ed bd da df 95 be 16 5d b4 be
       -0.40582618 -0.116027944 -0.29272348 -0.3522727
0003c0 5d 38 ee bd 17 a3 bf be 3f ee 2e be d4 c1 82 bc
       -0.11631844 -0.37429115 -0.17083071 -0.015961565
0003d0 72 c7 cf bd cd f1 f2 be f9 08 94 be 84 5d 88 be
       -0.10145463 -0.47450104 -0.28913096 -0.26633847
0003e0 71 04 8f be 98 1a 70 3d 4c 80 c3 be 3c 21 86 be
       -0.27933076 0.05861911 -0.3818382 -0.2619723
0003f0 aa 1c d6 be d3 29 db be 88 bc 70 be b5 f5 ab be
       -0.41818744 -0.42805347 -0.23509419 -0.33585897

fc2.weight f4 [256, 512]
000000 fd c3 a0 3e 85 0e 0c 3d 53 cc 78 be a8 e5 96 bd
       0.31399527 0.034193534 -0.24296694 -0.07368022
000010 32 bb 39 bd 87 75 36 3e 4e 67 de 3e b7 3c 6f bd
       -0.04534454 0.1781827 0.4343819 -0.05840751
000020 23 bf 57 3c 8a a3 81 3b 1c c1 fa be 22 71 b7 3d
       0.013168129 0.003956263 -0.48975456 0.08957125
000030 aa de f3 3d 51 1f 29 bd df ab 4e bd fa 0b f1 bc
       0.11907704 -0.04128963 -0.050456878 -0.029424656
000040 ae 8d 2e 3e 55 48 c9 be 8b 31 b0 be 28 b2 ba 3c
       0.17046234 -0.39312997 -0.34412798 0.02279003
000050 7b ee 5c bd 06 5c 63 3d 51 45 3f be 7e cf 83 3e
       -0.05393837 0.055507682 -0.18678786 0.2574424
000060 44 4b 18 bd 9f de 6d be 27 65 a1 3e 08 6c 63 bd
       -0.037181154 -0.23229454 0.31522486 -0.05552295
000070 d9 ef cb 3c b3 b4 a5 3d 96 43 6d bd 26 6c 5e 3d
       0.024894642 0.08091106 -0.057925783 0.054302357
000080 31 78 02 be e0 c8 a0 bb aa 1c 88 3e a2 8d d5 bd
       -0.12741162 -0.0049067587 0.2658437 -0.10427405
000090 86 22 1a 3e fc b6 0b 3e 49 3d b6 3e 18 6a ec 3d
       0.15052232 0.13644022 0.35593632 0.11543673
0000a0 dc 03 03 3d e6 49 03 be 84 a9 12 3e 9c 2e 34 3e
       0.031986102 -0.12821159 0.14322478 0.17595905
0000b0 29 57 6d 3e c1 5b e1 bd 4c 35 1a bd 7a 10 82 3e
       0.2317778 -0.11003829 -0.037648484 0.25403196
0000c0 a7 06 a9 bd 5f 64 d2 3e ce f7 fc 3d cf 4f 75 3d
       -0.08253222 0.41092202 0.123519525 0.059890565
0000d0 8c 1a 56 be 99 68 ea 3c ff 89 c7 3c 31 aa 0e bd
       -0.20908564 0.02861433 0.024357794 -0.034830276
0000e0 e5 c7 41 3d 87 c2 2a 3e 48 a9 12 be f6 50 ac be
       0.047309775 0.16675769 -0.14322388 -0.33655518
0000f0 76 b5 50 3c f8 e1 27 3e da 51 93 3d a9 e1 80 3e
       0.012738576 0.16394794 0.07193346 0.25172165
000100 b4 75 ce 3d 14 cd dd 3d 75 fa 46 3e 23 83 3e bd
       0.10081044 0.10830131 0.1943148 -0.04651178
000110 52 4d 03 be 21 bd 32 3e 12 f2 e2 bc cf 41 93 3d
       -0.12822464 0.1745496 -0.027703319 0.07190286
000120 df c0 bc 3d b0 00 b5 3e a9 83 af bd 73 a9 e1 bd
       0.09216475 0.35352087 -0.08570034 -0.11018648
000130 d8 9b 52 3d 36 6c 8a bd fb 53 98 3e 83 b1 33 3e
       0.051418155 -0.06758921 0.29751572 0.17548184
000140 0a 73 05 3d 44 04 de bd a6 a4 83 3d d8 c8 f4 39
       0.032580413 -0.10840657 0.064278886 0.00046688947
000150 c0 ec db bb 17 c3 c8 bd 28 8a c7 bd 48 d5 3f 3c
       -0.0067115724 -0.098028354 -0.09743148 0.011708565
000160 40 c9 95 bd 4a 5f ef bb 28 50 7e 3d 78 bc ec 3d
       -0.07313776 -0.0073050605 0.06208816 0.11559385
000170 02 bf 0a 3e 40 8e 12 bd ca ee 40 bd 85 af 38 bc
       0.13549426 -0.03578019 -0.047102727 -0.011272316
000180 31 f7 32 3d 56 23 4f bd 02 c9 c8 be 9f c5 c7 be
       0.04369277 -0.05057081 -0.39215857 -0.3901796
000190 71 dc 08 3e d8 a8 8e be a8 cc 2d 3e e5 b9 93 bd
       0.13365342 -0.27863193 0.16972601 -0.07213191
0001a0 af 97 6f bd 53 1d 83 be bc 1e e0 3e 1d 31 34 3e
       -0.058494266 -0.2560831 0.43773448 0.1759686
0001b0 6c 76 ed bd 79 fa c7 bd ff 38 a2 be 35 f9 a9 3d
       -0.11594853 -0.09764571 -0.3168411 0.082994856
0001c0 92 d3 c7 be e0 5b a4 3d fd d4 f3 3d 6a 0d c2 be
       -0.39028603 0.08025336 0.11905859 -0.3790086
0001d0 82 5b 4d bd fb 4c 89 bd c9 9f 2c 3e d0 51 24 be
       -0.050136097 -0.06704136 0.16857828 -0.16046834
0001e0 39 8d 1d 3d de d2 9e bd 2b 13 7a 3e da b5 9d be
       0.03846476 -0.077550635 0.24421374 -0.30802804
0001f0 63 a0 bf 3e bb 56 8e 3d f3 ad 7a bd d0 1e e2 bd
       0.37427053 0.06950136 -0.061201047 -0.11041033
000200 ac 27 92 bd f9 f7 b3 3d 74 62 5c be 95 a3 e5 bd
       -0.07136473 0.087875314 -0.21521932 -0.112128414
000210 ec c2 e2 3d c4 70 2b 3e 0c 81 18 3d 33 05 68 3e
       0.11072335 0.16742235 0.037232444 0.22658233
000220 d7 f6 26 3e 6b ec 59 be 4d d1 d2 be 93 9b 71 3e
       0.163051 -0.21281593 -0.4117531 0.23594503
000230 eb eb 12 3e 24 88 a9 bd 06 29 ce bd d5 ef c8 bd
       0.14347808 -0.0827792 -0.10066418 -0.09811369
000240 28 f9 a7 3e 5a 09 11 3d 76 bb 03 3d 28 13 62 3d
       0.3280728 0.03540931 0.0321612 0.05519405
000250 bd 0a 8b bd 79 a0 15 bf 51 47 4b 3d 4d 9a 81 bd
       -0.067891575 -0.58447987 0.04962856 -0.06328259
000260 03 1b a8 be 02 76 53 bb 34 63 99 bd 59 e7 54 bc
       -0.32833108 -0.0032266383 -0.074896246 -0.012994611
000270 a0 68 d6 3d de de 86 3e 2c 61 f4 bc 99 95 12 3e
       0.104691744 0.2634191 -0.029831491 0.1431488
000280 6c 83 61 3d d3 ae 1e be 8b 3b 4f 3d 52 4f e9 3d
       0.055056974 -0.15496378 0.050593894 0.11392082
000290 6d d9 04 3e cb 7f 96 be 1d 10 03 3e 64 7c 2b 3e
       0.12973566 -0.29394373 0.12799115 0.1674667
0002a0 9b 67 46 be 4b fc d3 be 15 ef 5d 3e 59 1c d2 bb
       -0.1937546 -0.41403422 0.21673234 -0.0064120707
0002b0 18 14 72 be bc 4d 8d 3e 34 a0 97 bd 9e fc c9 be
       -0.23640478 0.2759837 -0.07403603 -0.39450544
0002c0 56 8e 65 be 49 eb 8a be ff 43 47 3e 65 dc 0a bd
       -0.22417578 -0.27132633 0.19459532 -0.03390159
0002d0 58 64 42 3c cf da c6 bc fa c5 2d be f8 f2 53 be
       0.011864744 -0.024274258 -0.16970053 -0.20698154
0002e0 c1 bd 88 3e 27 fd 35 be c1 de 0f 3c 14 fc 11 3e
       0.2670727 -0.17772351 0.008781136 0.14256316
0002f0 46 84 46 3c 0e 3c 03 3b 8f 9e bf bd c3 e4 be 3e
       0.012116497 0.002002481 -0.093564145 0.37283906
000300 5d 20 25 3d 83 6a d3 3c 8e 5c 51 be 15 69 60 be
       0.040314067 0.025807625 -0.20445463 -0.21915086
000310 f9 22 75 3e d6 30 5b bd 0b d7 d3 3d 60 a5 57 3e
       0.23939122 -0.05351337 0.103437506 0.2105918
000320 f7 d1 1c bf 9f 81 e0 3d d9 cd a4 bd 61 d3 ce bd
       -0.6125788 0.10962223 -0.08047075 -0.10098911
000330 bb a5 aa 3e c6 63 8f be 99 9e 61 3d 94 44 39 bd
       0.33329567 -0.2800581 0.05508289 -0.045231417
000340 d7 0e fc 3c 7d b1 c1 bc 6b 19 23 be eb 41 c4 bb
       0.030768795 -0.023644203 -0.15927665 -0.0059893033
000350 2a 95 19 bd 6b f7 51 bd 9a 44 0f be 39 9f 03 be
       -0.03749577 -0.051261347 -0.13991013 -0.12853707
000360 49 ea 92 be 31 be 4d 3d e7 b0 4e bb 7f dc ca 3c
       -0.2869437 0.05023021 -0.0031538547 0.024763344
000370 79 19 ad be 69 0e 40 be 9a ad 73 be 83 35 b7 bd
       -0.33808497 -0.18755497 -0.23796692 -0.089457534
000380 b6 4f 62 be e6 7f 3c be 37 d4 bd 3d c1 b2 01 be
       -0.2210072 -0.18408164 0.092689924 -0.12665845
000390 8b 73 8f 3e e6 c7 93 be 1c 51 0d 3d 85 c0 42 bd
       0.2801784 -0.28863448 0.03450118 -0.047546882
0003a0 51 bc 2c 3d 86 1b 22 3e be 68 9f bd 28 87 e2 3d
       0.04217178 0.15830812 -0.0778365 0.11060935
0003b0 86 78 0b 3e 6a 7f 9e be b9 b7 50 3d c0 da b9 3d
       0.13620195 -0.30956584 0.05095646 0.090749264
0003c0 fe 1a 31 3d e6 b6 78 3d 62 ac 13 be e1 45 76 3c
       0.043238632 0.0607213 -0.14421228 0.015031309
0003d0 e7 0f d8 bd 7b 6f 3d bf 93 9e 86 3d 7e e4 9d be
       -0.10549908 -0.7399823 0.065732144 -0.30838388
0003e0 e9 8b a5 3d d2 7b 1d 3e e7 84 bc 3d 3c f0 ad be
       0.08083326 0.15379265 0.092050366 -0.33972347
0003f0 0e ec 99 bc 3e fb 6f 3d 04 a3 38 3e 35 60 e6 bd
       -0.018789317 0.058589213 0.18030936 -0.11248819

fc2.bias f4 [256]
000000 d7 30 18 be 6c c0 77 bd b4 aa bc bc 95 71 7a bc
       -0.14862381 -0.060486242 -0.023030616 -0.015285869
000010 d3 d7 43 be e2 82 64 be 1b d1 44 3d 89 72 00 be
       -0.19125299 -0.22315553 0.04805098 -0.12543692
000020 00 05 e7 bd 4e 13 bc bd 35 97 25 3e 59 3f 83 be
       -0.112802505 -0.091833696 0.16170962 -0.25634268
000030 f5 98 08 be be e7 cd 3d 13 aa 52 be 11 26 d4 bd
       -0.13339598 0.10053967 -0.2057269 -0.10358823
000040 25 03 b8 bd 7c bb e1 bc 55 a7 2d be a0 4b 7e be
       -0.08984975 -0.02755522 -0.16958363 -0.24833536
000050 20 21 88 be ef 75 f7 bd 41 fd 10 be 84 04 f0 bd
       -0.26587772 -0.12083041 -0.14159109 -0.11719611
000060 10 8e b6 be 1c 4a e1 bd 0c 08 d3 bd 31 32 83 be
       -0.3565526 -0.11000463 -0.10304269 -0.2562423
000070 30 fa 86 be 72 4a 1c bc 29 30 15 be 8a 2f 61 3c
       -0.26362753 -0.0095392335 -0.14569153 0.013744244
000080 ee 03 22 be 8c b8 e2 bd 3a fc 33 bd ed 02 67 be
       -0.15821812 -0.11070356 -0.043941714 -0.2255971
000090 53 3b 42 be 03 df a4 be 33 9f 3b be 10 f0 d8 bc
       -0.18967943 -0.32201394 -0.18322448 -0.026481658
0000a0 ee 97 c2 bd dd ec 00 be c0 97 4b be 80 72 48 be
       -0.095016345 -0.12590356 -0.19882107 -0.19574928
0000b0 3d 6d 1e 3d c1 d1 91 be 30 2e a5 bd 14 e3 9e be
       0.038678396 -0.28480342 -0.0806545 -0.31032622
0000c0 06 41 23 be 9b 2c c1 3d 10 92 7a be c8 44 f2 3d
       -0.15942773 0.09432336 -0.24469781 0.11829525
0000d0 9b 0a 18 be ac b9 36 be df e0 59 be d8 19 2c be
       -0.14847796 -0.17844266 -0.21277188 -0.16806734
0000e0 2d 52 b8 bd 44 28 3b be 0e c3 0f be a0 aa 4a 3d
       -0.09000049 -0.18277079 -0.14039251 0.049479127
0000f0 dc e5 b0 bd f2 1f 99 bd 12 70 2c be ed ec 69 3d
       -0.08637592 -0.07476796 -0.16839626 0.057110716
000100 08 03 ec bd a6 fe cc bd 67 59 3a be 5d d7 f8 bd
       -0.11524016 -0.10009508 -0.18198167 -0.12150452
000110 76 27 90 be a4 b4 06 be 21 84 ab be 3c de e6 bd
       -0.28155106 -0.13154846 -0.33499244 -0.112728566
000120 8e 5d b6 bd b3 45 21 bd bc a6 c8 bd 38 40 06 be
       -0.08904563 -0.03937311 -0.09797427 -0.13110435
000130 57 9d 1a bd 3c a8 5b 3d 65 ba 06 3d 97 17 2b be
       -0.037747707 0.053627238 0.032892603 -0.16708218
000140 35 27 5d bc ca 75 be bc 02 b2 85 be b5 1e 7f be
       -0.013498117 -0.023249526 -0.26112372 -0.24914058
000150 6a 26 84 be f4 43 10 be b3 a3 09 be b5 89 22 be
       -0.25810558 -0.14088422 -0.13441353 -0.15872844
000160 96 6c dd bd 3f 6a 10 be db cd 0f be ac cc 82 bc
       -0.10811727 -0.1410303 -0.14043371 -0.015966736
000170 b1 3c 28 be 1a ea d0 bd 29 4a 7e be 26 f7 d9 3c
       -0.16429402 -0.10200901 -0.24832977 0.026607107
000180 ad 5c bb bd 98 cd 08 be ae 4e 8e bd df 71 61 be
       -0.09148536 -0.13359678 -0.06948601 -0.22016095
000190 d0 8f 86 bd 3a 21 b4 be 79 18 ca be c5 c5 10 be
       -0.06570399 -0.351816 -0.39471796 -0.14137943
0001a0 ff 30 1e be 12 7b dd bd 23 5a cc bd 01 03 93 bd
       -0.15448378 -0.108144894 -0.0997813 -0.07178307
0001b0 b2 5b 87 bc 63 6b a5 bd f4 89 86 be a8 d0 2d be
       -0.016523216 -0.08077123 -0.26277125 -0.16974127
0001c0 69 4b 64 be f7 23 db 3d c1 7e 76 be cf 81 7e bd
       -0.22294392 0.10700219 -0.2407179 -0.062135514
0001d0 94 7f 3b 3d e8 cb 06 be 83 08 b0 be 10 98 91 be
       0.045775965 -0.13163722 -0.34381494 -0.28436327
0001e0 66 d5 c7 bd c0 b4 85 bc b9 a9 b5 be 15 eb 15 be
       -0.097574994 -0.01632154 -0.3548105 -0.14640458
0001f0 db d6 ba 3c 10 3f 76 be 63 2b d8 bc f1 cc e4 bd
       0.02280753 -0.24047494 -0.026387876 -0.11171902
000200 36 a1 e4 bd 8e b3 0f be e9 65 74 bd e9 78 17 be
       -0.11163561 -0.14033338 -0.0596675 -0.14792217
000210 f5 86 78 be c3 2b ac 3d 81 9b 25 be 98 57 81 be
       -0.24270232 0.084067844 -0.16172601 -0.2526214
000220 75 47 74 be 11 dd e6 bd d3 b4 a7 bd 13 d6 7b bd
       -0.23855384 -0.11272634 -0.08188786 -0.061483454
000230 fb 26 3a be 56 d7 1a be 93 39 f4 bd dd e4 b1 bd
       -0.18178932 -0.15121207 -0.11925044 -0.0868623
000240 6e 0a 44 be d6 51 81 bd 37 f3 77 be a2 5b 3f be
       -0.19144604 -0.06314437 -0.24213873 -0.18687299
000250 55 f7 31 be 2f 6a 58 be b3 34 9b be 57 69 32 be
       -0.17379506 -0.21134256 -0.30313644 -0.17422996
000260 c8 f2 16 be 0e f5 72 be 6f 0b 51 be fa 63 f1 bd
       -0.14741051 -0.23726293 -0.20414518 -0.11786647
000270 b6 fd 3b be 9e b2 36 be 55 42 61 bd 33 5c 1f 3d
       -0.18358502 -0.17841575 -0.0549949 0.038906287
000280 9c 2c 52 be 88 52 16 3d 1a 98 0d be d0 01 3f bd
       -0.2052483 0.0366998 -0.13827553 -0.046632588
000290 98 c4 5c be 23 b7 22 be a8 99 46 be be 86 51 be
       -0.2155937 -0.15890174 -0.19394553 -0.20461556
0002a0 7d 58 49 be 7f b2 f6 3d cd aa 15 be 76 23 f4 bd
       -0.19662662 0.12045764 -0.14615937 -0.11920826
0002b0 52 92 67 be eb c3 29 be 3f 6b 4b bd 1d 53 0a be
       -0.2261441 -0.16578643 -0.049662825 -0.13508268
0002c0 f8 4e 8a bd 5f c8 4b bb d4 87 17 bc 85 b5 63 ba
       -0.06753343 -0.0031094772 -0.009248693 -0.00086864113
0002d0 83 69 b9 3c da 0f 47 be 24 96 8f be d0 9f ee bd
       0.02263332 -0.1943964 -0.28044236 -0.116515756
0002e0 9e 89 66 be d2 3c 95 bd 4c e3 c3 3c 02 be 73 be
       -0.22513434 -0.07286991 0.023912095 -0.23802951
0002f0 48 7d ed 3b 2e b7 84 bd fb 70 cf bd 4e a5 9f bd
       0.0072476007 -0.06480251 -0.10128971 -0.07795201
000300 86 59 ef 3d 0b 51 ea bd 74 26 6c be c4 fe 1e be
       0.11686997 -0.11441239 -0.23061544 -0.15526873
000310 63 70 8c be e3 0a c9 be 79 6e 8d bd 3f 33 b2 bd
       -0.27429494 -0.39266118 -0.069058366 -0.08701181
000320 63 69 04 be 85 2f a4 be a8 df 39 be a2 d9 44 be
       -0.12930827 -0.32067505 -0.18151724 -0.19223645
000330 72 ab 80 be 81 3f 26 be 32 11 18 3d 38 94 2b bd
       -0.25130802 -0.16235162 0.037125774 -0.0418894
000340 08 b1 49 3d 57 27 ed bd b9 f3 13 be 74 5e de bd
       0.049241096 -0.11579769 -0.14448442 -0.10857859
000350 47 ae 63 bd 8f 66 30 be 8b 85 9e bc 08 b5 2f be
       -0.055586126 -0.17226623 -0.019350788 -0.17158902
000360 ec 3f 0e be 99 06 b3 bd 24 ac 56 be c9 dd fc bd
       -0.13891572 -0.08741493 -0.20964104 -0.1234699
000370 d2 7d 43 be f1 0e 03 be 61 a5 99 bc 2e 4a f0 bd
       -0.19090965 -0.12798668 -0.018755617 -0.11732899
000380 1a 76 69 3c 16 d9 b2 3d a1 66 34 be 84 78 5d be
       0.014249349 0.08732812 -0.17617275 -0.21628004
000390 29 ea 7a 3e c2 77 13 be c7 8c 0f 3e 47 7a db bc
       0.24503388 -0.14401153 0.14018546 -0.026791705
0003a0 8d fd 1a be a1 6b 85 be a4 9f c9 bd 50 06 46 be
       -0.15135784 -0.26058677 -0.09844902 -0.19338346
0003b0 1f 74 03 be 47 a4 01 bd 09 d4 93 bd 8e 26 0c bd
       -0.12837265 -0.031650808 -0.07218177 -0.034216456
0003c0 7f 5c 7d be 0c 6c 55 be a4 75 87 bd 48 2c d3 bd
       -0.24742316 -0.20841998 -0.06614235 -0.1031118
0003d0 c1 52 72 be 25 8a 03 be fc f4 b6 bd 88 29 3f be
       -0.2366438 -0.12845667 -0.08933446 -0.18668187
0003e0 c3 a1 e5 3d 9c 1c 56 be 02 5b 75 be 03 09 1b be
       0.11212494 -0.20909351 -0.23960498 -0.15140156
0003f0 82 e8 9d bc f3 19 3a be 84 19 22 be 94 21 84 be
       -0.019275907 -0.18173961 -0.15830046 -0.25806868

fc3.weight f4 [4, 256]
000000 98 d8 d4 3e e4 0b c3 3d 90 5d 5f bd ec e2 f9 3d
       0.41571498 0.09523752 -0.054532588 0.12201485
000010 5d 6e 16 be e1 44 4a be fb bf 15 bf 10 7c 3e be
       -0.14690538 -0.19752838 -0.58496064 -0.18602014
000020 16 8f 28 bd 5d 62 16 bf d2 d1 52 be 35 99 be bd
       -0.041152082 -0.5874384 -0.20587853 -0.09306566
000030 43 2c 13 bf ab 73 0b be bb 0b 07 3e 87 2d 82 be
       -0.57489413 -0.13618343 0.13188069 -0.2542536
000040 93 68 40 3e 37 ba 2b be 05 ae c8 be e7 d7 3c bc
       0.18789892 -0.16770254 -0.39195266 -0.0115260845
000050 85 ca 97 bb 51 d7 a2 bc be 21 51 3e 0a 5e 67 3e
       -0.0046322965 -0.019878061 0.20423028 0.22594467
000060 5d 99 14 3f af 1b fb 3d 66 8f b5 bd ac ed d1 be
       0.58046514 0.122611396 -0.08865242 -0.41001642
000070 c7 43 2d 3e 34 46 ea be 45 2d 5c 3f 83 51 c4 be
       0.16920386 -0.45756686 0.86006576 -0.38343439
000080 16 7a 1f 3d fa 50 fc bd a2 5f 95 be cd 0b ac be
       0.03893479 -0.123201326 -0.29174525 -0.33602753
000090 83 6f 11 bd 70 cc 64 bd b8 8f 0f bd 4c 31 d0 bd
       -0.035506736 -0.05585903 -0.03504917 -0.10165653
0000a0 64 b0 b4 bd 25 e2 87 3e 27 82 3c be a3 9d 98 be
       -0.08822706 0.26539722 -0.18409024 -0.29807767
0000b0 a2 96 c2 bd 7c a2 9e bd 87 b7 de 3e 04 34 6d 3e
       -0.09501387 -0.07745835 0.43499395 0.23164374
0000c0 f6 ea 47 3e 4a 33 3b 3f ce 12 83 be b2 a3 00 be
       0.19523224 0.73125136 -0.25600284 -0.12562445
0000d0 b3 23 1a be 2f d5 14 3d 93 ba 99 3c 29 c3 4c bd
       -0.1505268 0.03633612 0.018765723 -0.049990807
0000e0 7f 59 0b bd e2 d0 8a be 40 c3 9e bc 71 c9 1f 3e
       -0.034020897 -0.2711249 -0.019380212 0.15604188
0000f0 4e 59 b9 3e 97 78 30 bf b3 3f 9b 3e 4a 1a 49 be
       0.36200947 -0.68934005 0.30322036 -0.19638935
000100 58 b5 12 3d 0c 21 d1 bd 65 69 ce 3d 25 42 42 be
       0.035817474 -0.10211381 0.10078696 -0.18970545
000110 eb 7e c0 bc 0d ff 2d 3e 36 f7 c7 3e 44 e6 26 bf
       -0.02349802 0.16991825 0.39055794 -0.6519511
000120 1e b4 83 be a0 c5 0b 3e d6 8f 93 3e 2f 23 fe bc
       -0.25723356 0.13649607 0.28820676 -0.031022636
000130 6a ef bf be c1 2e 25 bd b2 0a 66 3e ff 1d 00 3f
       -0.37487346 -0.04032779 0.22465017 0.5004577
000140 3f 51 86 3f b6 17 6d 3e 0d 70 2b bd 09 c7 24 3c
       1.0493544 0.23153576 -0.041854907 0.010057219
000150 22 6b 87 3e 47 d5 14 bd 9c fa ac 3e 71 d9 db bd
       0.26448923 -0.03633621 0.3378495 -0.10734833
000160 81 0c 38 3e 7a e9 f6 3b 56 ea f7 be b5 a9 a7 3b
       0.1797352 0.007535157 -0.48420972 0.005116666
000170 15 03 a8 be 2e 42 03 bd d1 3b 81 3e 17 9d 4d bf
       -0.3281485 -0.032045536 0.2524095 -0.80317825
000180 5d 50 fb 3c cc 0b 63 3f fc 1f 94 3e 19 56 17 3d
       0.030677969 0.88689876 0.28930652 0.036947343
000190 ee 8e 95 bd 54 f9 09 3f 8f 6c 37 3e f8 54 0e 3e
       -0.07302652 0.5389607 0.17912506 0.138996
0001a0 5f 26 f4 bd a0 02 65 bc 57 a2 7d bd 66 d9 10 3e
       -0.11921381 -0.013977677 -0.061922397 0.14145431
0001b0 ea a3 59 3e 44 bc 32 3e dc 11 f8 3d 51 e5 f3 bc
       0.21253935 0.1745463 0.121127814 -0.029772433
0001c0 25 94 b0 3e 20 be ed 3e 99 d3 53 be 59 18 13 bc
       0.34488025 0.46434116 -0.20686187 -0.008977973
0001d0 02 fb 78 be 7a 27 dd be 3e 23 c8 3e 7a f2 df 3d
       -0.24314502 -0.4319418 0.39089388 0.109349206
0001e0 f1 32 2c be c8 02 35 bf ff a3 24 be e3 0a 4b 3e
       -0.16816308 -0.7070737 -0.16078185 0.19828372
0001f0 3e 50 86 be e4 68 a4 3d 80 5c 46 be 8f 3a f8 bd
       -0.26233095 0.08027819 -0.19371223 -0.12120544
000200 99 23 99 be 53 15 c5 3d f5 64 13 3e e2 88 e1 3d
       -0.2990997 0.09623208 0.14393981 0.110124364
000210 cf 01 2f 3f 82 45 7b bd 72 62 af bc fd a7 02 bd
       0.68362135 -0.061345585 -0.021409247 -0.031898487
000220 88 6d 33 bd a3 b3 94 be 1a 29 02 3f 18 f3 02 3f
       -0.04380563 -0.29043302 0.50843966 0.5115218
000230 fe c0 93 bc 0c ee b1 3e 6f cc 45 bf 59 ac 58 3e
       -0.018036362 0.34751928 -0.77265066 0.21159495
000240 32 24 7f be cc 27 44 bf 9a 79 f5 3d f3 3a 14 3d
       -0.24916151 -0.76623225 0.11986084 0.03618903
000250 6c 82 aa 3d 97 a5 10 3d d9 ea a2 bd c8 0a 92 39
       0.08325657 0.03531417 -0.0795495 0.00027855323
000260 9d b2 4a be 4a 74 12 be a2 6c ab 3d a1 65 0e bf
       -0.19794698 -0.14302173 0.083703294 -0.55623823
000270 44 7d 45 be 4b 58 86 3f 11 6d 34 3e 05 e8 02 bf
       -0.19286066 1.0495695 0.1761973 -0.51135284
000280 d5 0c 17 3e 2a 1c be 3d 46 29 0a be 9c b9 22 be
       0.14750989 0.092827156 -0.13492307 -0.15891117
000290 a8 63 95 be f3 cd e7 3c 16 e7 1e bf 5f 26 e9 3b
       -0.29177594 0.028296446 -0.6207136 0.00711517
0002a0 11 c8 6e 3e 51 3b 07 3e 23 e9 25 bc 93 e0 91 be
       0.23318507 0.13206221 -0.010126385 -0.2849165
0002b0 70 79 97 3e 3f 72 0b 3d f9 33 4d 3f 40 ed f6 3b
       0.29584837 0.0340445 0.8015743 0.0075356066
0002c0 bf 0b 1f 3e d5 e7 d5 bd 52 3a 20 be c0 f6 f8 bd
       0.15531825 -0.10444609 -0.15647247 -0.12156439
0002d0 1f 9b 3a bf 66 77 c6 bc c4 ff 97 be 98 0c 1d 3d
       -0.72892946 -0.024226855 -0.2968732 0.03834209
0002e0 6b 87 32 bd c5 25 44 bc 2e 4e 2d 3e 40 bc 1d bf
       -0.043586176 -0.011971896 0.16924354 -0.6161537
0002f0 c6 bc 0f bf 32 a7 27 3f c8 28 19 3d 90 99 02 3e
       -0.5614742 0.65489495 0.037392408 0.12753892
000300 97 96 46 bf f7 e5 06 3d 74 42 13 3f 44 89 bd bc
       -0.7757353 0.032934155 0.57523274 -0.023136742
000310 24 9f 8f 3e bd 5c a0 3e dd 46 01 3f 7e c0 5e bc
       0.28051102 0.31320754 0.50498754 -0.013595698
000320 5b d3 be be a5 ef 65 3e 84 0e 44 3d 24 d3 27 3f
       -0.37270626 0.22454698 0.047865406 0.6555655
000330 bf a9 96 bd 60 4e 49 bd 6e 66 95 3e 27 d5 47 3f
       -0.07356595 -0.04914701 0.2917971 0.7805962
000340 23 03 06 3f 7e 50 0d 3f aa 63 88 be d6 b5 65 bd
       0.52348536 0.55200946 -0.26638538 -0.056081615
000350 4d 5a 1d be a7 85 55 be 30 d6 95 bd f2 a0 7b be
       -0.15366478 -0.20851766 -0.07316244 -0.24573115
000360 bb a7 77 3e 93 ed c4 be 37 68 06 3f 63 be 1d be
       0.24185078 -0.38462505 0.5250277 -0.15404658
000370 be 5a 21 3f b4 07 a4 bd cd 45 c8 3e e9 60 fc bd
       0.63029087 -0.08009282 0.39115754 -0.12323172
000380 42 55 18 bf 6a e5 5f be cc 8b 12 bd 7c 06 27 3e
       -0.59505093 -0.21864858 -0.035777852 0.16311067
000390 2f 04 1c be 12 7d 69 3e e6 cf 05 3e 6a 9f 3f 3f
       -0.15235971 0.22801617 0.13067588 0.7485262
0003a0 cb fb 9b bc f0 ec b6 bd 95 26 80 be c5 5f 4d bd
       -0.019040963 -0.08931911 -0.25029436 -0.05014016
0003b0 0f 2a f4 3d 03 ec 53 be ff f4 98 3e 14 e9 d3 bd
       0.119220845 -0.206955 0.29874417 -0.103471905
0003c0 19 c7 c7 be 10 3e 19 3c fd 92 52 be ec 0a 45 be
       -0.39019087 0.009353176 -0.20563884 -0.19242448
0003d0 47 5d 9d be d9 56 cd be 3a 5b 10 3d da 0f 0d bd
       -0.30735227 -0.40105322 0.03524325 -0.034438945
0003e0 4b f2 ff bd 26 af 5f 3f 9d ad fd 3d 51 f6 0c be
       -0.124973856 0.8737663 0.1238663 -0.13765837
0003f0 8e 99 16 3f c7 96 a8 ba 8a d6 56 bd c8 fb 33 be
       0.58828056 -0.0012862318 -0.052450694 -0.17576516

fc3.bias f4 [4]
000000 36 d1 94 3d ac d8 0d bc d2 d7 e8 3c 2f f1 7f 3c
       0.07266466 -0.008657616 0.028423224 0.0156214675

bn1.weight f4 [512]
000000 a9 e2 e4 3e 26 09 13 3f e7 c3 c1 3e d5 db e1 3e
       0.44704178 0.57435834 0.37844774 0.4411303
000010 c9 30 4b 3f 9c be b7 3e 7e 5f dc 3e ab b9 f6 3e
       0.79371315 0.3588761 0.43041605 0.48188528
000020 aa 95 2a 3f f7 28 1e 3f d3 cf 21 3f 22 80 1a 3f
       0.6663462 0.6178126 0.6320774 0.60351765
000030 d3 6f 0f 3f 52 99 23 3f 10 45 df 3e a3 32 ea 3e
       0.56030005 0.63905823 0.43607378 0.45741758
000040 a2 36 04 3f 38 df 2c 3f 06 fc e1 3e 89 35 81 3f
       0.51645863 0.67528105 0.4413759 1.0094463
000050 a0 a7 f5 3e d5 3e fe 3e 5e 11 1b 3f 8f 8a 3e 3f
       0.4797945 0.49657312 0.60573375 0.74430174
000060 41 82 74 3f 6a 5b 26 3f d3 06 41 3f 0b 58 05 3f
       0.9551125 0.64983237 0.7540104 0.5208747
000070 e7 95 47 3f ed d0 0b 3f 98 e6 16 3f 08 86 d6 3e
       0.7796311 0.5461567 0.5894561 0.41899133
000080 e8 cc 12 3f ac 20 f5 3e 56 14 43 3f 06 04 6e 3f
       0.5734391 0.4787649 0.76202905 0.9297489
000090 0b 0a 28 bf f9 29 1e 3f 82 70 0d 3f 30 57 f9 3e
       -0.65640324 0.61782795 0.552498 0.4869933
0000a0 82 90 2d 3f 8d bb 5b 3f 2b bc 25 3f 4c 13 05 bf
       0.67798626 0.85833055 0.64740247 -0.5198257
0000b0 0a 6c 1f 3f 59 d5 44 3f 28 ca 41 3f cc 03 31 3f
       0.6227423 0.7688804 0.7569909 0.6914642
0000c0 af 72 61 3f 98 a2 3d 3f 79 01 f9 3e 0c 88 e3 3e
       0.8806562 0.74076223 0.48633936 0.44439733
0000d0 4e e4 4f 3f 63 fa 1b 3f 13 7d 05 3f 2d 20 1c 3f
       0.8120774 0.60928935 0.52143973 0.60986596
0000e0 53 ec 08 3f bf 9f dc 3e 95 58 16 3f b0 91 36 3f
       0.534856 0.43090627 0.58728915 0.7131605
0000f0 f1 2d 05 3f 60 9c a6 3f d2 20 11 3f be da 26 3f
       0.52023226 1.3016472 0.56690705 0.65177524
000100 21 2e 2a 3f 9c a2 1b 3f d6 1c 65 3f a8 cd 0b 3f
       0.6647664 0.60795 0.89497125 0.5461068
000110 99 f0 15 3f a7 43 d5 3e 18 7c f0 3e 52 c6 a2 3e
       0.5857025 0.41653177 0.46969676 0.3179193
000120 6f 4c 48 3f 95 df 25 3f 5b be 87 3f 48 8a 02 3f
       0.7824163 0.64794284 1.0604967 0.5099225
000130 19 bb fc 3e aa 6f 00 3f 8b d4 85 3f fa 8e 11 3f
       0.49361494 0.50170386 1.0455488 0.5685879
000140 06 8e c6 3e a3 b1 3b 3f b1 39 51 3f f9 64 da 3e
       0.3878023 0.7331793 0.81728655 0.4265516
000150 61 15 23 3f 86 ab e3 3e 2b fc 22 3f a5 d3 ac 3e
       0.63704497 0.444668 0.6366603 0.33755222
000160 15 1b 40 3f d9 44 18 3f f5 7b 23 3f ee ed 06 3f
       0.75041324 0.59480053 0.6386102 0.527068
000170 c1 5d 18 3f d0 30 35 3f 33 b8 4b 3f 70 5f 1f 3f
       0.5951806 0.70777607 0.7957794 0.62255
000180 b8 58 ed 3e 8c d8 13 3f 13 c8 13 3f e9 f9 c5 3e
       0.4635675 0.577523 0.57727164 0.3866723
000190 64 a0 c6 3e 31 75 11 3f 4d 44 3c 3f ae 0d 28 3f
       0.38794243 0.56819445 0.7354172 0.65645874
0001a0 ad cf 15 3f d1 17 1b 3f 8d 7e dd 3e 2d 22 24 3f
       0.58520013 0.60583216 0.43260613 0.6411465
0001b0 6a 5b 11 3f 8e 84 75 3e 25 c2 1f 3f 5e 5e 0b 3f
       0.5678011 0.23976347 0.62405616 0.5444087
0001c0 4f 4c 3d 3f 29 11 d5 3e c1 29 86 3f ab ac d8 3e
       0.7394456 0.41614655 1.0481492 0.42319235
0001d0 93 f2 83 3f 15 5c 8f 3f 9e 09 c5 3e 07 23 1a 3f
       1.0308403 1.1199976 0.384839 0.602097
0001e0 01 b1 07 3f 31 8d 33 3f 8a 4c 2f 3f 8b 6c 08 3f
       0.5300446 0.70137316 0.68476164 0.53290623
0001f0 ce 8a 7c 3f 4d 41 1d 3f eb c6 f6 3e f0 5e 2f 3f
       0.986493 0.61427766 0.48198637 0.6850424
000200 be ba 27 3f 9b c5 ac 3e 86 39 23 3f 86 d1 35 3f
       0.6551932 0.3374451 0.6375965 0.7102283
000210 dd 11 e2 3e f9 fb 30 3f c6 63 0e 3f 94 1b 0d 3f
       0.44154254 0.6913448 0.5562099 0.55120206
000220 11 96 36 3f 81 b9 08 3f 60 47 0b 3f 84 ea 33 3f
       0.71322733 0.53408056 0.54405785 0.7027972
000230 8b d7 39 3f a3 e4 06 3f 2f 83 67 3f db 6c 18 3f
       0.7259452 0.5269262 0.90434545 0.595411
000240 72 27 80 3f 0c 4c 12 3f 70 8f e5 3e 84 1b ff 3e
       1.0012038 0.5714729 0.44835997 0.4982568
000250 dc 85 06 3f 39 ad 14 3f 50 65 fa 3e c9 84 0d 3f
       0.52548003 0.58076817 0.4890542 0.5528074
000260 01 52 49 3f 97 8e f1 3e 19 52 f8 3e 9f f8 27 3f
       0.78640753 0.471791 0.48500136 0.6561374
000270 e4 ac 0a 3f 7d a2 1a 3f e9 69 3e 3f 87 af 4b 3f
       0.5417006 0.6040419 0.74380356 0.7956471
000280 cc 38 6c 3f f5 c3 10 bf a2 7d d9 3e 00 d5 db 3e
       0.92274165 -0.56549007 0.42478663 0.42935944
000290 ae ea 09 3f 97 2d 19 3f 4d c2 f0 3e fe be f3 3e
       0.5387372 0.5983519 0.4702324 0.47606653
0002a0 12 4a 14 3f a9 f1 16 3f f2 4b 29 3f f5 cd dc 3e
       0.5792552 0.58962494 0.6613151 0.43125883
0002b0 98 36 36 3f 8b 25 96 3f 43 93 1b 3f 9c bd 1a 3f
       0.71177053 1.1730207 0.6077158 0.6044557
0002c0 c1 55 1d 3f dc ee 30 3f 4a ea 2b 3f 55 d9 cf 3e
       0.61458975 0.6911447 0.6715437 0.405955
0002d0 66 30 1e 3f 6b 14 38 3f 2d 21 fb 3e 46 e0 4b 3f
       0.617926 0.71906155 0.4904875 0.7963909
0002e0 45 4b 46 3f c3 1e 64 3f e9 c9 52 3f 98 20 fd 3e
       0.774586 0.8910944 0.8233934 0.4943893
0002f0 58 42 18 3f 68 7d 30 3f d4 9c 00 3f f5 6a 0f 3f
       0.5947623 0.68941355 0.502393 0.5602258
000300 3c cf 34 3f 9c a9 36 3f 9f c9 41 3f 38 a8 1f 3f
       0.70628715 0.71352553 0.75698274 0.62366056
000310 53 31 36 3f d6 90 25 3f aa 98 2a 3f 10 f8 f0 3e
       0.7116901 0.6467413 0.66639197 0.47064257
000320 ad 56 4f 3f ac 7e db 3e 04 1d 32 3f 28 94 21 3f
       0.8099163 0.4287008 0.69575524 0.63116693
000330 86 17 3f 3f 50 29 1e 3f 08 99 19 3f 1e bd 12 3f
       0.7464527 0.6178179 0.5999913 0.5731982
000340 6d 3b 15 3f d5 19 fe 3e 42 7b 01 3f 40 fc 08 3f
       0.582938 0.49629083 0.505787 0.535099
000350 51 cf 68 3f 11 67 33 3f 6b df 30 3f 78 0f 48 3f
       0.9094134 0.7007914 0.6909091 0.78148603
000360 28 66 95 3f b5 7b 09 bf b9 1a b5 3e ce b1 50 3f
       1.1671801 -0.53704387 0.3537195 0.8152131
000370 e5 fa 10 3f 75 6b 2d 3f 8e bc fc 3e b0 35 c1 3e
       0.56632835 0.6774209 0.49362606 0.37736273
000380 d1 06 40 3f 80 c2 bd 3e 03 37 91 3e d2 e6 26 3f
       0.750104 0.37062454 0.28362283 0.65195954
000390 59 89 1b 3f 83 d9 08 3f e4 fa b9 3e b0 4b 4b 3f
       0.6075645 0.53456897 0.36324227 0.79412365
0003a0 06 4c e1 3e cd 77 e9 3e 36 f0 db 3e 90 3c 28 be
       0.44003314 0.45599213 0.42956704 -0.16429353
0003b0 2c 35 03 3f 7f 46 0b bf cb 54 07 3f 1b b5 28 3f
       0.5125301 -0.54404444 0.5286376 0.65901345
0003c0 76 b9 2c 3f 8a 17 2f 3f bb 4c 33 3f 85 ee 1a 3f
       0.6747049 0.6839529 0.70038956 0.605202
0003d0 ad 33 15 3f 5c 5b 01 3f 91 45 3a 3f 70 d6 2e 3f
       0.58281976 0.5053003 0.727624 0.68295956
0003e0 f9 54 db 3e 64 51 17 3f 28 8d 11 3f 3a 15 3e 3f
       0.42838266 0.5910857 0.5685601 0.7425114
0003f0 80 4a 01 3f 79 f4 d0 3e 9a 52 0f 3f ad bc 30 3f
       0.505043 0.40811518 0.55985415 0.69037896

bn1.bias f4 [512]
000000 f9 e3 5c 3e 2a f9 a2 3e d9 e3 0d 3e 3c 8f fe 3d
       0.2157134 0.31830722 0.13856448 0.124296635
000010 3e 95 53 3e 0d d3 c9 3d 00 e0 88 3e 55 a1 03 3d
       0.206624 0.09854708 0.26733398 0.03213628
000020 d6 c0 9d 3e 85 3c ce 3d 1d 50 70 3e d4 49 3a 3e
       0.30811185 0.10070137 0.23468061 0.18192226
000030 80 e5 61 3e 36 a0 9c 3e 01 37 3b 3d 6b 5a 24 3e
       0.22060204 0.3059098 0.045706753 0.16050117
000040 ca 74 e0 3a 1c b9 96 3e 29 3b 46 3e 67 04 7d 3e
       0.001712465 0.29438102 0.19358505 0.2470871
000050 f1 ab 5c 3e 7a c8 30 3e 20 02 6e 3d 90 04 ad 3e
       0.21549965 0.17263976 0.058107495 0.33792543
000060 3d 66 7e 3e 22 9c b0 3e 3c 6a 2d 3e d8 d0 0e 3e
       0.24843688 0.3449412 0.16935056 0.13946855
000070 f7 25 f0 3e fb 2f 80 3e 59 45 97 3e 46 94 59 bd
       0.46903965 0.25036606 0.29545096 -0.05311992
000080 3c 73 4f 3e ed e1 86 3e d1 15 84 3e 16 a3 7f 3e
       0.20258802 0.26344243 0.25797895 0.24964556
000090 a0 7d 92 be 99 01 b0 3d 57 fe dd 3d 25 8d 3f 3e
       -0.2861147 0.08594055 0.10839527 0.18706186
0000a0 97 69 02 3e 8e d1 80 3e 5e 95 4e 3e 12 38 09 be
       0.12735592 0.25159878 0.20174167 -0.13400295
0000b0 8a f8 a1 3d e9 a7 85 3e d4 64 0c 3e 18 c9 4b 3e
       0.07908733 0.26104668 0.13710338 0.1990093
0000c0 b7 10 3a 3e bb 97 68 3e 5d 07 a6 3d 53 b3 28 3e
       0.18170439 0.2271413 0.08106873 0.16474657
0000d0 f3 a4 35 3e 87 a9 49 3e 71 c2 fb 3d d0 86 a7 3e
       0.17738704 0.19693576 0.12292946 0.3272004
0000e0 4f 93 96 3e cf d9 a3 3d 54 19 05 3e 5e b4 54 3e
       0.29409263 0.08000528 0.12997943 0.2077193
0000f0 77 92 88 3e 28 d8 b3 3e a3 69 84 3d ed ee 24 3e
       0.26674244 0.35125852 0.06465461 0.16106768
000100 a9 bd 8a 3e 6d 7f f3 3d cf ed e7 3d c6 58 85 3e
       0.27097824 0.11889539 0.11324655 0.2604429
000110 62 54 30 3e 06 56 01 3d a4 36 2f 3e ab ae e3 3d
       0.1721969 0.03157618 0.17110687 0.111173
000120 07 08 3b 3e 5d 15 30 3e a4 cd 8f 3e 97 01 39 3e
       0.18264781 0.1719565 0.2808658 0.18067013
000130 bb 47 a1 3c 1f 1e 1b 3e 1d 04 8b 3e e1 1e 93 3e
       0.019687524 0.15148209 0.27151576 0.28734496
000140 0f 73 21 3e 50 da 66 3e f1 fe 8a 3e 28 21 99 3d
       0.15766548 0.22544217 0.2714763 0.07477027
000150 6f 4f 84 3d 6e 34 14 3e 86 67 52 3e 0b cd 8d 3c
       0.06460463 0.14473125 0.20547304 0.017309686
000160 7e b3 34 3e 85 31 83 3e f9 5a 9b 3e ca 80 3a 3e
       0.17646596 0.25623718 0.30342844 0.18213192
000170 bf 8c c1 3d ed e2 36 3e 46 84 79 3e 8b 5c d9 3d
       0.09450673 0.17860003 0.24366865 0.10613354
000180 10 af f4 3d e4 11 c8 3d 54 40 0b 3e fa 6c 8c 3e
       0.11947453 0.09769037 0.13598758 0.27426893
000190 15 e1 2f 3c ae e9 36 3e f8 c3 50 3e 8c 80 78 3e
       0.010734816 0.17862579 0.20387256 0.24267787
0001a0 85 9f 83 3e c7 9e 3c 3e 91 44 8c 3d f8 2d 7d 3e
       0.2570764 0.18419944 0.068490155 0.24724567
0001b0 fc 20 8f 3e 2f 6e 1e bd c2 97 46 3e 00 c2 8a 3e
       0.27954853 -0.038679298 0.19393829 0.27101135
0001c0 cb bb 93 3e 80 54 24 3e 50 3e 76 3e 41 cf f7 bd
       0.28854212 0.16047859 0.24047208 -0.121000774
0001d0 8c 3e 8d 3e 16 2b c0 3e 95 61 92 3d ad ae 33 3e
       0.27586782 0.37532872 0.071475185 0.17547102
0001e0 00 8b 3d 3e c0 e6 57 3e 83 0b 11 3e 91 6c f3 3d
       0.18510056 0.21084118 0.14164548 0.11885942
0001f0 6e 66 81 3e 0b 74 66 3e a2 0d 74 3d 9b 43 85 bc
       0.2527346 0.22505204 0.059583314 -0.016267588
000200 9f 3a a0 3d 34 7f 3e bd ca f2 03 3e 76 4a 93 3e
       0.07823681 -0.04650803 0.12885585 0.28767747
000210 2e df aa 3d d9 6c 83 3e 87 9f 95 3e 47 13 21 3e
       0.083433494 0.25668982 0.29223272 0.1573001
000220 05 22 71 3e cc c8 df 3c 16 f1 31 3e 1a 3a 4a 3d
       0.23548134 0.027317427 0.17377123 0.049371816
000230 ed f0 3f 3e 07 18 92 3e 89 14 c1 3e 9e 87 7f 3e
       0.1874425 0.28533956 0.3771098 0.24954078
000240 3f 13 85 3e b2 3f 6a 3e 36 df 84 3e e4 94 f8 3d
       0.25991246 0.2287586 0.25951546 0.12137774
000250 51 26 88 3d b0 17 33 3e e0 fc 18 3e 7e 1f 1a 3e
       0.06647933 0.17489505 0.14940214 0.15051076
000260 6f bf 88 3e 43 50 df 3c fa 50 08 bc d3 f3 e9 3d
       0.26708552 0.027259951 -0.008320088 0.11423459
000270 51 2e 37 3e f5 de 9d 3d 22 d6 af 3d cf d5 22 3e
       0.17888762 0.07708541 0.085857645 0.15901874
000280 64 35 c9 3e f5 6e 2f be 0b 4c 17 3e 3d 59 58 3e
       0.39298546 -0.1713217 0.14775102 0.21127792
000290 9a 1b d0 3d ee 3f 59 3e 89 a6 b2 3d 89 27 7c 3e
       0.101615146 0.21215793 0.0872317 0.24624456
0002a0 4c 3b 96 3e 5e 30 12 3e ac 70 30 3e 5f 85 06 3d
       0.29342115 0.14276263 0.17230481 0.032842036
0002b0 f7 83 27 3e 38 c5 75 3e 22 c1 98 3e 89 61 4b 3e
       0.16358934 0.24001014 0.2983485 0.19861425
0002c0 4d c2 bb 3d f4 5e 84 3e 21 6a 51 3e 5b a8 09 bd
       0.09167919 0.25853693 0.20450641 -0.033607822
0002d0 f1 4d 01 3e 07 b9 08 3e a1 de 23 bd 8f 9d 5f 3e
       0.12627389 0.13351832 -0.040007237 0.21837448
0002e0 75 81 88 3e ca b1 f4 3e 36 6c 93 3e 72 0f 2f 3e
       0.26661268 0.47791892 0.28793496 0.17095736
0002f0 e0 d6 3b 3e d1 77 55 3e 89 d7 06 3e 6e 8f 08 3e
       0.18343687 0.20846488 0.13168158 0.13335964
000300 30 dc a5 3e 16 ec 89 3e a0 75 77 3e fa 54 50 3e
       0.32394552 0.26937932 0.24165964 0.20344916
000310 79 33 c7 3c ce 0c 89 3e 67 23 35 3e 8b d0 2e 3e
       0.024316536 0.26767582 0.17689286 0.1707174
000320 cb 76 aa 3e 5b 5e 07 3e d3 7c f7 bc 0d d8 48 3d
       0.33293757 0.13219588 -0.030210888 0.049034167
000330 14 60 1f 3e 27 8e 8c 3e f1 9e de 3d 2a cb 33 3e
       0.15563995 0.27452204 0.108701594 0.1755797
000340 7e 33 26 3e bc d7 01 3e 14 93 f6 3d bc 93 aa 3d
       0.1623058 0.12679952 0.12039772 0.08328959
000350 80 88 0c 3e 7b 58 22 3e 0e 1f 55 3e 5b 7f 87 3e
       0.13723946 0.15854065 0.20812628 0.26464352
000360 f3 1f d6 3e a0 a3 06 be 28 2c 50 3e 94 ad 25 3e
       0.4182125 -0.13148355 0.20329344 0.16179496
000370 21 4e 57 3e b7 21 cf 3d 76 aa 7b 3e 83 ef db 3d
       0.21025898 0.101138525 0.24576744 0.107390426
000380 9c f7 35 3e ee da 86 3e 76 e2 e6 3d e9 7b 89 3e
       0.17770237 0.26338905 0.11273663 0.26852348
000390 9b 11 4b 3e 8f 62 91 bc 20 a8 85 bd d4 0c 73 3e
       0.19830935 -0.017747192 -0.06526208 0.23735362
0003a0 72 d5 2e 3e b9 11 66 bb 8d 85 55 bd 11 b8 ce bb
       0.1707361 -0.0035105778 -0.052129317 -0.0063085635
0003b0 d7 69 de 3d 7c e8 d5 bd 62 5e 4a 3e c2 27 43 3e
       0.10860031 -0.104447335 0.19762567 0.19058135
0003c0 b7 ea 62 3e e7 56 b0 bc 1a 36 5a 3e 26 6d 72 3e
       0.22159849 -0.021525813 0.213097 0.2367445
0003d0 f4 6f c1 3d 3a 98 45 3e a5 8d 80 3e 15 e0 ef 3d
       0.094451815 0.19296351 0.25108066 0.11712662
0003e0 ec 2c 40 3e 4b 2e 6b 3e f3 cc dc 3d 83 4d 3a 3e
       0.18767136 0.22966878 0.107812785 0.18193631
0003f0 47 9d fb 3d 75 3d 21 3d f8 74 17 3e fa 10 94 3e
       0.12285858 0.03936525 0.14790714 0.28919202
