checkpoint_actor.pth (torch_old, 161774 bytes, 14 tensors)

fc1.weight f4 [128, 33]
000000 96 ca 99 bd 77 76 ca 3d a5 1c 92 3e 83 14 72 3e
       -0.07509343 0.098858766 0.2853748 0.23640637
000010 b5 c7 06 bf 2a d7 93 be c7 7e ce be 88 4e 71 3e
       -0.5264848 -0.28875095 -0.40331098 0.23565114
000020 53 da 73 be 22 d7 e2 bd 3e e5 5c be fd 83 d0 bd
       -0.23813753 -0.110761896 -0.21571824 -0.10181425
000030 fb f9 16 3e f9 65 c3 bd d7 71 d7 3d 47 5a a5 3d
       0.14743797 -0.09540934 0.1051976 0.0807386
000040 60 d9 0d 3f 2f 64 da be 24 b5 b1 3e bd 36 30 3e
       0.5540981 -0.4265456 0.34708512 0.17208381
000050 7a 56 44 be c0 27 a6 3d 48 a7 bb bd a2 27 9f be
       -0.19173613 0.081130505 -0.09162766 -0.31084925
000060 37 2f e6 bc d8 c4 01 3e c6 6e f3 bd f8 df c1 3e
       -0.028098686 0.12672746 -0.11886363 0.37866187
000070 d2 94 29 be ae 25 2e 3d 3c 88 a7 be 90 9c 88 bd
       -0.16560677 0.042516403 -0.32721126 -0.06670487
000080 fe e9 5a 3f db 43 3e 3d 9d b2 80 3e 7d ea bd 3e
       0.85513294 0.04645143 0.2513627 0.37092963
000090 ab ba 61 be 7f 8b 98 be 81 18 13 bf cc 86 23 3e
       -0.22043864 -0.29793927 -0.57459265 0.1596939
0000a0 1a 5a 77 3e 8d f5 75 be 1f e3 06 bf 66 a7 79 bd
       0.24155465 -0.24019451 -0.5269031 -0.06095066
0000b0 b7 52 23 3e a5 14 13 3e 4f 91 81 3d 6b a7 65 bd
       0.15949522 0.14363344 0.063265435 -0.056067865
0000c0 29 c9 c0 bd 86 2b 87 3e 2a cd 7a 3f cc c7 70 be
       -0.09413368 0.26400393 0.97969306 -0.23513716
0000d0 49 3a 89 bd 69 a4 77 3d 7f 29 95 3d 6a 53 f5 3d
       -0.0670057 0.060459528 0.072833054 0.119788006
0000e0 5d c2 b6 bd 69 f5 5a be e3 d8 4f be 2b 3e cf 3d
       -0.089237906 -0.21382679 -0.2029758 0.101192795
0000f0 e5 0b 3b be bc 4c 8c bd ca d4 48 3d 6a f0 49 3e
       -0.18266256 -0.068505734 0.049031056 0.19720617
000100 0f 08 5c bd 42 4b 66 bf a2 6c f8 3d 46 37 5d 3e
       -0.053718623 -0.89958584 0.12130095 0.21603116
000110 b2 f5 09 3f 97 d5 97 3e 71 70 16 3f 57 42 00 3e
       0.53890526 0.29655144 0.5876532 0.12525307
000120 97 90 c9 bd 82 b8 9e be 3b 17 75 3e 1c 2c 74 3e
       -0.098420314 -0.31000143 0.23934643 0.23844951
000130 d8 2f 91 3d 2a 0e 17 be 9a 84 bd bd 76 7d 4d 3d
       0.070892036 -0.14751497 -0.09253807 0.050168477
000140 c6 45 4c be 1e 05 7b be d7 ef 13 bf d5 3d 45 3f
       -0.19948491 -0.24513671 -0.5778784 0.77047473
000150 04 3d 65 be 61 79 cc 3e 25 40 1e bd 45 b7 c6 3d
       -0.22386557 0.39936355 -0.03863539 0.09702925
000160 db 8b 59 bd 3e 0d 16 3d ff e7 2a 3d 2e cd 49 bd
       -0.053111892 0.036633722 0.041725155 -0.04926794
000170 c7 9d 4c bd e4 eb 3e 3d 41 4e 65 3d e8 ea 46 bc
       -0.049955156 0.04661168 0.055982832 -0.012140967
000180 bb 8c ad bc 6a bd 18 3d 18 9a 13 bf 3c 2a 1c 3d
       -0.02118527 0.037290014 -0.57657003 0.038126215
000190 d7 d3 f1 be 66 f6 30 be 7e bd 33 3f 2c f6 a4 3d
       -0.47231933 -0.17281494 0.7021102 0.08054766
0001a0 9b c8 a8 3e a8 86 ae 3d cc 34 c0 bb c9 06 c8 3d
       0.3296555 0.085217774 -0.005865669 0.09766919
0001b0 3a e5 22 3e 54 95 1d be a7 ae 44 3d 6f 5f 31 be
       0.15907755 -0.15388995 0.048018124 -0.17321561
0001c0 bb 26 16 be 28 be 4f 3e 41 5b 84 3e 2b 8d 9a be
       -0.14663212 0.20287383 0.2585087 -0.30185828
0001d0 31 6e 77 bd a7 c9 3b be 9b bd f9 bc aa f1 ca bd
       -0.06040782 -0.18338643 -0.030485919 -0.09909375
0001e0 3d 9b b5 bc d7 31 c0 3d 56 61 44 3d 59 db 8b 3e
       -0.02216875 0.09384506 0.04794439 0.27315786
0001f0 ab 75 61 3e 6d 37 df 3d 1a 5f 4f bf 5d 89 17 be
       0.22017543 0.108992435 -0.8100449 -0.14798494
000200 24 8f 95 bd 4f 31 44 3f b8 72 5f bc a2 fe 0a bd
       -0.073026925 0.7663774 -0.013638191 -0.033934243
000210 6b 58 b6 bd 38 41 50 3e 3f a9 3d bd b1 69 d0 be
       -0.08903583 0.20337379 -0.046303984 -0.40705636
000220 c9 0f 05 3f 9e dd f0 3e 75 ee f1 3e e8 eb 29 3c
       0.5197721 0.4704408 0.4725224 0.010371186
000230 b3 bb 9b be a1 76 9a be 0e 8f ba 3d ce ef 9d 3d
       -0.3041664 -0.30168632 0.09109317 0.07711755
000240 09 60 e1 bc fe 2d dd 3e be cb 1b 3e 8e 06 1e be
       -0.027511613 0.43199152 0.1521444 -0.15432188
000250 8b 0d 80 ba ec c5 55 3d 3d 1d 73 bd 81 55 25 3e
       -0.0009769661 0.052190706 -0.059354056 0.16145898
000260 c5 8e f9 bb 70 05 af 3d 20 52 f1 bc f5 da 9a 3d
       -0.0076158964 0.08545959 -0.029458106 0.07561294
000270 9c 36 19 3d 31 83 be bd aa f3 7c be 26 02 07 bd
       0.037405595 -0.093023665 -0.24702325 -0.032961033
000280 a9 37 f5 3d 53 c9 94 3d 40 0d ae bd 24 e0 1a bd
       0.11973507 0.07264962 -0.08498621 -0.037811413
000290 95 8b 0b bf 32 04 69 bb ed 21 00 3e 12 e5 b1 bd
       -0.5450986 -0.003555548 0.12512942 -0.0868627
0002a0 99 07 10 be ee ae 38 3d d5 9c 3b bf 3b 7e f1 be
       -0.14065398 0.0450887 -0.7328618 -0.4716662
0002b0 9a 6d 94 3d 76 5b 66 be db 61 5a 3e 25 07 84 bc
       0.07247467 -0.22495827 0.21326391 -0.016116688
0002c0 f5 5e 75 bd 41 13 ad 3d 3a 5a 10 be f4 ec fe 3d
       -0.05990501 0.08450938 -0.14096919 0.12447539
0002d0 06 a9 b3 3e 55 a2 9e 3e f4 f2 88 3e 62 46 5b be
       0.35089892 0.30983225 0.2674786 -0.21413568
0002e0 11 02 34 3e 38 da 90 bc 0a 89 83 3e ca a7 d0 bd
       0.17578913 -0.01768218 0.2569049 -0.10188253
0002f0 68 59 65 3d 07 31 e6 3d 6b 9a ef bd be fa 3a bd
       0.055993468 0.1123982 -0.11699375 -0.045649283
000300 5f cf c2 3e ab 0d 02 3e f4 db 99 bc 5f 42 ca be
       0.38048837 0.12700526 -0.01878164 -0.39503762
000310 9c bf cd 3c 30 2e a2 3f 2a f8 89 3d a0 14 ca 3c
       0.02511578 1.2670345 0.06736787 0.024668038
000320 ae ed bf 3d ce 49 37 be 20 25 67 be bb 2c f4 be
       0.09371506 -0.17899248 -0.22572756 -0.47690377
000330 40 3b 04 bf e4 30 1d be ce 89 bc bd f1 ad 68 3d
       -0.5165291 -0.15350682 -0.09205972 0.05680651
000340 aa f8 54 3d de 5b ae 3c 88 0d d0 3c 14 21 c2 3d
       0.051994957 0.02128404 0.025397077 0.094789654
000350 b9 90 02 3e e4 b3 e7 bc 86 20 86 bb 2c 02 d9 3d
       0.1275052 -0.02828402 -0.0040932326 0.105961174
000360 ef 79 a8 bd e5 ba 94 bd ff dd c0 3d 57 55 b0 bd
       -0.08226382 -0.0726221 0.094173424 -0.08610027
000370 68 23 74 bc b9 18 32 3d 4f 4a 93 3c d8 37 b8 bc
       -0.01490102 0.04348061 0.017979769 -0.022487566
000380 90 21 55 bd 5e f6 82 3e c0 2d f1 3d cf 32 80 bd
       -0.05203396 0.25578588 0.11776304 -0.06259691
000390 55 9c 63 be 28 43 e8 3c 78 e0 e7 bf 24 6a 0a be
       -0.22227605 0.028352335 -1.8115377 -0.13517052
0003a0 3d ea 82 be df 98 4a be 13 af ae 3e 54 b9 ac 3e
       -0.25569335 -0.19784878 0.34117946 0.33735144
0003b0 12 80 47 bc f2 71 0c 3e 18 77 ff bb 0f 5c d0 3d
       -0.01217653 0.13715342 -0.0077961795 0.10173809
0003c0 22 64 e0 ba 5b 76 4d bd 5a 6a 66 bd 86 e3 a8 bd
       -0.0017119686 -0.0501617 -0.05625377 -0.08246522
0003d0 ce 93 0f bd 39 8c 8c 3e 97 a6 96 bd 54 e2 b1 be
       -0.035053067 0.2745073 -0.07355993 -0.34742987
0003e0 6f 72 fb 3d 90 5a 47 bd 8d 05 6a 3e 00 58 56 3c
       0.12277686 -0.04867035 0.2285368 0.013082504
0003f0 55 72 9a 3c 31 30 e2 bd 0c 70 8e bc 23 ea c4 3d
       0.018853346 -0.11044348 -0.017387412 0.096149705

fc1.bias f4 [128]
000000 a0 e4 a3 be c7 17 94 3e ba 9f a6 3d 1a 91 60 3f
       -0.32010365 0.2892439 0.08135934 0.8772141
000010 ec 67 03 be 8b 5d 91 be 36 78 97 be 53 5c 52 be
       -0.12832612 -0.2839168 -0.295839 -0.20543031
000020 b6 66 3e 3e 31 30 61 be 96 55 e2 bb ea fc 19 be
       0.18593869 -0.2199104 -0.0069071753 -0.15037885
000030 f4 53 82 be b1 da 9f 3a 39 18 d8 be 99 8a 39 be
       -0.25454676 0.0012195912 -0.4220598 -0.18119277
000040 f1 0e fc bd 99 b8 61 3e c1 08 6f bc 7e 89 3a 3d
       -0.12307537 0.22043075 -0.014589489 0.04554128
000050 ae 57 9f be fe 80 79 be 64 25 f8 3d 83 df f1 3a
       -0.31121582 -0.24365613 0.12116507 0.0018453453
000060 73 08 e7 bd 36 7b ad bd fa ff 1a be da 34 fa be
       -0.112809084 -0.08470766 -0.1513671 -0.48868448
000070 4c c7 08 bf 39 78 9a 3d c9 7c 10 be 0f 09 de bd
       -0.534291 0.07542462 -0.14110102 -0.108415715
000080 ac 5d 1a be ed d8 73 3b 0a 64 3a bd f9 d1 87 3e
       -0.15074795 0.0037208155 -0.04550556 0.26527384
000090 13 3a 94 be 7e 49 1f bf 67 9d 4a 3e bd a2 b8 3b
       -0.28950557 -0.62221515 0.19786607 0.0056346343
0000a0 fa 4f 71 bc cc 46 7f be 0f 3a c9 be f6 ad c4 3b
       -0.014728541 -0.2492935 -0.39302108 0.006002183
0000b0 05 59 04 be ca 70 1b bd 7d e6 c1 be ad d2 df be
       -0.12924583 -0.03794936 -0.3787116 -0.4371542
0000c0 4f 3d f3 3d c6 3c cd 3d 5a df fe be 35 7b 13 be
       0.11876928 0.10021357 -0.4977978 -0.14402469
0000d0 4f 67 b5 3d 3f 75 95 3d ed 74 66 be 14 a2 4b be
       0.08857595 0.072977535 -0.22505541 -0.19886047
0000e0 75 a9 7c be 9f b4 e3 bc 29 fb a9 be 77 44 ad be
       -0.24674018 -0.027796088 -0.33199432 -0.33841297
0000f0 2a 96 7b be 82 bc 71 be 10 89 9a bd a0 36 da 3d
       -0.24569002 -0.23607066 -0.07545674 0.1065495
000100 b6 af 93 bd 78 b9 37 be af 16 c6 bd 41 b8 be bd
       -0.072112486 -0.17941844 -0.09672295 -0.093124874
000110 a5 5f 65 bd b1 cd a2 be 4d 38 3b be 23 f0 54 bc
       -0.055999417 -0.31797555 -0.18283196 -0.012996706
000120 ed 48 21 be 8b 3e ab 3d 11 68 df 3e c0 61 b3 be
       -0.15750475 0.083615385 0.43634084 -0.35035515
000130 15 ca 0b be 3d a8 c5 be 6e fb d9 be 2b d3 a4 be
       -0.13651307 -0.38604918 -0.42574638 -0.32192358
000140 d3 7f f7 3d ec 0f b6 be d2 62 3e 3e bc d4 45 be
       0.120849274 -0.35559022 0.18592384 -0.19319433
000150 74 80 d3 3d a4 5e e8 be 6c 7f 66 be 6f 95 a6 be
       0.10327235 -0.45384705 -0.22509545 -0.32535884
000160 68 7e c2 be b6 1d 13 bb c3 16 10 3e 24 ed 9b be
       -0.37987065 -0.002244813 0.14071183 -0.3045436
000170 fa 60 29 be 64 8f ef bd f3 0e 7a be 1c 5d 73 be
       -0.165409 -0.116972715 -0.24419765 -0.23765987
000180 af c8 29 bd 6e 44 f3 3c 91 53 59 3c 16 02 22 be
       -0.041451152 0.029695716 0.013264553 -0.15821108
000190 fd 7b 77 be 2f a3 24 be 6e da 46 be f1 dc 2f 3f
       -0.24168392 -0.16077875 -0.19419262 0.68696505
0001a0 91 32 f0 3d 40 aa 7d be 82 32 b7 bc 79 40 53 be
       0.11728395 -0.24771976 -0.022362951 -0.20630063
0001b0 6d 5c c6 be 6f 8e 5f be 6e 23 16 3b 14 17 0e be
       -0.3874239 -0.21831678 0.0022909301 -0.13875991
0001c0 3e cc 42 be 54 98 90 3d 2d 75 e9 be 67 48 1b 3d
       -0.19023225 0.07060304 -0.4559721 0.037910845
0001d0 29 a6 27 3f c7 43 5b 3d d5 3c 1d be 06 15 e4 be
       0.65487915 0.053531434 -0.15355237 -0.4454729
0001e0 15 30 89 be 67 e2 e1 be 2c f3 ff bd 56 8f bd be
       -0.26794496 -0.44118044 -0.12497553 -0.3702342
0001f0 a0 39 5c be 8b f4 b5 be 95 f3 98 be c1 b5 3f be
       -0.21506357 -0.35538134 -0.29873338 -0.18721677

fc2.weight f4 [256, 128]
000000 a9 5e 32 3e 51 a1 eb 3e 9d 44 41 be 71 b7 47 3e
       0.17418922 0.46021512 -0.1887383 0.19503571
000010 df 44 cd 3c 31 4f e4 3c 13 0f ce bc 17 0d 57 3d
       0.025057254 0.027869793 -0.025153672 0.052502718
000020 b7 fd d5 3d 7b 44 05 be b9 5b 9b bd 93 4a 2e bd
       0.10448783 -0.13014404 -0.07585854 -0.04255159
000030 3a ef a0 3e e4 54 71 3e 4c 46 7d 3e 4b f4 a8 3e
       0.31432515 0.2356754 0.24733847 0.3299888
000040 3c ac a5 be b1 63 50 3e f5 8e f1 3d 60 0c a5 be
       -0.32357967 0.20350529 0.11794845 -0.32236004
000050 06 92 4c 3e 58 9a c6 be 80 43 44 3e 58 0a 84 3e
       0.19977579 -0.3878963 0.19166374 0.25789142
000060 01 97 99 3d 0c b6 0a 3d 1d a5 7a be 0e fa 90 3d
       0.07499505 0.03386502 -0.24477048 0.07078944
000070 1a cd 0c 3e bb 83 ea bd 6d 86 2d be 42 e7 f2 be
       0.13750115 -0.11450907 -0.1694581 -0.4744206
000080 39 f3 51 be d7 5f 26 be ee 5d ff 3e 93 11 36 be
       -0.20502938 -0.16247497 0.4987635 -0.17780142
000090 e6 ef 91 be 45 c1 ce bc 0d 2a d3 be d7 66 70 3d
       -0.2850334 -0.025238642 -0.4124302 0.058691826
0000a0 f4 59 ac be 02 1f cd 3e f8 33 ef bd 8f 43 4b 3c
       -0.3366238 0.4006272 -0.11679834 0.012406244
0000b0 9f d9 af 3d 34 0c 40 3e e5 29 05 3e 71 66 fa 3e
       0.0858643 0.18754655 0.13004263 0.48906282
0000c0 92 8a 04 3e 08 5b 82 be 14 5b d2 3d e0 8d a1 3e
       0.12943485 -0.25460076 0.10271278 0.31553555
0000d0 ee 2a 60 3d 66 ff 50 be 08 90 74 3d 13 16 7e 3e
       0.05472844 -0.20409927 0.05970767 0.24813108
0000e0 01 7a ad be 8a 68 5d 3c ed d9 bb ba 58 68 ec 3d
       -0.33882144 0.013513694 -0.0014331915 0.115433395
0000f0 bd 55 66 be fe b0 64 3e 56 d9 94 be 3e b2 e3 bd
       -0.22493644 0.22333142 -0.29072064 -0.111179814
000100 01 46 bb be 59 ff 3f bd 13 6d 87 be 2a 67 8f bd
       -0.36576846 -0.046874378 -0.26450405 -0.07002099
000110 81 27 25 3d 2b 6c b4 3d a4 ae ed bc e8 47 f0 bd
       0.040320877 0.08809694 -0.02901394 -0.11732465
000120 7c 9e 1c be 48 a0 bd 3c 68 cf 72 be ec 05 c2 bd
       -0.15294832 0.023147717 -0.23711932 -0.09473786
000130 10 d3 9f 3b ec 1a 71 3c c7 03 92 be d0 86 af 3e
       0.0048774555 0.014715891 -0.28518507 0.3428254
000140 3f 40 ac be 1b eb b4 be ed d0 64 3e 6d b7 cc 3d
       -0.33642766 -0.3533562 0.22345324 0.09995923
000150 2b 86 6d 3e fa 95 c0 bc ae 14 36 be 28 1a 06 3d
       0.23195712 -0.023509014 -0.17781326 0.03273979
000160 58 16 e8 be 52 68 c3 be 94 ad 05 3e 83 6e 49 be
       -0.45329547 -0.38165528 0.13054496 -0.19671063
000170 d1 e6 9b be c1 d1 d8 be ba 58 1e 3d 78 9e 07 be
       -0.30449536 -0.4234753 0.038658835 -0.13244045
000180 14 a0 bd be 43 80 2b be 43 61 9c 3c ed 55 2a 3e
       -0.37036192 -0.16748147 0.019089347 0.1663434
000190 8d 6c de 3d c0 a1 23 3e 88 2b a8 be 2f 9c 1b bf
       0.10860548 0.15979671 -0.32845712 -0.6078519
0001a0 47 95 99 be 1f 2e e9 bc e8 b6 7a 3e 24 17 12 bf
       -0.29996702 -0.028464375 0.24483836 -0.5706656
0001b0 98 4b 9e bc e8 98 36 be 2e 64 8c 3e 31 91 99 3d
       -0.019323155 -0.17831767 0.2742018 0.07498396
0001c0 5e a1 d6 bc f7 f6 22 be df e3 35 3d 50 5e 77 3e
       -0.026199993 -0.15914522 0.044406768 0.24157071
0001d0 48 cd 7d be 6f b6 d0 bd f8 9c 81 be 9b de b8 3e
       -0.2478534 -0.101910464 -0.2531507 0.36107334
0001e0 60 7f f8 3c 89 3b 52 be 0f ff 13 be e9 31 b4 be
       0.030334175 -0.20530523 -0.14452766 -0.35194328
0001f0 a5 3d af be e6 d8 d3 bd 23 bd e0 3d f9 25 2f 3d
       -0.3422672 -0.103441045 0.10973575 0.042760823
000200 09 00 35 3e 79 f0 2d bd ff e0 b5 3e e4 1d 8a be
       0.17675795 -0.04246566 0.3552322 -0.2697593
000210 ce 45 8e 3e 51 5d 30 3e dd 3f d4 bd 6f c5 2c 3e
       0.27787632 0.17223097 -0.103637435 0.1687219
000220 b8 fe 26 bd 59 d5 e1 3d cf f4 f7 bd 45 4b 43 3e
       -0.040770262 0.11027021 -0.121072404 0.19071682
000230 63 f9 a6 3d e1 84 13 be e2 3f da bc 27 b7 f1 bd
       0.081530355 -0.14406158 -0.02664179 -0.11802512
000240 fd 0b 38 3e ba fb c5 bb 06 79 d4 3d a2 d6 39 3e
       0.17973323 -0.006041971 0.10374646 0.18148282
000250 ed b4 99 bd 72 d6 41 be 0f fa 46 3c c1 56 b5 3d
       -0.07505212 -0.1892946 0.01214458 0.088544376
000260 3e 9a 00 be a2 4f 82 be e7 94 80 3c 25 c6 75 3c
       -0.12558839 -0.2545138 0.015696002 0.015000855
000270 a6 5d 07 be c7 3e e6 be 35 c9 37 be 6a 8b 9f be
       -0.13219318 -0.4496977 -0.17947848 -0.31161052
000280 b9 48 d0 bd a6 f2 6e 3e b9 ff 51 3e 39 93 3f 3d
       -0.10170121 0.2333475 0.20507707 0.04677126
000290 da 61 7c 3e 8c 7b 16 be 7d e3 16 3e a4 66 ad bd
       0.24646702 -0.14695567 0.14735217 -0.08466843
0002a0 86 de 16 be c7 d0 86 be 63 a6 da 3d e8 53 9a 3d
       -0.14733323 -0.2633116 0.10676267 0.07535535
0002b0 09 ec 29 3e 8d e2 cc 3c 69 1d 9b be 0c 71 e0 bd
       0.16593947 0.025010372 -0.30295876 -0.10959062
0002c0 27 e7 3c bd ab ba e9 bb 06 4a 83 bd 8c 60 cf 3e
       -0.04611888 -0.0071328483 -0.06410603 0.40503347
0002d0 4b 20 ff be 22 3c 48 be 6c 9f cb 3d 21 7c f1 3e
       -0.49829325 -0.19554189 0.09942517 0.47165015
0002e0 b2 c9 f5 3d 7d 62 06 bd c6 69 04 be 50 8b 97 3d
       0.12001361 -0.03280877 -0.12930974 0.073996186
0002f0 34 cc 01 3e a3 6b 7b be c5 71 8a be a8 f4 9c 3e
       0.12675554 -0.24552779 -0.27039924 0.30655408
000300 09 27 7f bd d1 c9 e0 be bd 85 90 3e 76 59 fc bd
       -0.062293086 -0.43903974 0.28227034 -0.12321751
000310 73 9b ba 3d 38 5b ff 3d 1c 1b 68 bc 4f a2 d7 bd
       0.09111681 0.124685705 -0.01416662 -0.10529005
000320 a9 9d a4 bc c2 d3 c3 bd 52 23 03 bd 9a 52 87 be
       -0.02009471 -0.09561874 -0.032016106 -0.26430207
000330 40 9e 34 3d dd b5 1f bd ba cc 70 3d 37 cc 4a 3e
       0.04409623 -0.038991798 0.058788992 0.19804464
000340 11 f4 81 3c 80 ca b2 bd e4 09 76 3e 87 cd 7d 3d
       0.01586345 -0.0873003 0.2402721 0.061963584
000350 a8 00 a2 bd b0 9f 92 be fe 48 ba be 6f 33 a4 3b
       -0.079102814 -0.28637457 -0.36383814 0.005011014
000360 02 a5 9d be b6 a3 c7 bc ef a2 3c 3d a1 fa 96 bd
       -0.30789953 -0.024370056 0.046053823 -0.073720224
000370 46 76 35 3e b6 26 72 3c 42 1a 55 3e f7 9b 04 bd
       0.17720899 0.014779737 0.20810798 -0.032375302
000380 93 2f 9b 3b 1a a0 7f 3e 5b a7 67 3e ea a1 07 3d
       0.004735896 0.24963418 0.22622435 0.033113398
000390 64 0b 11 3e 94 ea d1 3e e6 a3 62 be 66 a8 c6 bd
       0.14164501 0.4099928 -0.22132835 -0.09700088
0003a0 ec 1f 5b be 84 93 67 be a3 ab 83 be f6 08 64 be
       -0.21398896 -0.22614866 -0.25716886 -0.22269043
0003b0 8d 92 28 bd cb d1 97 3e 0d 0d dc 3e 37 23 0f 3e
       -0.041155387 0.29652247 0.42978707 0.13978277
0003c0 59 10 62 3e 4d 35 ad be da 99 52 3c 8c 1f 60 be
       0.22076549 -0.33829728 0.012854064 -0.21887034
0003d0 6a 38 4b bd 82 e2 4a 3e 55 d9 38 3e e6 15 1e be
       -0.049614348 0.19812968 0.18051656 -0.15438041
0003e0 bb 68 e4 be 95 3e 9f be 04 4c 76 bd 7f 28 b2 3d
       -0.44611153 -0.31102434 -0.060131088 0.0869913
0003f0 07 2b 05 3e ed ee 95 bc 2c 21 31 3e 96 c7 aa 3e
       0.13004695 -0.018302405 0.1729781 0.33355397

fc2.bias f4 [256]
000000 55 83 3c be 37 37 cd be ec 50 cb bc 4b bf 6b be
       -0.18409474 -0.40081188 -0.02481886 -0.23022191
000010 7b 45 e5 be c8 0e 4f be 54 95 68 be 7b a7 2b be
       -0.44779572 -0.20220482 -0.22713214 -0.16763107
000020 0e f6 a9 be d9 c4 d4 be e0 3f 98 be c7 72 2b be
       -0.33195537 -0.41556433 -0.29736233 -0.16743003
000030 70 77 35 be a6 1e 75 3e 9f 2c cd be cb ba 7b be
       -0.17721343 0.23937473 -0.40073106 -0.24582975
000040 76 43 9f be a9 70 52 be 49 5c 0e bd 32 ff aa be
       -0.31106156 -0.20550789 -0.03475598 -0.33397824
000050 b1 ff 2f bd ff c8 78 be e4 3b 57 be 8f 32 c3 bd
       -0.042968456 -0.24295424 -0.2101894 -0.09531128
000060 c2 53 aa be 25 58 a5 bc 70 e0 d7 be 54 35 2b be
       -0.33267027 -0.020183632 -0.4216342 -0.16719562
000070 aa e9 0b be 4d 4d 82 be cf 1a f6 bd 14 dc 86 3c
       -0.13663355 -0.254496 -0.12016832 0.016462363
000080 bf 6e b2 be 4f 46 e7 be 95 b8 63 bd 9d 74 76 be
       -0.34850118 -0.4517083 -0.055595953 -0.24067922
000090 a1 6a 37 be b4 04 b6 be 23 71 ed be c3 b7 41 bd
       -0.1791177 -0.35550463 -0.4637538 -0.04729439
0000a0 02 fd 1c bd db 37 01 be 37 0c fb be 7a 34 24 bc
       -0.038327225 -0.12618963 -0.49032757 -0.010022277
0000b0 75 50 dd bd 5c e6 ad be db c4 42 be a2 8a 02 bf
       -0.108063616 -0.33964813 -0.19020407 -0.50992787
0000c0 26 87 09 be b9 f2 ad be b8 d1 1c be ce b0 46 be
       -0.13430461 -0.33974245 -0.15314376 -0.19403383
0000d0 5a 49 be bd 59 fc b0 be 66 96 88 be 5f d8 d7 3e
       -0.092913345 -0.34567526 -0.26677245 0.42157266
0000e0 5f 0f 6f be 79 d5 0b bf bd b6 48 be 82 78 80 be
       -0.23345707 -0.5462261 -0.19600959 -0.2509194
0000f0 7c 5a 86 be 6e 88 1c 3d da 1f 6b be 95 15 dd bc
       -0.2624091 0.038216047 -0.22961369 -0.02698783
000100 14 6e 3f be 1e 22 e4 be ed fd e6 3a d8 8a d7 be
       -0.18694335 -0.4455728 0.0017623283 -0.42098117
000110 59 bc 0f be 40 a4 8d be 29 a4 8e be 73 c0 9a bd
       -0.14036693 -0.27664375 -0.2785962 -0.07556238
000120 f9 07 13 be 04 49 74 be e7 1f 72 be 02 b6 af bd
       -0.1435851 -0.23855978 -0.23644982 -0.08579637
000130 9a 85 1d be ac 8e 7e be 60 f6 7e be a3 a5 af be
       -0.15382996 -0.24859113 -0.24898672 -0.34306058
000140 6f 31 0a be 52 f9 ba be 48 6b 94 be 85 df af be
       -0.1349542 -0.3651834 -0.289881 -0.3435022
000150 7a 7d 8d be 7f 19 a0 be da f6 9d be 55 ce bb be
       -0.27634794 -0.31269452 -0.30852395 -0.36680856
000160 e3 c2 1d be 9c 75 b2 3d 1e 89 f3 be 09 10 c1 be
       -0.15406375 0.087138385 -0.4756555 -0.37707546
000170 ba 64 b3 be 14 19 3c be 70 65 7b be a5 62 2e be
       -0.35037786 -0.18368942 -0.24550414 -0.17029817
000180 7d 3a 86 be 82 2f b2 bd 1b 21 b4 be d9 65 34 be
       -0.26216498 -0.08700468 -0.35181507 -0.17616977
000190 ad 11 b4 be d1 a5 b5 be d4 0c 2a be 6b 10 cd be
       -0.35169736 -0.3547807 -0.16606456 -0.40051588
0001a0 bb f9 ae be 52 90 04 be b0 27 0c be 35 62 c0 be
       -0.34174904 -0.12945679 -0.13687015 -0.37574926
0001b0 9f 43 4a be 44 8e 3a bd 97 9e 78 be d9 13 ad be
       -0.19752358 -0.04554583 -0.24279247 -0.33804205
0001c0 f5 4c 21 be 56 ad 53 bd 11 88 4f bd 8f 7c ad bd
       -0.15752013 -0.051678978 -0.050666872 -0.08471023
0001d0 e8 3f ab 3c e0 61 22 3e 6a 85 98 be 8e cf 72 be
       0.020904496 0.15857649 -0.29789287 -0.23711988
0001e0 1d aa b6 3d 8a 3e 9a be 14 e3 34 3d c2 80 7e be
       0.08919165 -0.3012584 0.04416187 -0.24853805
0001f0 b5 dd 57 be ca 2c bd be f1 83 05 bf 36 67 98 3d
       -0.21080668 -0.36948234 -0.5215445 0.07441561
000200 bf bf 49 3c f0 c8 41 be d4 3f a6 be f0 3d 24 bd
       0.012313782 -0.18924308 -0.32470572 -0.04009813
000210 2e 18 8f be fe 4e 54 be d3 26 15 be a4 03 6a be
       -0.27948135 -0.20733258 -0.14565592 -0.22852951
000220 49 03 24 be e2 f8 75 be b5 ce eb bd ea b6 4c bd
       -0.16016878 -0.24020723 -0.115140356 -0.049979128
000230 08 f9 80 be 65 f3 78 be 6a 32 ce be fa 90 28 bc
       -0.25189996 -0.24311598 -0.40272838 -0.010288471
000240 57 80 ea bd 54 28 5d be 5d 5b 0d be fa 87 61 be
       -0.1145026 -0.21597415 -0.13804384 -0.22024527
000250 33 c8 79 be e9 1e 81 be 6e 0f 70 be ab f5 ed bd
       -0.24392776 -0.25218895 -0.23443386 -0.11619123
000260 28 50 b2 be 72 e3 99 bd d1 a8 13 bf d3 ce 8e be
       -0.3482678 -0.07514085 -0.5767947 -0.2789217
000270 35 5a a7 be 46 01 72 be dc 67 5e be 12 9c 26 be
       -0.3268601 -0.23633298 -0.21719307 -0.16270474
000280 d4 01 fc bd 97 ae db be 05 2a ae 3c c7 45 c4 be
       -0.12305036 -0.4290664 0.02126027 -0.38334486
000290 16 2e 2c be 6f ae 16 be 1e 52 be bd c2 ad bc 3d
       -0.16814455 -0.14714979 -0.09293006 0.09212829
0002a0 8d c8 40 be 72 43 9b be 0c 25 1d 3d 54 79 25 be
       -0.18826504 -0.30324894 0.03836541 -0.16159564
0002b0 73 56 fa be 52 ef 81 be 71 9b 78 bd 56 42 ad be
       -0.4889408 -0.253779 -0.060695115 -0.33839673
0002c0 56 0d 3d 3d 57 dc 4f be 7d 58 3f be 98 3c 94 bd
       0.046155296 -0.20298897 -0.186861 -0.0723812
0002d0 6d 3c 4f be 50 28 9b be 16 93 dd be 44 0f 00 3c
       -0.20237894 -0.30304193 -0.4327628 0.00781614
0002e0 ac 40 12 be c0 4a 8b bd a9 62 b7 bc 2a 57 75 be
       -0.14282483 -0.06801367 -0.022385912 -0.23959032
0002f0 0c 2c b0 bd af 79 eb 3d da b4 9a be 4f a0 09 bd
       -0.08602151 0.11497819 -0.30216104 -0.033600148
000300 d6 07 51 be af 79 bd be 02 c5 bf be cb e2 52 be
       -0.20413145 -0.370069 -0.37454993 -0.20594327
000310 d7 66 a8 be ab 46 c5 3d 52 6a 6b be e5 bf af be
       -0.3289096 0.096326195 -0.22989777 -0.3432609
000320 89 46 27 be 22 aa e4 3e bc 10 75 be 0b 5d 1c 3c
       -0.16335501 0.4466105 -0.23932165 0.009543668
000330 37 3d 7c be b5 bc 0d bf 10 7c b7 be 3f c2 81 be
       -0.24632727 -0.5536607 -0.3583684 -0.2534351
000340 65 ab 6e bd a4 98 d3 be 8c 92 83 be 5e ed bb bd
       -0.058268923 -0.41327393 -0.25697744 -0.091761336
000350 34 ea b8 be d5 5f 9f bd 4c 4f b7 be f5 6f 41 be
       -0.36116183 -0.077819504 -0.35802686 -0.18890364
000360 66 30 c6 bd 38 d3 c3 be a6 31 13 be 47 da 48 be
       -0.096772 -0.38247085 -0.14374408 -0.19614516
000370 45 3d c2 be bf 1c 0b be 84 00 fa bd d5 4a 19 be
       -0.3793737 -0.13585185 -0.122071296 -0.14969952
000380 2c 57 21 bd 64 b1 32 be 4a f2 2a bd 17 13 a0 bd
       -0.039389774 -0.17450482 -0.04173497 -0.07816141
000390 88 b1 68 be c8 ae 81 bd e6 44 3f be 9d e3 80 3e
       -0.22723973 -0.06332165 -0.18678626 0.25173655
0003a0 26 92 60 be 3a 4e 17 be ee cb 80 be c6 6c cc bd
       -0.21930751 -0.14775935 -0.25155586 -0.099816844
0003b0 10 c2 5e be 26 6b d6 bd 4d 98 82 3c a7 bb bc 3d
       -0.21753716 -0.10469656 0.015941763 0.09215479
0003c0 ae 2f d2 bd df 43 88 be a2 42 8b 3d 2c 4e 34 be
       -0.102630004 -0.26614282 0.067998186 -0.17607945
0003d0 80 be 2c be b0 f2 26 be 20 c1 ea be 9c d4 2f bd
       -0.16869545 -0.16303515 -0.45850468 -0.04292737
0003e0 2c b2 57 be ca 23 e0 be 6e 40 d2 be 11 e5 96 be
       -0.21064061 -0.43777305 -0.4106478 -0.2947164
0003f0 58 8c 13 be 72 76 87 be 33 d5 f4 bd a6 16 19 be
       -0.14409006 -0.26457554 -0.11954727 -0.14950046

fc3.weight f4 [4, 256]
000000 0d 5c 16 3e c4 3a 17 3f f5 c4 a4 be 44 e4 e4 be
       0.14683552 0.59074044 -0.32181516 -0.44705403
000010 eb a0 06 bf 25 4c c3 3e 17 c0 84 bf f7 e5 d0 be
       -0.5258929 0.3814403 -1.0371121 -0.4080045
000020 9d dc 09 3f bc bf 43 bd e5 46 f6 3e 24 b5 a9 3e
       0.53852254 -0.047790274 0.48100963 0.33146012
000030 dd 85 eb be 33 70 3d bf 24 66 fb bd 2d 90 84 3e
       -0.46000567 -0.7399933 -0.12275341 0.25891247
000040 84 54 4d 3e af c0 f1 bd ed 4d ea 3e cf 27 0f bd
       0.20051771 -0.118043296 0.45762578 -0.034950074
000050 9a 4c 0f 3f 4a bc 82 be df df 86 bf bb ac 62 be
       0.5597626 -0.25534278 -1.053707 -0.22136204
000060 bf cf 4c be 55 00 07 bd fe 7b 7f 3e 6c 44 2a 3f
       -0.20001124 -0.0329593 0.24949643 0.66510653
000070 9d b1 89 3e a7 f5 22 bc b4 d5 28 be 2b 17 cd 3e
       0.2689332 -0.009946263 -0.16487771 0.40056738
000080 96 fd ac bc 98 28 5a bd 0d 25 03 3c f2 d3 89 3e
       -0.021117013 -0.05326137 0.008004439 0.26919514
000090 eb 4b 96 3e f1 c4 5b 3e 55 2f f0 3e b9 6c 2c 3f
       0.29354796 0.21461846 0.4691111 0.673534
0000a0 3c c6 b8 be 81 c2 17 3d f2 62 18 bd 11 94 9e 3d
       -0.3608874 0.037050728 -0.037203737 0.07743085
0000b0 2e 2c d4 bd af 81 81 3e ba 43 27 bd ce c7 05 3f
       -0.10359989 0.25294253 -0.040836073 0.52258
0000c0 f1 02 22 bf 8d ae 2a be ff f5 a0 bd f7 4c 69 3f
       -0.6328574 -0.16668148 -0.0785942 0.91133064
0000d0 ff d9 89 3e c5 84 80 bd c6 57 d8 3c 17 50 f0 be
       0.2692413 -0.06275324 0.026409041 -0.46936104
0000e0 11 fd 56 3f d1 06 db 3e 36 16 a3 3e 7d b4 97 3e
       0.839799 0.42778638 0.31852883 0.2962989
0000f0 61 c6 00 3e 7f 48 d9 3e 49 4b de be b3 74 e6 3d
       0.12575676 0.42438123 -0.43416813 0.11252727
000100 6c 85 21 3e f3 08 ce bd 48 e5 1b bf 3e 5f a0 3e
       0.15773553 -0.10060301 -0.6089673 0.31322664
000110 ff c7 16 3f d1 95 03 bf 2a 53 dd bc d1 72 7d be
       0.5889892 -0.51400477 -0.027017195 -0.2475083
000120 ed 31 c0 3d 6d bd 97 be de 73 b4 3e 4b 82 03 3e
       0.093845226 -0.29636708 0.3524465 0.12842672
000130 ae 41 32 3f a8 cc 7c be d7 f4 32 be a5 4c aa 3c
       0.6963147 -0.24687445 -0.17476211 0.0207885
000140 04 11 3f be 54 f5 68 be 33 ad ff be 63 a1 6f 3d
       -0.18658835 -0.22749835 -0.49936828 0.05850352
000150 16 af fa be 13 95 84 be db 3c e5 bc 33 d3 48 be
       -0.48961705 -0.25894985 -0.02798312 -0.19611816
000160 80 f3 4c bf f0 19 44 bf f9 7c 41 3e 92 75 14 bd
       -0.8005905 -0.7660208 0.1889533 -0.036244936
000170 4c ae 88 3e 26 93 a9 bd 7b 90 50 be 2e 2b b7 3e
       0.26695478 -0.082800195 -0.20367615 0.3577513
000180 6b 20 bd 3e 48 e5 dd 3d 91 61 e6 3e 08 8b 25 3e
       0.36938795 0.108347476 0.44996312 0.16166317
000190 5a 13 09 3d fa cd 83 be 10 9e 49 be b8 d6 4e bd
       0.03346572 -0.25743085 -0.19689202 -0.05049774
0001a0 03 fc 98 be 46 71 87 3e b5 0b e3 bd f0 53 2a bd
       -0.2987977 0.26453608 -0.11086217 -0.041583955
0001b0 fe f1 10 3f 75 15 6f bf f7 14 8c 3e 2c af 66 be
       0.5661925 -0.93392116 0.27359745 -0.2252776
0001c0 64 ab 13 be 2f 50 51 3f cb a6 85 3e 11 f6 30 3f
       -0.14420849 0.81762975 0.26103815 0.6912547
0001d0 16 3b 8b be 25 2f 91 3e 01 22 0e bf fb 56 86 bc
       -0.27193516 0.2835628 -0.55520636 -0.016398897
0001e0 c2 68 21 3e 69 c0 0d be c1 e2 01 bf 86 ba af 3e
       0.15762618 -0.1384293 -0.50736624 0.34321994
0001f0 81 76 06 3f 51 c2 02 3d b5 4c e8 bc f0 70 d3 3e
       0.5252457 0.031923596 -0.02835689 0.41297102
000200 92 3a 9b 3e 0c 4d 3e bf a0 1a 00 3d 91 2b 39 bf
       0.30318123 -0.74336314 0.03127539 -0.723321
000210 ff 6e 13 3f 60 a5 b9 3e 0d 1a e2 be 94 1c de 3e
       0.5759124 0.36258984 -0.441605 0.43381178
000220 ee ab 79 bd 0c 33 82 3e 40 7c 88 be a1 4d 27 bf
       -0.06095498 0.2542957 -0.26657295 -0.6535283
000230 b9 3c 83 3f 4a f0 ea be 9e 31 2f bd 85 e8 37 3f
       1.0252906 -0.4588645 -0.042771928 0.7183917
000240 37 5d 1e 3f df 35 21 be 53 1a 5e be e5 47 0c bf
       0.61860985 -0.15743206 -0.2168973 -0.547972
000250 92 ec 35 bf 17 38 d0 3d 79 4b d7 be de be 1d bf
       -0.710641 0.10166948 -0.4204977 -0.61619365
000260 1b 5c 5b 3f 78 d3 86 be a2 f5 36 be aa dd ec be
       0.85687417 -0.26333213 -0.17867139 -0.46262866
000270 56 b9 38 bd 31 cb 6c be ed 80 0a 3e 97 54 42 3e
       -0.045098625 -0.23124386 0.13525744 0.18977581
000280 23 4e b8 3e 0c 35 e7 be c8 5e c4 be ba 45 38 3e
       0.35997114 -0.4515766 -0.38353562 0.17995349
000290 2d 00 17 bf ea a2 9b 3c 49 4b c6 bd 97 1e c8 bd
       -0.58984643 0.018998582 -0.09682328 -0.097714595
0002a0 61 6f 1d be ed 46 cf 3e 03 2b 84 be fb 79 ae be
       -0.15374519 0.404838 -0.25814065 -0.3407744
0002b0 fa 22 71 bd 94 a1 aa 3e 74 b2 44 be 2e 98 a1 be
       -0.058871247 0.333264 -0.192087 -0.31561416
0002c0 a2 c8 02 bf 65 e8 e2 3d 55 d6 13 3f 7e dd 09 be
       -0.5108739 0.11079482 0.5774892 -0.13463399
0002d0 9a f5 ec 3e ae d3 07 3f cf 44 9a 3e 2e 7a 2c bf
       0.4628113 0.5305737 0.30130622 -0.6737393
0002e0 92 07 c5 be e4 1e 36 bf c1 6f be bd 66 4b c1 3c
       -0.38482338 -0.71140885 -0.09298659 0.023595523
0002f0 c8 ec 1c 3c ea ad 79 3f cd fe ef be 1c a0 8a 3e
       0.009577937 0.97530997 -0.46874085 0.2707528
000300 30 5b 5f bf 9e f6 ae be 5a db 20 3f c3 3b 65 be
       -0.87248516 -0.3417253 0.62834704 -0.22386079
000310 ac 2a a0 3e 78 38 e9 3d cf 3b 09 3f 0d 0d a9 3e
       0.31282556 0.11387724 0.53606886 0.3301777
000320 4a f4 0b bd a5 ea 80 be d7 5a 04 3e a9 a1 c4 3e
       -0.03416852 -0.2517902 0.12925278 0.38404587
000330 af 5a 5a be 37 7e f5 3e 7a a1 27 bf 4d 2d 0a 3f
       -0.21323656 0.47947857 -0.6548077 0.53975374
000340 fb 27 17 bf a8 bd 8f be 7b 40 df 3e 14 75 e1 3e
       -0.5904538 -0.28074384 0.43603882 0.44034636
000350 3a e0 c9 3d e8 c0 d5 bd d9 73 d1 3d 0a db c4 be
       0.09857221 -0.104371846 0.10227174 -0.38448364
000360 8f 55 f4 3e 42 05 f2 be 00 7a 9b 3d 8f c3 18 bf
       0.47721526 -0.47269636 0.07591629 -0.596734
000370 2f c0 35 3f f9 61 04 bf ab 52 26 be e7 6f 10 3d
       0.70996374 -0.51711994 -0.16242473 0.03526297
000380 d3 48 8e bd e3 1f 02 bf 38 9c 97 be 96 ed 5f bd
       -0.06947484 -0.50829905 -0.29611373 -0.05466994
000390 2d 91 23 3f 02 92 03 3f 93 97 14 3f b0 d2 18 3f
       0.63893396 0.51394665 0.58043784 0.59696484
0003a0 fe e3 d2 3e bd df cb 3d 8f 53 48 ba a6 69 56 3e
       0.4118957 0.09954784 -0.0007641846 0.20938739
0003b0 69 fc ee bb 9d 72 f8 3c c9 d0 1a be 81 10 14 3f
       -0.007293273 0.03032809 -0.15118708 0.5783768
0003c0 04 ff 15 be 76 1a 39 3e 01 7a 1c be 50 a6 ca be
       -0.14648062 0.180765 -0.15280916 -0.3958001
0003d0 d6 52 d9 bd 1b a3 0e 3f 68 0d 4b 3e ee 6c 0f be
       -0.10611503 0.5571763 0.19829333 -0.14006397
0003e0 31 f7 3e bf 83 ff db 3e 6e 18 48 be d1 ce 89 bc
       -0.74595934 0.42968377 -0.19540569 -0.01682225
0003f0 a4 ee 10 bf 17 9d b3 3e 18 61 d0 be 56 c5 89 3c
       -0.56614137 0.35080788 -0.40699077 0.01681773

fc3.bias f4 [4]
000000 23 f7 03 3e 85 de 0c bd c7 b3 91 3d 9d d9 b1 3b
       0.12887244 -0.0343919 0.07114368 0.005427553

bn1.weight f4 [128]
000000 97 b0 05 3f 16 28 e7 3e 2b 7d ea 3e d4 30 4b 3f
       0.5222258 0.4514777 0.4579862 0.7937138
000010 4a bc 1c 3f 8c 43 07 3f c3 16 26 3f b0 10 0b 3f
       0.61224806 0.52837443 0.6487848 0.5432234
000020 37 3c 2e 3f bb cd 10 3f 83 56 3b 3f 0e f9 04 3f
       0.6806063 0.5656392 0.7317888 0.5194253
000030 98 74 0f 3f db 56 db 3e 7d 9b 40 3f 1f 7e 0a 3f
       0.5603728 0.42839703 0.75237256 0.54098696
000040 79 37 15 3f 46 cf 3c 3f 0f ec 2c 3f b0 65 2b 3f
       0.5828777 0.73753774 0.67547697 0.6695204
000050 25 e5 06 3f 62 b0 28 3f ed 40 f0 3e d4 28 f1 3e
       0.52693397 0.6589414 0.46924534 0.47101462
000060 f1 c4 f2 3e 62 e4 3b 3f 69 81 05 3f d5 31 16 3f
       0.4741588 0.7339536 0.5215059 0.5866979
000070 da f9 5c 3f e1 7b 19 3f fb aa 11 3f 75 9d 16 3f
       0.86318743 0.5995465 0.5690152 0.5883401
000080 1d 6b 1f 3f 8d 20 00 3f 9f 06 10 3f dd d4 1b 3f
       0.62272817 0.5004967 0.56260103 0.6087168
000090 d4 7a 13 3f 13 d2 13 3f 5d 6d 20 3f c4 ba 46 3f
       0.57609296 0.5774242 0.62666875 0.7762873
0000a0 70 e4 1e 3f 3f 86 07 3f a6 46 5c 3f 09 af 08 3f
       0.6206732 0.5293922 0.860453 0.5339208
0000b0 f5 d6 45 3f 96 f0 05 3f 88 e1 2a 3f 7e 3d 2c 3f
       0.77281123 0.5232023 0.66750383 0.6728133
0000c0 10 0c 2c 3f a6 90 f1 3e d1 15 1c 3f cf c1 0a 3f
       0.67205906 0.4718067 0.6097079 0.5420198
0000d0 48 01 2c 3f c6 16 f6 3e af 4b 14 3f 7f 49 12 3f
       0.67189455 0.4806425 0.57927984 0.57143396
0000e0 f8 78 f5 3e c2 49 2d 3f 05 32 56 3f cb b7 05 3f
       0.47943854 0.6769067 0.83670074 0.5223357
0000f0 d3 7f 21 3f b9 8c cc 3e 7b ed 00 3f db 45 02 3f
       0.6308567 0.39951113 0.50362366 0.5088784
000100 84 c5 2e 3f 6f 97 ec 3e 69 c7 2e 3f fe c1 1f 3f
       0.68270135 0.46209285 0.68273026 0.62405384
000110 a0 8d f7 3e d8 2b 0a 3f 8b 29 07 3f fa be 09 3f
       0.4835024 0.5397315 0.52797765 0.5380703
000120 a7 61 21 3f 45 9a 20 3f 01 b2 20 3f 48 ef f8 3e
       0.6303963 0.62735397 0.6277161 0.48620057
000130 26 f3 01 3f ec 34 d9 3e cd 2c 23 3f d2 af ec 3e
       0.5076164 0.4242319 0.63740236 0.4622789
000140 aa 3d 1c 3f 77 b2 e3 3e 2d 53 d9 3e 3c 17 26 3f
       0.6103159 0.44472095 0.4244627 0.648792
000150 ad bc e1 3e 15 18 18 3f 40 eb 0e 3f e1 1a c9 3e
       0.4408926 0.59411746 0.55827713 0.3927832
000160 b3 c6 f7 3e 7f 15 29 3f 1b 88 21 3f dd 12 fd 3e
       0.48393783 0.66048425 0.63098305 0.49428454
000170 5c bf 2e 3f c2 a7 e2 3e e4 7c 1a 3f 8a 58 20 3f
       0.6826074 0.44268614 0.6034682 0.626351
000180 61 a1 00 3f 27 6b 1d 3f d9 ce 0c 3f b7 71 1a 3f
       0.50246245 0.61491627 0.55003124 0.60329765
000190 4c f7 0c 3f 96 d2 27 3f ee 92 1f 3f 3a c7 15 3f
       0.55064845 0.65555704 0.6233357 0.5850712
0001a0 5a 82 20 3f 0c 05 25 3f 96 59 01 3f 05 18 09 3f
       0.626989 0.64460826 0.5052732 0.53552276
0001b0 b3 6a 13 3f 6f 1c 5a 3f f3 8e 84 3e 12 40 1c 3f
       0.57584685 0.85199636 0.25890312 0.61035264
0001c0 cc f7 3c 3f 75 8d 03 3f 2f 42 25 3f 1e 1f 14 3f
       0.7381561 0.5138772 0.64554113 0.5785998
0001d0 6f df 4f 3f 47 fa 13 3f 74 9f 20 3f a4 57 17 3f
       0.8120031 0.5780377 0.62743306 0.59118104
0001e0 0d 87 f6 3e f8 22 0f 3f b5 26 23 3f 9b 59 0e 3f
       0.4814991 0.55912733 0.6373094 0.5560548
0001f0 a3 85 28 3f af 08 25 3f 43 d9 09 3f ab db 48 3f
       0.65828913 0.64466375 0.5384714 0.78460187

bn1.bias f4 [128]
000000 3b 83 05 3e 1a e3 8e b9 ec a8 ac 3d 3d 78 bd 3e
       0.13038342 -0.00027253554 0.08430657 0.37005797
000010 6d f6 28 3d d7 70 a9 3d 95 bb 77 3e ba 7c 10 3e
       0.041250635 0.082734756 0.2419265 0.1411008
000020 38 4c 81 3e 45 fb 06 3e ff 5a 70 3d 7a 16 c4 3d
       0.25253463 0.13181789 0.05868053 0.095745996
000030 0e 6e 81 3e 39 66 91 3d 6d 33 51 3e f5 43 e1 3d
       0.25279278 0.070995755 0.20429774 0.1099929
000040 0c 07 ac 3a 00 e6 45 3d 97 e5 0e 3d 6d 78 8e 3e
       0.0013124659 0.04831505 0.034886923 0.27826253
000050 41 c5 85 3d b7 17 8f 3e 86 c4 90 3e 53 3a 53 3e
       0.06531764 0.2794778 0.28274935 0.20627718
000060 dc 0d 54 bd 2c 81 9d 3e a3 3c 80 3e d1 c6 e4 3d
       -0.05177103 0.30762613 0.25046262 0.11170734
000070 6e a5 a7 3e 81 08 9b 3d 2c d6 c2 3e 07 87 94 3e
       0.327434 0.07569981 0.38054025 0.29009268
000080 dd 91 81 3e 42 5e 47 3e bd 4d 33 3e 8d a9 54 3d
       0.25306597 0.1946955 0.17510124 0.05191951
000090 34 c8 7d 3e 82 68 81 3e 5d d2 72 3e 9f ea 8a 3e
       0.24783403 0.25275046 0.2371306 0.27132127
0000a0 b6 40 c0 3e 28 f5 9a 3e 5b 07 0f 3e 1e c7 25 3e
       0.3754937 0.30265164 0.1396765 0.16189238
0000b0 3e 14 1e 3e 75 a2 10 3e 6f ee b2 3e 0b b1 c3 3d
       0.1543741 0.14124472 0.34947535 0.09555253
0000c0 cc 79 72 3d 02 3b 82 3e 2c 39 8b 3e af 68 29 3e
       0.059198186 0.25435644 0.27192056 0.1654384
0000d0 56 1b 43 3e d9 94 d6 3d 2a 31 1d 3e 25 19 37 3d
       0.19053397 0.10477609 0.15350786 0.044701714
0000e0 a6 27 34 3d c2 7a 2e 3e 67 3c 6a 3d 9d 96 15 3e
       0.043983124 0.17039016 0.05718651 0.14608236
0000f0 6c d7 eb 3e c2 fa 24 3e a3 30 07 3e 22 81 b7 3e
       0.4606279 0.16111282 0.13202147 0.35840708
000100 18 47 de ba 76 18 d4 3d 36 19 58 3e 2d e2 97 3e
       -0.0016958443 0.10356228 0.21103367 0.29664746
000110 2d e4 68 3e ff b3 58 3d 6d 2a 7f 3e d4 73 41 3e
       0.22743292 0.052906033 0.24918528 0.18891841
000120 81 e4 a3 3e 00 0a 3f 3e 52 94 73 3e 77 82 7c 3e
       0.32010272 0.18656158 0.23787048 0.24659143
000130 39 5a 95 3d d4 8f 94 3d cf 53 be 3e d2 84 13 be
       0.07292599 0.072539955 0.37173316 -0.14406136
000140 8a d5 e7 3d d5 27 34 3e 0c 66 42 3e 3a 4e 58 3e
       0.11320026 0.1759332 0.1898424 0.21123591
000150 a1 48 ef 3e 7d 0c 63 3e 3d c6 64 3e cd 8c a6 3c
       0.467351 0.22172733 0.22341247 0.02033081
000160 7e 90 83 3e 51 7e c4 3d 2f 3c 3e 3e ea 95 b8 3d
       0.25696176 0.095944054 0.18577646 0.09012969
000170 c6 d0 44 3e a2 cb ce 3d 3b 76 05 3e 6a 7e 7a 3e
       0.19220266 0.100974336 0.13033383 0.24462286
000180 28 25 5e 3e 80 86 bd 3d 13 33 2b 3e 35 69 28 3e
       0.21693861 0.092541695 0.16718702 0.16446383
000190 bb 83 1d 3e de 94 4a 3e ca 7e f1 3d 0f f0 1e 3d
       0.15382282 0.19783351 0.11791761 0.038803156
0001a0 b6 51 07 3e 10 96 86 3e 52 50 4f 3e 50 18 31 3e
       0.13214764 0.26286364 0.20245484 0.1729443
0001b0 c8 03 1e 3e 6d 0b 55 3e 99 ea 1d bf f1 24 5a 3e
       0.1543113 0.2080514 -0.6168609 0.21303155
0001c0 25 bb 03 bc 06 a8 31 3e 7d cb 6e 3e b9 98 8b 3e
       -0.008040224 0.17349252 0.23319812 0.27264956
0001d0 b3 58 61 3e 7e 3d ef 3c 33 99 b5 3d 80 32 eb 3d
       0.22006492 0.029204126 0.08867111 0.114842415
0001e0 f3 f0 d2 3d 24 1e 67 3e 0d 7b af 3e fd 78 58 3d
       0.10299864 0.22570091 0.34273568 0.05284976
0001f0 0a 45 52 3e 75 f2 4c 3e f8 c1 47 3e 4f c1 89 3e
       0.20534149 0.20014365 0.19507587 0.26905295

bn1.running_mean f4 [128]
000000 6f 41 c4 3e 96 ac 2d 3f 4e 44 18 3f 2f 9b 70 40
       0.38331172 0.6784147 0.59479225 3.7594717
000010 a4 ba d3 3d f7 cf bf 3e b5 0c e5 3d da 80 c1 3e
       0.10338333 0.37463352 0.11184064 0.37793618
000020 22 33 1d 3f 6d ed ce 3e 94 99 d6 3e a9 f3 4f 3f
       0.6140615 0.40415516 0.41914046 0.8123117
000030 b7 d8 cb 3e cf db 15 3f be b9 31 3e ba 50 ec 3e
       0.39813778 0.58538526 0.17356011 0.4615534
000040 d5 a6 0a 3f bf d7 0e 3f 83 e7 e9 3e e1 37 2e 3f
       0.54160815 0.5579795 0.45684442 0.68054014
000050 ed dc ab 3e 1b 5a c9 3e c6 f8 85 3f 21 af b9 3e
       0.3356699 0.39326558 1.0466545 0.36266425
000060 b8 a2 0b 3f 34 d2 9a 3e 87 fa d6 3e ac 38 61 3e
       0.54545164 0.30238497 0.41988012 0.21994275
000070 2c fb 71 3d bd 88 26 40 dd 6b 2c 3f 93 ee d1 3e
       0.059077427 2.6020958 0.67352086 0.4100233
000080 ba c2 b9 3e 00 8a bd 3e 5f 93 86 3e fa c2 e3 3f
       0.36281377 0.37019348 0.2628431 1.7793877
000090 a6 ca 4e 3e 3d 0d ad 3e 40 0f 8f 3f 01 08 09 3f
       0.20194492 0.33799163 1.1176529 0.5352784
0000a0 e3 fb 8d 3f af 8c 95 3e ea f6 4c 3e c5 b6 1d 3f
       1.1092495 0.29208896 0.20016065 0.6160701
0000b0 d4 90 16 3e 34 28 06 3f d7 ea db 3e 83 ac 06 3e
       0.14703685 0.52405095 0.42952606 0.13151745
0000c0 33 d1 85 3f 47 df cd 3e 8b 20 80 3e b0 df 03 3f
       1.0454468 0.4020941 0.25024828 0.51513195
0000d0 20 ca 86 3f d4 0c a3 3e 07 68 55 3e 8b cc ee 3e
       1.0530434 0.31845725 0.20840465 0.4664043
0000e0 b6 f1 09 3e b4 55 e2 3e 10 b0 7e 3e 5f ab be 3e
       0.13471112 0.4420601 0.2487185 0.3724012
0000f0 54 66 22 3f 14 cd 3f 3e 66 8d f4 3e 8c 87 95 3f
       0.6343739 0.18730575 0.47764128 1.1681991
000100 12 60 9f 3e f3 bc e1 3e 1e f7 5f 3e 15 1f 83 3e
       0.31127983 0.4408947 0.21871611 0.2560965
000110 a1 18 65 3e da ba 76 3e a3 79 69 3e 71 97 4b 3e
       0.22372676 0.24094716 0.22800307 0.19881989
000120 67 7d 2b 3f 1d 26 21 3f c3 f0 85 3f 15 cb 0b 3e
       0.66988224 0.6294878 1.04641 0.13651688
000130 9e f3 15 3f a5 28 17 3e 0d 7b b1 3e c9 18 90 3e
       0.58574855 0.14761598 0.34664193 0.2814391
000140 83 25 d2 3e 2e 02 0a 3e 63 37 8d 3e 78 07 ab 3e
       0.41044244 0.13477394 0.2758132 0.33404136
000150 57 3c 95 3f f2 0b 0b 3e 43 39 f4 3e e6 ea cb 3d
       1.1659039 0.13578776 0.47699937 0.09956913
000160 85 79 5a 3e fa ff 1e 3f 00 23 de 3e f4 c2 4e 3d
       0.21335419 0.6210934 0.43386078 0.05047889
000170 5a 15 94 3e 7e c5 09 3e 0d 7a dd 3d 72 98 68 3e
       0.2892254 0.13454244 0.10814295 0.22714403
000180 ef 18 b9 3e a9 38 bd 3e c5 23 c4 3e 88 eb ad 3d
       0.36151835 0.3695729 0.3830854 0.0849219
000190 fd 4c 8d 3e a4 86 41 3e 5f 05 93 3e 7a e9 66 40
       0.275978 0.18899018 0.28715035 3.6080003
0001a0 d1 ff e9 3f 51 4c d1 3e d3 06 0e 3f fa 83 40 3e
       1.8281194 0.40878537 0.5547916 0.18800345
0001b0 c4 9f 3a 3f db e7 2b 3e e3 ad e5 3e 79 dd 87 3e
       0.72900033 0.16787665 0.44859228 0.26536158
0001c0 d8 93 14 3f 7f 06 cf 3e 4c 45 83 3e 52 e6 00 3f
       0.5803809 0.40434644 0.25638807 0.5035144
0001d0 1c c9 58 40 03 c4 90 3e fb 0f 01 3e 9e 49 03 3f
       3.3872747 0.28274545 0.12603752 0.51284206
0001e0 50 2e ca 3d 7b 96 b3 3e eb 1f 1b 3f f3 a1 e9 3e
       0.09872115 0.35075745 0.6059558 0.4563137
0001f0 4b 2c a2 3d 06 56 42 3e a3 97 ad 3e 83 74 e8 3d
       0.079186045 0.18978128 0.33904752 0.11350348

bn1.running_var f4 [128]
000000 9a 16 39 3f f7 7f 6c 3f ed 58 d4 3e 28 74 cf 3f
       0.7230011 0.9238276 0.41474095 1.6207323
000010 bc 9b 8a 3e fd 63 1a 3f 1a 4e c9 3d 6d e7 ca 3e
       0.2707194 0.6030882 0.0982935 0.3962969
000020 6c 23 78 3f bf aa 30 3f 9a 07 ea 3e cb 5b 70 3f
       0.9692905 0.6901054 0.45708925 0.93890065
000030 cd 83 51 3f 4b 9c 14 3f 8c 27 23 3e 45 e0 01 3f
       0.8184174 0.58050984 0.15933055 0.50732833
000040 cd 0a 35 3f db de 96 3e 5d 65 0f 3f c9 85 52 3f
       0.70719606 0.294669 0.56014043 0.8223539
000050 cd f6 c6 3e f3 97 12 3f 47 12 2d 3f c3 26 c7 3e
       0.3886017 0.57263106 0.67606014 0.3889676
000060 9d e2 db 3e 6f c2 9d 3e 0b 25 1d 3f 7f 42 ec 3e
       0.4294633 0.30812404 0.6138465 0.46144482
000070 67 91 33 3e d9 e9 db 3f 7f bc 65 3f e7 bf cc 3e
       0.17535935 1.718074 0.8974075 0.3999016
000080 bb 23 3c 3f 6b d5 a6 3e 5c 01 72 3f 7e f1 e1 3f
       0.7349202 0.325847 0.94533324 1.7651823
000090 6e 17 ac 3e 85 44 e3 3e 24 57 77 3f 9a c7 3b 3f
       0.33611625 0.44388214 0.9661734 0.7335144
0000a0 b3 ae d9 3f 7f f2 d6 3e 2f b9 8b 3f 7f 2a c7 3e
       1.7006439 0.41981885 1.0915889 0.3889961
0000b0 32 4c 11 3f 2f 84 1b 3f b0 d1 05 3f 45 fc 04 3e
       0.5675689 0.6074857 0.5227308 0.12986858
0000c0 18 21 2c 3f 35 a3 0c 3f 10 0c 5f 3e 31 0d 24 3f
       0.67238 0.54936534 0.21781945 0.6408263
0000d0 2e c0 93 3f b0 3c 29 3e 43 32 61 3e 62 4f 48 3f
       1.1543024 0.16527057 0.2199183 0.7824613
0000e0 c1 ca c4 3d a9 5d 23 3f 35 cf 53 3f 17 71 ec 3e
       0.09608985 0.6381479 0.8273805 0.4618003
0000f0 e7 bb ae 3f 29 d8 5f 3e ca b1 2f 3f 07 d1 dc 3f
       1.3651093 0.21859802 0.6863066 1.725129
000100 2f 5d 8f 3e 77 25 09 3f b7 b8 75 3e 4d fc 0c 3f
       0.2800078 0.5357279 0.23996244 0.5507248
000110 7b 78 8b 3e 96 c2 6f 3e 28 6b 7e 3e 7c 90 6f 3e
       0.27240357 0.23414072 0.24845564 0.2339496
000120 c2 1b 52 3f 13 48 4e 3f 61 f8 4e 3f e4 d4 43 3e
       0.82073605 0.80578727 0.80847746 0.1912418
000130 aa 08 60 3f 7a d8 4a 3e 4f 15 e3 3e b5 2d b9 3e
       0.8751322 0.19809142 0.44352195 0.36167684
000140 98 ec d4 3e 34 e8 f6 3d 69 ab d5 3e ec 07 ca 3e
       0.41586757 0.12056008 0.41732338 0.3945917
000150 ef bf 09 40 d8 94 f1 3d e9 ca 02 3f 66 a7 00 3e
       2.1523397 0.11795968 0.51090866 0.12563857
000160 ef 44 45 3e 89 94 08 3f d7 e5 8d 3f 37 48 77 3d
       0.19264577 0.53351647 1.1085767 0.060371604
000170 6c 89 b7 3e 97 26 47 3e e1 9b 1b 3e 6a f6 86 3e
       0.35847032 0.19448315 0.15196182 0.26359874
000180 17 73 b6 3e e6 75 8e 3e d0 7c bf 3e f7 54 2b 3e
       0.35634682 0.27824324 0.37399912 0.1673163
000190 2e b1 a5 3e 4f f3 55 3e d1 e3 90 3e 6d 0f 88 3f
       0.3236174 0.20893596 0.2829881 1.0629708
0001a0 d1 71 da 3f 1d b7 05 3f a3 e0 57 3f ec 96 9c 3e
       1.7065984 0.52232534 0.84327143 0.30583894
0001b0 00 86 9c 3f c3 05 41 3e e9 b6 28 3f e8 9e 9d 3e
       1.2228394 0.18849854 0.659041 0.30785298
0001c0 dc bc 4a 3f d2 29 f1 3e c3 a6 bb 3e 7d 20 3e 3f
       0.79194427 0.4710222 0.36650667 0.74268323
0001d0 0e 7f cf 3f 7e 4e 6b 3e 07 53 24 3e 9d 48 18 3f
       1.6210649 0.22979161 0.16047297 0.594858
0001e0 c5 a9 16 3e a8 3b bc 3e 7f 19 3c 3f 74 3b de 3e
       0.147132 0.36764264 0.73476404 0.43404734
0001f0 89 8c 34 3e f1 6d 5f 3e 13 5c 97 3e 40 d7 82 3e
       0.17631735 0.21819283 0.29562435 0.25554848
