checkpoint_critic.pth (torch_old, 601126 bytes, 5 tensors)

fcs1.weight f4 [512, 33]
00000000: e265 47be e737 f73d 309c bdbd 6cfb 05bb
00000010: de50 3ebe 4466 a0be 4100 80bd f4e8 e33d
00000020: 2f98 bf3d ed45 993d 984e 9ebd f0e1 98bd
00000030: 6768 323d 91d4 383e f7b1 aabc a527 373a
00000040: a19b 6bbd f47e 9fbd 77bd 65be 8348 d2bd
00000050: d838 4a3d a105 6b3d 0675 b13d 257f a4bd
00000060: ec15 0e3c edb7 07bc 414e 0ebe 0f5a 063e
00000070: f9a0 58bd 5a7a a73c 50fd bbbd c883 943c
00000080: 376a b9be 3104 b0bd 220c febd c1e4 d3bb
00000090: 70b5 f8bc 48cc f0be 687a ee3d a876 c8bd
000000a0: 0d5e d73d c40a fbbc 3c82 123e 24c6 90bc
000000b0: e976 b3bc b0e0 47bd 594c 023e 1b9e a33e
000000c0: 4313 98bc 1f85 2e3e f190 233d 42e0 a4be
000000d0: a0c3 493e 6264 153a ae6c db3c 0587 a93c
000000e0: 6a12 ed3c dc23 e33d 91c2 b8bc 0503 e8bd
000000f0: 6aa2 263e beec 14bd 4e29 7bbc 5bc8 2abe
00000100: 06eb 01bd 8d55 033f 70c2 33bd 9720 1c3d
00000110: 417e 123e f44f bdbd 2dbd 57be 6495 e1be
00000120: 753b 783e 4307 f33c 63ae a0bd e3f6 88bc
00000130: 7e85 853c 5dca 123a 3f55 86ba 4067 5a3e
00000140: b836 c4bc 1953 bbbc 30d9 d53e 1654 023d
00000150: 85a6 80bd 836a 32bc 1c5b 00bd 1d52 d03c
00000160: 8719 64bd a538 be3d 542b f23c 0ae8 883d
00000170: 758e cebd 69f9 2f3e 3a96 0fbc 7dfa f5bc
00000180: e42a 20be 073a 063d 08ca 453e eec4 b33d
00000190: 583b 153e 5b69 0bbe d014 233d 3540 ddbd
000001a0: d926 3a3d 06eb b3be 7e8f 923c ed8c 233e
000001b0: 32a7 b33c 1564 eb3c 6de3 333d 4bea dc3b
000001c0: dd4d e3bd e9b5 aebc 7261 503d 6155 283e
000001d0: ecd4 afbe b99e bb3e 7fd5 4c3e 7e41 853d
000001e0: c76d 803e 2d52 09be 30b4 23bc c28e c83d
000001f0: 010b 613d e8c3 9c3c 6265 3e3e f730 bb3d
00000200: 700d 153b 82ad 3cbe 3060 31bc 51d9 383d
00000210: 34d9 a03b a046 c53d f25b 18be 8272 123d
00000220: 4b49 8f3e bf24 813e a11a 3d3e f958 2cbe
00000230: 19da a43e c29c 413d 2457 063d 7f90 bfbd
00000240: 2fde 1b3d 3c06 ac3d 14da 603d 7dfe 083d
00000250: fd13 32bd 074f 703e 4db8 0f3e ae38 bd3c
00000260: 4f28 14bd 45ba 8cbc c770 263e 32ea b5bd
00000270: 48b5 f83c 32b7 133e da47 d6bc 4d92 a23e
00000280: 5516 4dbd a859 05bc 678d c3be e09c e4bb
00000290: ef27 b83e b115 573a d147 8ebd c192 1a3d
000002a0: 99ee 90bd 3f4b 393c 3148 203e 6b7b 8abd
000002b0: 29a0 1d3c 4474 063e b0e4 963d 29dc 02bd
000002c0: 781a eebb 9213 d3bc 08ed 5a3d 28c8 a93d
000002d0: d203 a7bd a16f cebd 22a6 3c3e 6941 b3be
000002e0: 97f3 72bc bf42 9d3c 0c89 4fbd 4026 913d
000002f0: 92cd 40bc d59d d03c d270 49bc 511b 92bc
00000300: 651f 76bc d71c a5bd 08a8 a03b 6014 923c
00000310: 9eda 59bc 6187 2c3e 4dbe 113e 2598 b13d
00000320: d7df 67be 8558 18be 7bc3 ebbe ff6d 7c3e
00000330: a634 ba3d 2fe5 c33d 6830 0dbe 66e2 543e
00000340: 7ceb 203c 5708 cdbc 9cc5 b0bd f750 0dbe
00000350: 9a84 dc3d 7aca 543d a0f4 433d d72f 93be
00000360: 5880 4f3e 0742 223e 2cca 973d 10bd 14bd
00000370: 08a5 833d 3eb9 aabd b703 453b 5a2a c5bc
00000380: a3e6 223c f5ad 933d 3712 0a3d 6c55 7c3c
00000390: 8a9b 5abd e086 f33b 3cb0 b03e c830 8cbd
000003a0: fd9d f1bd ccde 553d 6232 1b3e f6b9 4d3e
000003b0: c285 81bd 259b 893c 16e1 893c 0cdc 4a3e
000003c0: ddec 1a3c 500e 7c3c 7da0 523b e066 d43d
000003d0: e6a8 e43d ae3d 513d 1c04 073e b304 223e
000003e0: 36a5 22be 8fbf c13d b14e c83d a15f fb3c
000003f0: cd25 acbd 52e5 36bd 4acf 963a 58b6 7c3d
-0.19472459 0.120712094 -0.09258306 -0.0020444049 -0.18585536 -0.31328022 -0.062500484 0.11128417
0.093551986 0.074840404 -0.07729834 -0.07464969 0.043556597 0.18049838 -0.020836813 0.00069868035
-0.057521466 -0.07787886 -0.22435556 -0.10267737 0.049370617 0.057378415 0.086648986 -0.080320634
0.008672219 -0.008283597 -0.13897039 0.13120292 -0.05288789 0.020444084 -0.09179175 0.018129244
-0.36213848 -0.085945494 -0.12404658 -0.0064664786 -0.030359954 -0.47030854 0.11644441 -0.09788257
0.10515986 -0.030644782 0.14307493 -0.017672606 -0.021907287 -0.048798263 0.12724437 0.31956562
-0.018563872 0.17042969 0.03993315 -0.32202345 0.19703531 0.0005698857 0.026785221 0.020694265
0.028939445 0.11090824 -0.022553714 -0.11328701 0.16272894 -0.036358587 -0.015329672 -0.16677992
-0.031718276 0.51302415 -0.043886602 0.038117018 0.14305975 -0.092437655 -0.21068259 -0.44059289
0.24241431 0.029666549 -0.078457616 -0.016719287 0.016299006 0.00055996125 -0.0010248794 0.21328449
-0.023951873 -0.022866772 0.41767263 0.03181847 -0.06281761 -0.010889652 -0.03133689 0.02542978
-0.055688407 0.09288148 0.029561676 0.06684883 -0.10085765 0.17184986 -0.008763844 -0.030026669
-0.15641361 0.032770183 0.1931535 0.08777796 0.14573419 -0.13614409 0.03981477 -0.10803262
0.045447204 -0.35140246 0.017890688 0.15971728 0.02193031 0.028734246 0.043918062 0.006741797
-0.110988356 -0.021326976 0.05087418 0.1643882 -0.34342134 0.36644533 0.20003317 0.06506632
0.25083753 -0.13410254 -0.0099916905 0.09792854 0.054942135 0.019136384 0.18593362 0.09140199
0.0022743605 -0.18425563 -0.010826156 0.045129124 0.004908705 0.09632611 -0.14878824 0.035753734
0.27985606 0.25223348 0.1846719 -0.16830815 0.32197645 0.047268637 0.032797948 -0.09353732
0.038053688 0.083996266 0.054895476 0.033445824 -0.043476094 0.23467647 0.14035149 0.023098316
-0.036171254 -0.017178664 0.16253959 -0.0888256 0.03035988 0.14425352 -0.026157308 0.31752244
-0.050070126 -0.0081390515 -0.3819382 -0.006976709 0.35967967 0.00082048314 -0.06947292 0.03773761
-0.07076759 0.011309444 0.15652539 -0.06761821 0.009620705 0.1313029 0.073678374 -0.031948242
-0.007266339 -0.025766168 0.053448707 0.0829013 -0.081550255 -0.10079885 0.1842275 -0.3501084
-0.014828584 0.019196866 -0.050667807 0.07087374 -0.011767762 0.025465885 -0.012294965 -0.017835291
-0.0150221335 -0.080621414 0.0049028434 0.017831981 -0.013296751 0.16848518 0.1423275 0.086715974
-0.22643982 -0.14877518 -0.46047577 0.24651335 0.09092073 0.09565198 -0.13787997 0.20789489
0.009821769 -0.02502839 -0.08631441 -0.13800417 0.10767479 0.05195091 0.047840714 -0.28747436
0.20263803 0.158455 0.07411608 -0.036313117 0.064279616 -0.083361134 0.0030062029 -0.024068046
0.009942683 0.07210914 0.033708777 0.015401226 -0.05337099 0.00743185 0.34509456 -0.06845242
-0.11797712 0.05221443 0.15155938 0.2009047 -0.063243404 0.016797611 0.016830962 0.19810504
0.009455887 0.015384272 0.0032139116 0.10371184 0.11165027 0.051084213 0.13185161 0.15822105
-0.15883335 0.09460365 0.09780634 0.030685248 -0.084056474 -0.04465229 0.0011505869 0.061697334

fcs1.bias f4 [512]
00000000: 0542 3dbe 9fb5 8abe 30fa 9fbe e064 51be
00000010: 3585 e8be 2b77 0abe 9d7f c33d f9bc c7be
00000020: d52f 65be 4d88 473d 4bd5 a0be 08f1 1dbd
00000030: 5a86 8bbe bea0 debd 772c c5bd 621b 0fbe
00000040: bbd9 88be a457 3dbe 8574 0abe ac79 303d
00000050: 02cd 75be 9289 3e3d 3631 7fbe 7047 8ebe
00000060: 75b8 c0bd fd02 c4bb 6490 e5ba 860b f2bd
00000070: 50c0 84be ea92 b0bd e7ee d9bc 4e05 433d
00000080: 6b84 e23d bf80 c9bd dbfe 0abd fd5f cb3d
00000090: b42c 95bd d267 6dbe 20e1 c13d 35e8 0cbe
000000a0: 16e5 a03d e93f cebd 3fd7 98bd 74aa a1be
000000b0: ec76 a0be 1735 94be 4592 85bd 8399 35be
000000c0: 0e8b a9bd 91b9 9cbe 9813 d83b f42a 17be
000000d0: 2442 533b 99d4 40be 59e4 abbd 85d1 903b
000000e0: 2312 1bbd d5ff 93be 7b5c c8bd 2aed 3bbe
000000f0: 4b46 71be 968c cbbe cc79 81be 5599 e8bd
00000100: 0ff5 c7bc 2c4d bcbc 7579 c4bc 9e32 89be
00000110: 423e f83c dd0e 0abe d13c c7be 5b9d edbd
00000120: 98aa 9fbd b549 9b3c f5d5 4e3d 3c81 9cbd
00000130: c44d 4cbe 9ada 8abd f5e5 b4bb 4fa4 64be
00000140: 17c1 323e aab8 7cbe ce80 48be 6315 2dbe
00000150: ce5d 353d c411 86be 176f f1bd fa34 afbe
00000160: 0194 02be a8c4 aebc e51f 11be 021f aebd
00000170: 3754 9cbd 47f0 7bbd b1eb 14be 38a1 0dbe
00000180: 0fef 63be 0901 d3bd 1f53 9e3d e5ab 68bd
00000190: 8144 cabd 6a83 acbd 11d4 c2bd 4576 10be
000001a0: 7ede 80be 878d 97be a112 90bd 8dcd c4bd
000001b0: 1924 79be bddf 9cbe 0064 9fbd 615f 50be
000001c0: d537 40be 45c3 08be 18a0 dabd 2bc4 88be
000001d0: f841 52be d21d 02bd 1952 18be ce5b 8bbe
000001e0: cfed afbe 37f6 54be 8336 96be 3e6e 0cbe
000001f0: 6742 78be d5b1 ba3d 6657 433b 004a d5bb
00000200: 5167 bbbd b9d9 0bbe 7a4b 41be 074f 1ebe
00000210: 23b6 f2bd 532a 6cbe b67f bdbd 7cf8 973c
00000220: ad0f c93d 6152 88bc 26ad 21bd 4531 e0be
00000230: bd54 453d 8334 6fbe 7132 b7bc 4ae3 5abe
00000240: af3b 43be 14ec 12be 0de0 9dbe d5d9 4abe
00000250: 3910 96bd 91df 9cbe 976e 80be d26a 92be
00000260: 5db7 09bb 6136 cd3c 8b3b 7abe 232a 49bd
00000270: 1d28 22be 6b21 63be ca8c d2bd 6241 433c
00000280: aa27 0bbe bd12 ccbd b7c7 5abe 3dbf be3d
00000290: 6f20 83be d35e 35bd 7a35 c4bd cdee 2f3d
000002a0: 4864 3dbd efdf a5be 823d 66be bad9 a2bd
000002b0: 4de3 6dbd f713 11be 2f20 adbe 781b babe
000002c0: bfc6 72be 6fd6 49be ce1d 9ebd 5b32 eebe
000002d0: 7e51 babd 6726 213d 19b3 bebd 107f 72be
000002e0: 9a72 cfbe 0f5e 583b 6f83 44be 14d6 f7bd
000002f0: bd06 42be 8101 95bd 3575 c5bd 5624 46be
00000300: 4842 30be 014d 8cbd 0d67 cdbe 98a4 0cbe
00000310: 1990 91be b2cb c3bc b003 24be 11b2 31bc
00000320: 1538 eebd 81e7 ecbd a0f8 9abe d9d7 e3bd
00000330: 148d c2bd daf6 fe3c c73c 21be ce78 67be
00000340: 6cbf b3bd ea78 8f3d a254 87be afa2 7cbe
00000350: bd86 1ebe a64b c0bd 9264 a6be 3fe7 16be
00000360: 298f cabd 7445 42be f420 96be d4e4 36be
00000370: a0ac 46be 2203 babc 6000 90be af38 c0bd
00000380: 15a4 16be 4c84 e5bd 66a5 1dbe 0954 b23b
00000390: 6c72 2bbe d9a2 3dbd f751 b7be d940 41be
000003a0: 706a 63be 4efa eabc 0504 7abe 5f08 813d
000003b0: 05f7 adbe ba24 f9bc b91b c7bd e86f a2be
000003c0: 332e 7fbd d50b abbe 4250 88be 650a 0cbd
000003d0: 30a8 bdbd 02bf 4ebe adaa 9cbd c622 d9bd
000003e0: 84b3 37bd 340e 843b 3992 b4be 20bb 7bbe
000003f0: e26e 4bbd b8ce 86bd 976f 95be 70f9 5cbe
-0.18482216 -0.2709169 -0.31245565 -0.20448637 -0.4541413 -0.13522021 0.09545825 -0.39011362
-0.22381528 0.04871397 -0.3141273 -0.038559943 -0.2725094 -0.10870503 -0.096276216 -0.1397529
-0.26728615 -0.18490463 -0.13521011 0.043084785 -0.24003986 0.046517916 -0.24921116 -0.27788877
-0.094101824 -0.0059818015 -0.0017514345 -0.11818604 -0.25927973 -0.08621772 -0.026603175 0.04761248
0.11060413 -0.098390095 -0.033934455 0.09930418 -0.07283917 -0.23184136 0.09466767 -0.13760455
0.07856195 -0.10070784 -0.0746293 -0.31575358 -0.3134073 -0.28946754 -0.06522039 -0.17734341
-0.08278476 -0.30610326 0.0065941326 -0.14762479 0.0032235468 -0.188311 -0.08393163 0.004419508
-0.037859093 -0.28906122 -0.09783264 -0.1835219 -0.23561971 -0.39755696 -0.25288236 -0.11357371
-0.024408845 -0.022986017 -0.023983696 -0.2679643 0.030303124 -0.13482232 -0.38913587 -0.11602279
-0.0779621 0.018956045 0.050497014 -0.07641837 -0.1995154 -0.06779976 -0.005520577 -0.22328304
0.1745647 -0.24679819 -0.19580385 -0.1690269 0.044278912 -0.2618543 -0.11788767 -0.34220105
-0.12751772 -0.021334007 -0.14172323 -0.08502008 -0.0763325 -0.061508443 -0.14543034 -0.13831031
-0.22259162 -0.10302932 0.07730698 -0.056804556 -0.09876347 -0.08423503 -0.09513105 -0.14107616
-0.25169748 -0.29600164 -0.07034803 -0.09609518 -0.24330176 -0.3063945 -0.07782745 -0.20348884
-0.18771298 -0.1335574 -0.10675067 -0.26712164 -0.20532978 -0.03176672 -0.14875068 -0.2721848
-0.3436112 -0.20797049 -0.29338464 -0.13713929 -0.2424408 0.0911595 0.0029806732 -0.0065090656
-0.091505654 -0.13657273 -0.18876448 -0.15459834 -0.11851146 -0.2306302 -0.092528746 0.018551104
0.09817443 -0.016640844 -0.039471768 -0.4378759 0.048176516 -0.23359875 -0.02236292 -0.21375766
-0.19065736 -0.14347869 -0.30835 -0.19809659 -0.07327313 -0.30639318 -0.25084373 -0.28597122
-0.0021013834 0.025050344 -0.24436776 -0.04911245 -0.15835615 -0.22180717 -0.1028076 0.011917444
-0.1358935 -0.099645115 -0.21365248 0.093138196 -0.25610682 -0.044279885 -0.09580512 0.042952348
-0.046238214 -0.3239741 -0.22484401 -0.07951684 -0.0580781 -0.14167772 -0.33813617 -0.36349082
-0.23708628 -0.19710706 -0.077205285 -0.46522793 -0.09097575 0.039343264 -0.09311504 -0.23681283
-0.40517122 0.0033015048 -0.19190763 -0.12101379 -0.18947883 -0.072756775 -0.09641496 -0.19349799
-0.17212784 -0.06850625 -0.40117684 -0.13734663 -0.2843025 -0.02390084 -0.16017032 -0.010845677
-0.116317905 -0.11567593 -0.3026781 -0.11125154 -0.09499565 0.031123567 -0.15745841 -0.22604677
-0.08776745 0.070054844 -0.26431757 -0.24671434 -0.15481086 -0.09389429 -0.32498604 -0.14736651
-0.09890587 -0.18971807 -0.29322016 -0.17860729 -0.19401789 -0.022706572 -0.28125286 -0.093858115
-0.1471103 -0.11206874 -0.15395126 0.0054421467 -0.16742867 -0.04629788 -0.35804722 -0.18872394
-0.22208571 -0.028683808 -0.24415596 0.06300425 -0.33977523 -0.03041302 -0.097220846 -0.31726003
-0.06229992 -0.33407465 -0.26623732 -0.0341896 -0.09260595 -0.20190051 -0.07649741 -0.10602336
-0.044848934 0.0040300135 -0.3526781 -0.24583101 -0.049666293 -0.06582397 -0.291867 -0.21579528

fc2.weight f4 [256, 516]
00000000: 8925 a33b 273e f2bd df85 903c 1994 b93e
00000010: 5d5e 9d3c fb21 f7bc 6f1d 07be 1a69 f83c
00000020: 44f3 8bbe a11d 7d3b ec63 3c3e f480 3cbc
00000030: 791e 1dbe 0f23 bcbd 4342 563e 9f46 df3d
00000040: 687c 643e f878 a33a ed8e b33d b849 fcbd
00000050: d85f c1bd 2199 143d 63de bbbe f376 91bd
00000060: d6c3 67bd eedf c93d 921c 4f3d 6f37 60bd
00000070: 3744 26be 6f1c f43c dd28 87be c4e9 163e
00000080: 5cc2 77bd 260c bbbd 14b2 fbbb 52b8 cabd
00000090: 12ea 68be 4327 5dbe 6fcc c4bd 801c 9c3c
000000a0: 6882 3a3e 1cba 053e 5f14 aabd be4f 3e3e
000000b0: 45b5 71bb 2f02 02be a675 53bd 008b fe3d
000000c0: 9fbf 9bbe 01ba 3cbd b140 703d 2aed 06be
000000d0: cfdd 34bd 6a08 393d c693 313d bff2 f1bc
000000e0: aafc b1bd 674c 90bd d875 233d c235 43be
000000f0: fc7a 8cbd 0f68 6fbd 49b0 173e ba4c 343e
00000100: f4a2 58bc 9c25 fcbd 06bb 17be ef0e 3dbd
00000110: 014d 1f3d 65cf 7bbe e4bd 84be cfd3 15bc
00000120: d6b4 e03d adf1 2f3e 239d 483e 2415 2a3e
00000130: 07ce f63d 42c8 06be fa3c 8e3d b7dc a9bd
00000140: 6424 abbd 83db e1be 15e0 c4bd 5ea3 953c
00000150: 826d dbbc f017 12bd 62de 3abe 7401 3a3e
00000160: 30a8 3fbe f42a 9f3d 4b14 893d 93a3 0e3d
00000170: c38a 183d e5ac 963a 0960 5a3e 8b5a 2cbd
00000180: 7c15 08be eac9 31bd 875d 57bd 94fe ad3d
00000190: 392f 063e 3e19 84bd 0921 c8bd 1d9f debb
000001a0: ca98 373e 65c0 0a3d 16ee 12be 6970 24be
000001b0: 94d5 023e c3aa 88be f2a7 4a3a a0d8 d8bb
000001c0: aa95 dbbd 5cf9 0dbf 2d9c 0abe 9ff7 803d
000001d0: 31df 89bc 093e 91be 5aee 053e 534f 00be
000001e0: 8bf1 f53d 199c fa3d c504 d73d b0a9 c53d
000001f0: 1313 f53d ad77 1dbe a668 60bc a657 0bbd
00000200: 0e57 523d dfc8 603e 3c45 a4be b883 5b3e
00000210: 3f50 b8bb 47dc 053e a9ca 96bd 53f9 52bd
00000220: 20a3 b8bd b52f 38bd d742 663d 3685 ec3d
00000230: f90d 27bc d0a0 fabb ae4c 58bb fb36 b439
00000240: 79a7 563d e4d7 2abd e8fe 6cbc 8947 673d
00000250: fd11 6bbd 630f 003e 9676 153e cb08 6cbd
00000260: 0c05 81be c634 21bd 1dcf b3bd 84c8 143e
00000270: 333a 3abd 983d d83d 5bac 30be 0ee9 f33c
00000280: 4523 3bbe 0cf0 92bd d96b bd3d fd38 09be
00000290: 6fba 9fbd 22a4 5bbc d2d8 fe3b 61ca e43b
000002a0: 61f7 1c3e 4147 2cbe 6e16 193d 3bcf 1b3e
000002b0: 422b 10bf ccd7 e6bc 1a9e 113b 49df 4fbe
000002c0: 40fb 8dbc 5f96 523d feff 86bd acb1 05bf
000002d0: 33aa 69be 8391 9fbc b98a 3a3d de14 993d
000002e0: eb52 cebc d509 4c3e e5ef bd3d 2dc2 8c3c
000002f0: 754e 253d 6fd9 d7bb d638 373d 8e79 cdbd
00000300: 4f56 8cbd 0bfc dcbd 63ec 6bbd dee8 eabc
00000310: 5c22 ca3d a888 b53a 0c89 b1be ea14 6abc
00000320: 6fca a53d 3020 123e 584e bebd 7829 6dbe
00000330: ef33 aa3d 4725 bf3d d8f1 c4bc b503 cbbd
00000340: 3378 153d e13e 353e e782 b1bc cdf3 a6bd
00000350: 04d0 763c 4164 07be e502 3dbd ee0a 3a3d
00000360: 1ac2 313d a08b f2bc fc28 3ebe afea 14bd
00000370: b041 15be e158 e9be 0d31 c7bc 95b5 d33d
00000380: 7a60 a53d d447 75be 93c9 c6bd 43db 0fbd
00000390: 9f9c 293d c666 943d a278 e5bd 182a 993d
000003a0: 3699 27be afd8 d3be f5f7 aa3c c900 87bd
000003b0: f260 4bbd 0139 95bc bf13 153e fbc7 6a3c
000003c0: 3ab4 b9bb f98e 0a3d 64ee 253e 3341 cfbd
000003d0: 85ff c4bc 5fcd 593d 2ba6 efbd 221d 813d
000003e0: c4b2 cabd f479 3dbe 98d2 d83d 41b4 a63d
000003f0: 0672 41be a220 6fbc 64ee f43d d775 70bc
0.00497884 -0.11828261 0.01764196 0.36245802 0.019210035 -0.03016757 -0.13194822 0.030323554
-0.27334034 0.0038622397 0.18397492 -0.011505354 -0.15343656 -0.091863744 0.20923714 0.10902142
0.22313082 0.0012471965 0.08767495 -0.12318748 -0.09442109 0.036278848 -0.36693105 -0.07102766
-0.056583248 0.09857164 0.050564356 -0.054740366 -0.1623696 0.029798714 -0.26398364 0.14737612
-0.06048809 -0.091331765 -0.0076811407 -0.098984376 -0.2274554 -0.21597008 -0.09609305 0.019056559
0.18213809 0.13059276 -0.08304667 0.18585107 -0.0036881727 -0.12696145 -0.05162587 0.12428856
-0.30419633 -0.046075825 0.058655445 -0.13176408 -0.044156846 0.04517404 0.04335382 -0.029534696
-0.0869077 -0.070458226 0.039907306 -0.19063476 -0.06859395 -0.058448847 0.14813341 0.17607394
-0.013222445 -0.12311861 -0.14817438 -0.04615682 0.038891796 -0.24590833 -0.25926125 -0.009144737
0.10971992 0.17182036 0.19591193 0.16609627 0.12051015 -0.1316233 0.06945224 -0.08294051
-0.0835655 -0.44112787 -0.09613053 0.018266376 -0.026785616 -0.03566736 -0.18248895 0.18164617
-0.18716502 0.077718645 0.06693324 0.034823965 0.03724171 0.0011495618 0.21325697 -0.042078536
-0.13289446 -0.04340545 -0.05257943 0.084958225 0.13103952 -0.06450127 -0.09771926 -0.00679387
0.17929378 0.033874888 -0.14348635 -0.16058506 0.12776786 -0.2669278 0.0007730714 -0.0066176206
-0.107219055 -0.5545862 -0.13536139 0.0629723 -0.016830059 -0.28367642 0.13079205 -0.1253026
0.12008961 0.122368045 0.104989566 0.09651506 0.11966529 -0.15377684 -0.013696825 -0.034019135
0.051352553 0.21951626 -0.32084072 0.21436965 -0.0056248005 0.1307231 -0.07362873 -0.051507305
-0.090154886 -0.044967372 0.056216087 0.115488455 -0.010196202 -0.007648565 -0.003300469 0.0003437324
0.052405808 -0.041709796 -0.014465071 0.056464706 -0.0573902 0.1250587 0.14596018 -0.057625573
-0.25199163 -0.03935697 -0.08779738 0.14529616 -0.04546566 0.10558623 -0.17253248 0.029774215
-0.18275173 -0.071746916 0.09249086 -0.13400646 -0.07799231 -0.0134058315 0.007777312 0.0069821333
0.15328743 -0.16824056 0.037374906 0.15215771 -0.56316006 -0.028179072 0.002221948 -0.2030002
-0.01733172 0.051412936 -0.065917954 -0.5222423 -0.22818832 -0.019478565 0.045542452 0.07474683
-0.025186023 0.19925626 0.09274272 0.017182434 0.040358026 -0.0065871994 0.044731937 -0.1003295
-0.068523996 -0.10790261 -0.057598483 -0.028675493 0.09869835 0.0013849931 -0.3467487 -0.014287213
0.08095252 0.14270091 -0.09292287 -0.2316035 0.08310687 0.09333282 -0.024041101 -0.099128164
0.036491584 0.17699768 -0.021668864 -0.0815197 0.015064243 -0.13221838 -0.04614534 0.04542058
0.043398 -0.029607594 -0.18570322 -0.036356624 -0.14575839 -0.45575622 -0.024315381 0.103373684
0.08075042 -0.23953182 -0.09706416 -0.035121214 0.04140913 0.07246165 -0.112046495 0.07478732
-0.16367039 -0.41376254 0.020870188 -0.06591947 -0.049653 -0.018215658 0.14558314 0.014329906
-0.0056672366 0.033827756 0.1620422 -0.10119858 -0.024047622 0.053174373 -0.11701616 0.06304385
-0.09897378 -0.18503553 0.105870426 0.081398495 -0.18891153 -0.014595183 0.11959532 -0.014676533

fc2.bias f4 [256]
00000000: 532c 013e cd4f ac3e 4b84 59bd 0354 20be
00000010: 8c4d 8dbd 225a 6cbc 2a89 953e 4839 fd3d
00000020: e159 50bd 35a8 503e ece8 be3d f452 f3bd
00000030: 1b34 813e ec73 3cbd 40dd f93d 321d d3bd
00000040: b7ca ccbd 9720 173e 7b04 01be e072 bdbd
00000050: 36b7 ffbd 80aa 623b 4137 cebd b217 633d
00000060: 002f 02be f072 0d3e 0475 353e 5026 923e
00000070: a9a2 bdbd a07c 28be 5569 ea3d 2dd8 9c3e
00000080: a3af cbbc d813 933c 98f4 353e 3164 84bd
00000090: f448 1a3e af64 8c3d 26c5 a5bd 5a4a d8bc
000000a0: 9cac 8b3e 62f2 053e bef0 473d 6155 233e
000000b0: f126 4b3e 317b ea3d 532b 363e 14e7 203e
000000c0: 9836 613c 6216 d3bd d6f2 883d 5a3a 53bd
000000d0: 9a7d 4bbd ffd9 043d ba89 8a3d ec5c 433d
000000e0: e1c4 1f3e bf58 07bd 6488 ebbc 79f5 f33d
000000f0: 1215 11be b1e4 3f3d cbcb b7bd 0655 963d
00000100: 31ba 31bd 2640 58bd 39cb 5c3e 6de7 833d
00000110: 1ced 4b3e 698f 6e3e 6e11 6f3e 3404 2e3e
00000120: 1b99 edbd 24bb 00be 1ba1 033e a1f3 ccbd
00000130: 713f f4bd 1c1f 09be 4902 b43d 998f de3c
00000140: 1b9e 2dbe 9d48 5b3e a5ab 97bd 3c18 3fbe
00000150: 77f5 02be e9a4 493e c252 94bc f2fa 1e3d
00000160: eeeb bebd b535 16be 83db 3d3e d840 573e
00000170: 7708 0abe e9cb 3d3e f3b6 f83d 6bb8 903d
00000180: 900b 83bd 11bb 913e 5e06 81bd 9237 273c
00000190: c4c1 14bd 1555 d6bd 2d2a ce3b f5e9 8abd
000001a0: c0e0 143e f3e6 8c3e 35a4 17be c55f 973d
000001b0: d1b4 41bd 4bb6 233e e629 94bd 0852 b53e
000001c0: d5ae 1cbe 88a6 00be b6fd f5bd ec46 8dbd
000001d0: 76e4 14be 4f83 503e f11a 60bd aafc 173e
000001e0: f5e4 88bd d166 dfbd 0d0f 523e 0570 0e3e
000001f0: 5a8d 3c3e db86 e4be 3671 2bbe fc77 753d
00000200: f72b 03be c711 94bc 192b dbbd f4c2 34be
00000210: 6c61 f43d 40da 39be 2e4a 5ebd ffbe 633d
00000220: 6f20 683d 9867 d63c 89f0 573e ca7c b7bd
00000230: 8398 b23d bfcb 99bd fb15 433e 06ac 27be
00000240: ef21 a13d 668e edbd 019d 01be 0fe2 45bd
00000250: cada 173e 250a 2ebe 16b3 28bd 507b b5bd
00000260: fd2b b43c e2a1 8a3d 9462 1b3d 7149 4f3e
00000270: 7a0c 28bd bc25 063e 453e 6cbd e6b0 27bd
00000280: 9232 38be f5b5 d83c f8c0 78bd a3a0 b3bd
00000290: 260a 053d f175 863e 40b4 61be d7c5 6f3c
000002a0: 5ea9 afbd ed12 bfbd b870 e83c 492d 4ebd
000002b0: 7068 cfbd 2592 d53d 435a 54bd ad36 85bd
000002c0: da46 c93d e901 b43d 84fb d9bc ce67 583e
000002d0: 01cb 0d3e af3b bf3e 583a 8bbd e377 2dbe
000002e0: 316d bd3e e7ac 1abe bfea d9bd 8406 bebd
000002f0: be80 46bd 621d ce3d ecb7 bb3e e611 39bd
00000300: 8fad 6abd 0cfe f7bd 0562 0c3e 40e6 423d
00000310: c838 673e adeb d73c b502 8d3b b3b8 dcbb
00000320: 2300 9cbd ba84 aabc 39f0 ecbd 4942 513e
00000330: 82fc 20bc 6594 f7bd 45f4 323e 23c1 843d
00000340: 8936 f33d bd42 9ebc 128f 1bbd 94a8 5fbd
00000350: e6bb 7e3d 4e47 813e 9c8f 313e 72ef 2cbd
00000360: 20c2 333d f522 09be c153 bcbd a665 e1bd
00000370: ea34 ffbd 4797 163e dd97 a9bd 700c 313d
00000380: 8894 a43d a65d ac3d 5cb2 95bd ea62 ad3e
00000390: 4c91 153e ff67 823e 26dc 11be 597e 0f3d
000003a0: 960d b53c a763 b63d 6831 043e 6578 f23d
000003b0: 7777 e13c 3992 c5bb 93c0 b4bd 8099 393e
000003c0: 3932 a0bd 0fe7 aa3e 9048 b23e 2c1b 82bd
000003d0: 2bc9 1a3e 533c 9c3d 8ed5 033e e7dc a6bd
000003e0: c90f 04be ba67 e0bd 08d9 0c3e 5655 0bbd
000003f0: 7645 37bd a91a 73bd 8371 bebb 45b0 0dbd
0.12614565 0.33654633 -0.05310468 -0.15657048 -0.068995565 -0.014425786 0.2920621 0.12364441
-0.050866965 0.20376666 0.0932177 -0.118810564 0.25235066 -0.04600899 0.12200403 -0.10308303
-0.09999602 0.14758526 -0.12599365 -0.09250426 -0.124861166 0.003458649 -0.100691326 0.05544252
-0.12713242 0.13813376 0.17720419 0.28544855 -0.092595406 -0.1645379 0.11445872 0.3063368
-0.024864024 0.017953798 0.17769086 -0.064644225 0.15066892 0.06855141 -0.08094244 -0.026402641
0.27280128 0.13080743 0.048813574 0.15950538 0.19839074 0.11449278 0.17789964 0.1571315
0.013745926 -0.103070036 0.06686942 -0.05156932 -0.04968033 0.03243446 0.067645505 0.04769604
0.15602447 -0.03304362 -0.02875156 0.119120546 -0.14168194 0.046848956 -0.08974417 0.07340436
-0.043390457 -0.05279555 0.21561898 0.06440625 0.19914669 0.23296894 0.23346493 0.16993791
-0.11601468 -0.12571388 0.12854426 -0.10007406 -0.11926163 -0.13390774 0.08789498 0.027168082
-0.16954844 0.21414419 -0.074057855 -0.18661588 -0.1278895 0.19691814 -0.018105868 0.03881354
-0.09322344 -0.14668925 0.18540768 0.2102083 -0.13479792 0.18534817 0.1214427 0.07066425
-0.0639869 0.28463033 -0.063000426 0.01020612 -0.0363176 -0.10465447 0.006291649 -0.06782905
0.1453886 0.2751995 -0.14808734 0.073913135 -0.04729158 0.15987508 -0.07234554 0.35414147
-0.15301068 -0.12563527 -0.12011282 -0.06898293 -0.14540276 0.2036259 -0.054713193 0.14842477
-0.06684295 -0.109082825 0.20513554 0.1390992 0.18413296 -0.44634137 -0.16742405 0.05992888
-0.1280974 -0.018074883 -0.107015796 -0.17652494 0.11932644 -0.18149662 -0.054269962 0.05560207
0.056671556 0.026172444 0.2108785 -0.089593485 0.087204956 -0.075095646 0.19051354 -0.16374215
0.078678004 -0.11599426 -0.12657548 -0.04831129 0.14829555 -0.16996057 -0.041186415 -0.088614106
0.021993631 0.06769158 0.03793581 0.2024286 -0.041027524 0.13100332 -0.057676572 -0.040940188
-0.17988041 0.026453951 -0.060730904 -0.087708734 0.03248038 0.26261857 -0.22041416 0.014634571
-0.08577226 -0.09329782 0.028374061 -0.050336156 -0.10127342 0.104282655 -0.051843893 -0.06504569
0.09827967 0.08789427 -0.02660919 0.21133348 0.13846971 0.37350222 -0.067982376 -0.16940264
0.3699737 -0.1510502 -0.106404774 -0.092785865 -0.048462622 0.10064198 0.3666376 -0.045183085
-0.057294425 -0.121090025 0.13709266 0.047582865 0.22580254 0.026357496 0.004303301 -0.006735885
-0.076172136 -0.020815242 -0.11569256 0.20435442 -0.009825828 -0.12088851 0.17475994 0.064821504
0.11875636 -0.019318933 -0.03797824 -0.054604128 0.062190913 0.25249714 0.17339939 -0.04222054
0.043886304 -0.13392241 -0.09195662 -0.11005716 -0.124612644 0.14706145 -0.08280919 0.043224752
0.080361426 0.084162995 -0.0730941 0.33864528 0.14606208 0.25469968 -0.14244136 0.035032604
0.022101205 0.08905726 0.12909472 0.1183937 0.027522786 -0.006029394 -0.08825793 0.18124962
-0.07822079 0.3337941 0.34820986 -0.06352839 0.15115802 0.076286934 0.12874433 -0.081476025
-0.12896647 -0.10957284 0.13754666 -0.03401693 -0.044743977 -0.059351597 -0.0058118715 -0.03459193

fc3.weight f4 [1, 256]
00000000: aa0e 1f3e 4692 f43d 66af 9fbe 0424 07be
00000010: 62f2 44be c294 843e 393c de3d 42e9 203e
00000020: ea39 56be 809c 143e aeea 0e3e 157e 79be
00000030: 8df5 f93d 4672 6b3e a0f1 e93d c145 c3bd
00000040: 3027 03be 95ae 183e ab77 04be 2485 08be
00000050: f3b5 6abe 80eb 783e b2fa 03be 00ea 183e
00000060: 5bab 69be 19cc 113e 544b 033e 0a92 bd3d
00000070: 6b97 23be 7aae 6bbe 7fb9 263e 1718 c93d
00000080: 5165 303e 625e f33e 3f08 de3d e123 e0bd
00000090: ffc8 f43d 1037 263e e035 09bf 5f55 3c3e
000000a0: f942 ae3d b513 9b3e f255 cc3e 5610 1b3e
000000b0: b1b6 fc3d 5798 423e 63e0 ec3d 797d 0c3e
000000c0: b618 c43e 337c 8cbe 8f0f 2e3e fa20 3cbe
000000d0: 2b9f f0be ce59 913e 03c2 3c3e 0a76 56bf
000000e0: a9f7 f53d d5ca 893e 03dd 9dbe 7cb6 853e
000000f0: 5984 72be 1202 413e a8ea cfbe b56f 763e
00000100: b9d5 b1be d0f2 74ba 84a6 b43d 076f 813e
00000110: 5036 b73d 0b64 0a3e 9eb8 b93d 667d 0b3e
00000120: 6ce7 0abf eb45 45be c2bc a23d a219 35be
00000130: 93cd 0fbe 8562 4dbe 5151 7f3e 2067 773e
00000140: e1f4 47be d8a8 023e 987e 18bf b4d7 fabe
00000150: eb77 24bf 0f23 e93d 8a3b 693e f8f0 f3be
00000160: d0b4 76be 89ea 85be 71c8 ca3d bac4 c73d
00000170: 328f 46be 7647 bf3d e751 ef3d 7c28 0b3e
00000180: 51b8 11bf 83cd c13d ca84 bbbe 9f1f eebe
00000190: ed3d b53e 0c6b 72be 6c52 993e 2e8e f2bd
000001a0: 5cd3 f23d 79e2 b93d 866b fabe e193 973e
000001b0: 148d 20be e7cc fa3d e3bf 8bbe 0033 e63d
000001c0: 49e3 22be 49ba d3be 08d3 45be 0281 16bf
000001d0: 1982 41be d2a6 c93d 8895 07bf 819f 1c3e
000001e0: 8807 ab3e 3e87 09be 3463 ec3d 0ed8 003e
000001f0: f18b 053e 462d dabd c379 24be e0fa 1b3e
00000200: f714 13be 7632 fe3d 115b 10be 4784 14be
00000210: 2ed8 4f3e d2ef cfbd d064 59be 73fd 913e
00000220: 126a 443e bfca 6b3e d93b fb3d 2b50 9bbe
00000230: 1365 683e 42ff aabe 0ca5 003e 17ee 1abe
00000240: 7059 463e 6cd8 59be f442 20be 1920 e9bd
00000250: cf52 0d3e 8811 eebd 9ae8 26be d25e abbe
00000260: ba90 6b3e e458 2e3e f998 b23e 4362 df3d
00000270: 4fd1 88be 1f00 f43d 66f0 1bbf c71a 8cbe
00000280: 7e83 2dbe 391e 9e3e 97fc 8abe e1a5 96be
00000290: dc4c 8e3e 54c1 c33d 5265 05be c4ab 593e
000002a0: 3274 f3be 2ee4 25be b461 233e 2c92 5fbe
000002b0: 2093 25be da42 553e c322 833b 0606 ff3b
000002c0: c56a 363e ff42 3d3e f6ca a4be 9f70 ac3d
000002d0: 2c57 093e 68f7 cc3d 1b41 d2be 8850 8bbe
000002e0: 56ab 173e 34b1 99be 4bb5 a23e c674 1fbe
000002f0: 1fa6 88be 5470 483e 624e ee3d 5466 1bbf
00000300: 58fc 93be d440 43be 946d e43d 423d 8d3e
00000310: 764c ce3d 5abe 373e b992 743e b5f6 913e
00000320: f6e8 d7be 275a b0be 2f3b abbe cd22 d83d
00000330: 9128 5ebe 3248 04be 62f3 bf3d f991 243e
00000340: 1601 583e a299 733e 70f1 463e b361 60be
00000350: c531 483e 6cb2 eb3d 47f9 063e 7449 60be
00000360: 0a1e 5a3e debb 61be 5478 5bbe 7d7f 8ebe
00000370: 7156 e4bd 83fa 003e 5b86 19be 2152 463e
00000380: 7318 1f3e b30f 153e 49f1 9dbe 8aed 103e
00000390: 0a01 423e 8c0e c43d 3879 afbe c911 453e
000003a0: eabe ab3e cd4a 493e 79e3 123e a49b 5b3e
000003b0: 1e6d 953e 73ae 9d3e 4574 b4be 4b72 e63d
000003c0: 73db 0fbe 6b83 de3d b5dc cc3d c238 5abe
000003d0: 69b3 373e 099d 923e 69bc 253e 4587 54be
000003e0: d821 60be ec85 1bbe dd03 2f3e b346 a03e
000003f0: 8326 21be b637 6b3e fc45 843e 7640 12bf
0.15532938 0.11941962 -0.31188506 -0.13197333 -0.19233087 0.25894743 0.1085133 0.15713981
-0.2092053 0.14512825 0.1395671 -0.24364503 0.12205038 0.2299281 0.114230394 -0.09534789
-0.12807918 0.14910348 -0.12936275 -0.13332039 -0.2292097 0.24308586 -0.12888601 0.14933014
-0.22819273 0.14238013 0.12821704 0.0925637 -0.1597573 -0.23015776 0.16281699 0.09819048
0.17226149 0.47532946 0.108414166 -0.10944343 0.119523995 0.16231942 -0.5359783 0.18391941
0.08508868 0.30288473 0.3990932 0.1514295 0.12339533 0.19003426 0.11566236 0.13719739
0.38300103 -0.27438506 0.16998123 -0.18371955 -0.46996436 0.28388828 0.18433385 -0.83773863
0.12010128 0.2691256 -0.3083268 0.26115787 -0.23683299 0.18848446 -0.40608716 0.2406605
-0.3473337 -0.0009344043 0.08820823 0.2528002 0.08945906 0.13514726 0.09068416 0.13622054
-0.5425937 -0.19264953 0.07946159 -0.1768556 -0.14043264 -0.20057113 0.24933363 0.24160433
-0.19527008 0.12759721 -0.59568167 -0.48992693 -0.6424548 0.1138364 0.22776619 -0.47644782
-0.24092412 -0.261555 0.099015124 0.097543195 -0.19390562 0.09339802 0.116855435 0.13589662
-0.5692187 0.094630264 -0.36624748 -0.465085 0.35398808 -0.23673648 0.29945695 -0.11843525
0.1185672 0.09076399 -0.4891016 0.2960501 -0.15678817 0.12246113 -0.27294835 0.11240196
-0.15907015 -0.41353062 -0.19318783 -0.587906 -0.18897285 0.098462716 -0.5296254 0.15295221
0.33404183 -0.13430497 0.11542359 0.12582418 0.13041665 -0.106531665 -0.16062073 0.1523242
-0.14363466 0.124119684 -0.14097239 -0.14503585 0.2029731 -0.10153164 -0.21229863 0.2851368
0.19181088 0.2302656 0.122672744 -0.303346 0.22694807 -0.3339787 0.1256296 -0.15129887
0.19370055 -0.21273965 -0.1565054 -0.11383075 0.1380112 -0.116244376 -0.16299668 -0.3347078
0.23004428 0.17026097 0.34882334 0.10907414 -0.2672219 0.119140856 -0.60913694 -0.2736418
-0.16944692 0.30882433 -0.27145836 -0.2942343 0.27793014 0.09558359 -0.13026932 0.2125693
-0.47549587 -0.16200325 0.1595524 -0.21833104 -0.16169405 0.20826283 0.0040019467 0.0077827005
0.17814167 0.18482588 -0.32186097 0.08419918 0.1341216 0.100081265 -0.41065297 -0.27209878
0.14811453 -0.30018008 0.3177894 -0.1557189 -0.2668924 0.195741 0.11636044 -0.60703015
-0.2890346 -0.19067699 0.11153713 0.27585799 0.100731775 0.17943707 0.23884095 0.28508535
-0.42169923 -0.3444378 -0.3344359 0.10553513 -0.21695162 -0.12918165 0.093725935 0.16071309
0.21094164 0.23789075 0.19428039 -0.2191227 0.19550236 0.11508641 0.1318103 -0.2190302
0.21300521 -0.22044322 -0.2143262 -0.2783164 -0.111493 0.12595563 -0.14992659 0.19367267
0.1553667 0.1455677 -0.30848148 0.14153114 0.18945709 0.09573087 -0.3427217 0.19245066
0.33544093 0.1965744 0.14344586 0.21446091 0.29184812 0.30797157 -0.35244957 0.112522684
-0.14048557 0.1086491 0.10003034 -0.21310714 0.17939533 0.28635433 0.16185154 -0.20754726
-0.2188791 -0.15187806 0.17091317 0.3130394 -0.15737347 0.22970471 0.25834644 -0.5712961
