checkpoint_critic.pth (torch_old, 601126 bytes, 5 tensors)

fcs1.weight f4 [512, 33]
00000000: 7d6b 26bd f07a ba3d f8ff 3abe fc48 9dbc
00000010: c5a6 8abc 2e51 bcbd aee4 6e3e c3bb 403d
00000020: 6eb5 6f3e c307 9a3c 061c 49bd 3896 53bd
00000030: 13ba b5bc 24e5 443d 4e00 a0bc ccb3 c43b
00000040: 0030 98bc f475 613c a771 80be 7222 02bd
00000050: 4665 3abd 8250 65bd e080 9ebb 042a edbc
00000060: 4ad2 eb3c 86b8 873c e710 dabd 6dac 4f3d
00000070: 1377 81bc 5a7a a73c 5df7 38bc c883 943c
00000080: 2646 11bd 1f99 383b 7607 f5bc 95d9 343d
00000090: b6f9 773e eb8c 703e 0538 c0bd d610 6cbe
000000a0: c0e8 a3bc 8cfb 443e 8a8c 023e 37de 353c
000000b0: 75d0 363d 669a 65bd 7bd4 d03d a43e 6e3d
000000c0: aec2 353c 3e30 dbbc ce22 3b3e a64f dabe
000000d0: 3834 753e 77fe 0b3d 034a cb3c 3a2f 053d
000000e0: 1aa0 c9bc d550 ba3c 6596 10bd c432 fbbd
000000f0: 84cb a23d 26f6 a63b 4e29 7bbc 7017 abbd
00000100: 06eb 01bd d3bd a3be 58d8 2a3d fe73 453d
00000110: 1a6b a2bb 3239 7ebe d3c9 bd3d c838 4ebe
00000120: 7a32 8a3e 6266 7d3b 5cfc 773d ef99 90bd
00000130: fc36 15bb 2b8e 0fba ff4f 263d 2633 033e
00000140: 5471 ae3c 0402 6c3c 5fc2 c63e 6b36 ec3e
00000150: d4e7 663e 5ef7 403e 28fb 4dbb 0627 b53d
00000160: 7d7c 16ba 21b2 143c ff9b 293d c99e b83d
00000170: 9884 dcbd bf01 ce3d f2b8 3fbd 7dfa f5bc
00000180: 3865 aebd 073a 063d db0f 723e 0793 893d
00000190: a589 30bd 51b7 0cbd 8591 833d 754f d3bd
000001a0: 200d c0bb db6f b23d a9df 1dbd 89cd 02bd
000001b0: 503a 13bd 05f2 34bc 27a7 11bb 05f9 51bd
000001c0: 48d7 8dbd 25df b63d 1524 c63c a507 6c3c
000001d0: 6fe7 4b3e 31b7 943d ace5 473d fe86 9fbc
000001e0: 26c8 c03c 43bf c23a 1855 363b 26b4 bb3c
000001f0: f550 e33b 017b ac3d 9613 613d b2af 83bd
00000200: 700d 153b fd33 5abd 3060 31bc d2f9 25bf
00000210: 77b5 25bd 7dbf 083e 971c 9bbd 628c cb3c
00000220: 55d6 443c 2060 2b3e e186 3c3d 947a 0abd
00000230: 2e8a 953d f4fd 4e3e b254 8cbd 2530 2d3c
00000240: 81e1 54bc 4763 133b 5be5 2dbb 21e4 a4bc
00000250: 20d5 1dbe 98a2 b23e 1cb9 753e 07f1 40be
00000260: 91f3 ebbb ad92 133c f2fe 12bd 6072 923d
00000270: b130 8a3d 0c30 de3d ca1b 3bbd 0703 283e
00000280: 6662 c4bc a859 05bc 51f9 69be e09c e4bb
00000290: 65bf 13bf c522 e6bc 0217 a1bd efe9 dc3a
000002a0: cda9 853d 1eac 163e e0b7 89bd 4842 103c
000002b0: d61a 5d3d 183d b43c cdc3 e9bd 8548 353c
000002c0: f7e6 353c ed99 96bc 246d 3c3d f9f6 fa3c
000002d0: 8f8d a1bd 005c 6e3e 2470 953c 387b 313c
000002e0: e7a1 4cbe 61f8 ad3c aa3b 8e3d 3139 f338
000002f0: 8d6c 1f3c 0c89 9b3c 70f3 8bbb 15aa 953d
00000300: 123d 3bbc 3759 6ebd 08a8 a03b 7e46 693c
00000310: 9eda 59bc 9a59 8d3d 649e 613c b7c6 1fbd
00000320: 05fd 8bbd 75b7 543e 89ab b33d e95b c4bd
00000330: 65c7 aebb 2443 473c c7fe 73bd 7c0d 373c
00000340: fc58 0e3d 103a d2bc 2b20 453d 0fe4 c4bd
00000350: 1107 223d b816 463d c2d5 843e 8307 64be
00000360: bb4d 3ebe b99e 08bd b172 a8bb 8d52 68bc
00000370: 2a05 3e3c cf82 aebc 1f55 52bc 2607 0dbd
00000380: a302 0d3d a135 693d ca54 8d3b 6c55 7c3c
00000390: e875 1cbd e086 f33b 4c0b 1bbe 3bad b1bd
000003a0: c558 47bc 406b d53d 19ef b33d ea2f 9ebc
000003b0: 8b7d 01bf c12d d43d a09e 313d c546 a0bd
000003c0: 44b3 36bd 2a19 3abd 5387 84bb 7310 603d
000003d0: da5a 203c 4c62 febc 1e6b 643d e291 86bc
000003e0: ccd0 fcbd cd69 07be 7030 c13d 854e d23c
000003f0: ce4f 433a ea8d 1c3d f298 643d e71f 253c
-0.040629853 0.0910548 -0.18261707 -0.01919984 -0.016925225 -0.09195171 0.23329422 0.047054064
0.23409054 0.01880253 -0.04909899 -0.05165693 -0.022183454 0.048070088 -0.019531395 0.006002879
-0.018577576 0.013761032 -0.2508671 -0.03177113 -0.045506738 -0.05598498 -0.0048371404 -0.028950699
0.028786797 0.01656748 -0.10647755 0.050701547 -0.01580385 0.020444084 -0.011289445 0.018129244
-0.03546729 0.002816744 -0.029910784 0.044152815 0.24216351 0.23491256 -0.09385685 -0.23053297
-0.020008445 0.19236583 0.12748924 0.011100343 0.044632394 -0.05605545 0.101967774 0.058165208
0.011093779 -0.026756402 0.18274996 -0.42638892 0.23945701 0.034178223 0.024815565 0.032515742
-0.024612475 0.022743622 -0.035299677 -0.12265542 0.07948974 0.005095261 -0.015329672 -0.0835408
-0.031718276 -0.31980762 0.041710228 0.048206322 -0.004956615 -0.24826506 0.092670105 -0.20138848
0.26991636 0.0038665761 0.060543403 -0.070606105 -0.002276837 -0.0005476202 0.040603634 0.1281248
0.021294273 0.014404777 0.38820168 0.46135268 0.22549373 0.18844363 -0.0031430218 0.08845334
-0.0005740596 0.009075672 0.041408535 0.09014661 -0.10767478 0.10058927 -0.046807237 -0.030026669
-0.085154 0.032770183 0.23638861 0.06717496 -0.043100018 -0.03435451 0.0642424 -0.103178896
-0.0058609396 0.08712741 -0.038543377 -0.031934295 -0.035944283 -0.01104403 -0.0022224875 -0.051262874
-0.06925827 0.0892928 0.024187127 0.0144061195 0.19912504 0.072615035 0.048803017 -0.019473549
0.023532938 0.0014858026 0.0027821716 0.02291305 0.006937141 0.08421899 0.05495032 -0.064299956
0.0022743605 -0.053272236 -0.010826156 -0.6483432 -0.04045626 0.13354297 -0.075738125 0.024847213
0.012013991 0.16735888 0.046027068 -0.033808306 0.07301746 0.20214063 -0.06852092 0.010570561
-0.012993217 0.0022489594 -0.0026534412 -0.020128312 -0.15413332 0.34889674 0.23996395 -0.18841945
-0.0072006662 0.009007138 -0.035887666 0.071507215 0.067475684 0.10849008 -0.0456808 0.16407405
-0.023972701 -0.0081390515 -0.22849013 -0.006976709 -0.5771392 -0.028092751 -0.078657165 0.0016854386
0.065265276 0.14714095 -0.067245245 0.008804865 0.05398067 0.022001788 -0.11414299 0.011064653
0.01110243 -0.018383944 0.046002522 0.030635344 -0.07888328 0.23277283 0.01824195 0.0108326
-0.19983636 0.0212366 0.06944974 0.00011597796 0.00973047 0.018986247 -0.0042709634 0.07307831
-0.0114281345 -0.05819055 0.0049028434 0.014237998 -0.013296751 0.06901856 0.013770673 -0.03900787
-0.06835369 0.20773108 0.08772952 -0.09587843 -0.0053338283 0.012162004 -0.059569146 0.0111726485
0.03475283 -0.025662452 0.04812638 -0.09613811 0.03955752 0.04836151 0.25944334 -0.2226849
-0.1858434 -0.033354495 -0.0051406254 -0.014179838 0.011597911 -0.021302609 -0.012837677 -0.034430645
0.034426343 0.05693591 0.004313086 0.015401226 -0.03819838 0.00743185 -0.15141028 -0.08675619
-0.01216716 0.10420847 0.08785839 -0.019309957 -0.5058219 0.10360289 0.043364167 -0.07825998
-0.044604555 -0.045434155 -0.004044452 0.054703187 0.009787286 -0.031052731 0.055766217 -0.016426984
-0.12344512 -0.13223954 0.09433067 0.025672207 0.00074505515 0.038221277 0.055809923 0.010078407

fcs1.bias f4 [512]
00000000: 50a5 d5bd 372f 40be 52fc 76be 1389 96bd
00000010: 4cf4 99be 9b25 0ebe ac93 e23d 2472 5ebe
00000020: e4e7 45be e1fa 223d 05fc 50be 16d3 953c
00000030: 5664 3ebe 125c afbd bce3 c2bc 2b7a e0bd
00000040: 94e8 72be 3ee6 b8bd 42de 74bd 3924 a13d
00000050: 150a a7bc f5dd 483d 53ef 61bd c06c 6ebe
00000060: 11a7 d7bd f4f4 183d 66e3 e13d 029d dbbc
00000070: 69b2 1bbe 69ab 373b 8126 b93d 8f3f 4a3d
00000080: 3a18 693d 983b dabd 938d 07be f250 6b3d
00000090: 7596 873c f97f 71be b95c f03d c9be 70bd
000000a0: ce40 123e 5665 25bd 3330 603b 503c 53be
000000b0: 9473 9abe 73d9 34be 1376 99bd 529c a6bd
000000c0: 75eb 1bbd 48ea 6fbe dc1f b23d 4745 96bd
000000d0: 01ed 3c3d 3439 37be f337 dfbd aef1 463d
000000e0: 2cb7 1cbc db45 91be eac0 8f3d bd40 33be
000000f0: 36e4 42be 4a85 acbd 9c2d 75be 6c29 463c
00000100: b63e 043d 91fe b43d 6014 87bd 1159 17be
00000110: e8c3 90bc e7d8 fbbc 8982 84be 6987 1cbe
00000120: 49e3 dabd 2d7f d43d 38ca 8b3d 2420 b3bd
00000130: 23d1 01bd 1b75 38b9 814c 073e 3e4e 7dbe
00000140: 8250 e83d 7514 e4bd b1c6 d7bd 1535 7bbd
00000150: 35df 803d e978 26be 681f 6ebc e5d3 76be
00000160: 0e7f 90bd 72db 283d 650d 0cbe 8d22 bbbd
00000170: cba8 bdbd 44a8 1ebd b499 16be 0ff1 8abd
00000180: fa18 9dbd d0d9 8ebd 24f9 c73d 9ffb 5bbd
00000190: b943 d4bc 0c15 49bc f57e 8f3c 67dd b0bd
000001a0: fb4c 54be 05cc 86be ce41 21bd 178b ec3c
000001b0: 4402 6bbe 4c87 48be e71a 48bc e07e a5bd
000001c0: 9c3d 0e3d 104f 85bd 2f2d 3dbd 610f 14be
000001d0: bb4e e0bd 0113 183c 5c7f 59be 0d05 c9bd
000001e0: ad29 80be c27e febd 27ed 54be b505 99be
000001f0: 8925 14be b466 b23d ce2e 763c 4df4 8b3d
00000200: fbdd b3bd 45e3 f83d cd79 2ebe 15ea b83c
00000210: ac83 87bc 7387 57be cbc8 923d 2dc2 863c
00000220: 6afb 053e 5958 293d 9c63 ab3c d633 73be
00000230: 08b2 043d 62cc fdbd 3ec8 80bd f1bc 67be
00000240: 09ab 34bd 8cbe 18be 3239 89bd 5aff 32be
00000250: 7286 abbd 8dcb 69be fb05 55be 68ee 22be
00000260: 1948 5b3d 92f7 d63d 085c 52be a68d d13d
00000270: 0262 fbbc 930d 24be af7a 3fbd 3883 a43d
00000280: 183c f3bc 5259 c9bd 968c 03be fde2 7c3d
00000290: d8c5 24be 89d0 bcbc 534c 35be cde0 a0bc
000002a0: 7f19 92bd 2407 00be 4c74 55be 41b7 16bd
000002b0: a1c1 4fbc eaf3 0bbd 49e9 17be e9a4 80be
000002c0: 0e4d 28be 797b cabd ae36 bd3d 6eb0 77be
000002d0: 0dd6 fcbd f307 b2bb c702 993c 24cd 9dbe
000002e0: ba75 60be e508 c13d 1b71 d7bd 7c9c 8bbc
000002f0: 5366 66be d994 b23c ce5c 18be c131 adbd
00000300: 9a33 2ebe 3246 b4bc 91a6 94bd ce64 4abe
00000310: f7fb 3cbe ae79 d73d 9dbc fbbd 7072 8dbd
00000320: 899e afbd 3f41 8c3c c561 6cbe fe09 d0bc
00000330: ece1 24bd bee3 3a3d fc0f c2bc 0106 ebbd
00000340: bfbe 47bd 6cd0 183e 6ea2 06be eb23 48be
00000350: 37af 4ebe a00e c7bd 9c53 78be 2081 b1bd
00000360: 46c5 1bbd 9822 dabd 2875 62be cf28 b7bd
00000370: 7d0d 42be 46ab 483c 6ef3 26be c462 b6b9
00000380: f995 c4bd fe91 cc3d f6e6 40be 9b4f 2a3d
00000390: 278a dfbd 5dc4 ac3c 876c 76be 85f1 1bbd
000003a0: a4ac 1fbe c9c3 a33d 9697 57be 2bbf 963d
000003b0: eb02 56be 7442 2f3d 5c00 d1bd 3ba7 93be
000003c0: ad06 13be cab3 96be eec2 6dbd 34f5 353d
000003d0: 304a 99bd 8a50 56be ee88 833c 71a0 c8bd
000003e0: 81d2 afbd 9299 923d 5eac 8cbe 4dcb 04be
000003f0: d265 29bd 0f46 babd 15f9 56be 7ba4 08be
-0.104319215 -0.18768011 -0.2411969 -0.073503636 -0.30069196 -0.13881533 0.110633224 -0.21723229
-0.1932674 0.039790038 -0.20408638 0.01828913 -0.18592963 -0.08562483 -0.023790233 -0.10960802
-0.23721534 -0.0902829 -0.059782274 0.07868237 -0.02039055 0.0490398 -0.055159878 -0.23283672
-0.10529912 0.03734298 0.11029701 -0.026808266 -0.15204777 0.0028025752 0.09040547 0.04937702
0.05690787 -0.10655898 -0.132376 0.057450242 0.016551236 -0.23583974 0.117364354 -0.058775697
0.14282534 -0.040379845 0.0034208416 -0.20628476 -0.30166304 -0.17661075 -0.07493224 -0.081352845
-0.038066346 -0.23429215 0.08697483 -0.07337432 0.046124462 -0.17892915 -0.10899343 0.048570327
-0.009565156 -0.28373608 0.07019217 -0.17505164 -0.19032368 -0.0842386 -0.2394318 0.012094837
0.03228637 0.08837617 -0.06595683 -0.1478007 -0.01767154 -0.030743076 -0.2588084 -0.1528603
-0.106878825 0.10375819 0.068256795 -0.08746365 -0.03169359 -0.00017591233 0.13212778 -0.24736878
0.11343481 -0.11136714 -0.10535944 -0.06132992 0.06292573 -0.16257061 -0.014533855 -0.24104269
-0.07055484 0.041224904 -0.13676985 -0.091374494 -0.0926071 -0.03873469 -0.1470707 -0.067842595
-0.076707795 -0.06975138 0.09764317 -0.05370676 -0.025911199 -0.012273084 0.017516593 -0.08635979
-0.2073249 -0.2632753 -0.039369397 0.028874917 -0.22950083 -0.19582862 -0.012213445 -0.0808084
0.034726724 -0.065092206 -0.04618567 -0.14458992 -0.10952517 0.009281875 -0.2123999 -0.098154165
-0.25031796 -0.12426521 -0.20793591 -0.29887167 -0.14467444 0.08710995 0.015025808 0.06833706
-0.08782574 0.12152723 -0.17038651 0.022572557 -0.016542278 -0.21047764 0.071672045 0.016450012
0.13084188 0.04134402 0.02092152 -0.23750243 0.032396346 -0.123924986 -0.06288193 -0.22630669
-0.044108424 -0.14916438 -0.06700362 -0.17480221 -0.08375253 -0.22831555 -0.20803063 -0.15911257
0.053535555 0.10496439 -0.2054292 0.102320954 -0.030686382 -0.16020803 -0.04674786 0.080328405
-0.02969174 -0.098314896 -0.12846598 0.06173991 -0.16091096 -0.023048656 -0.17704897 -0.019638443
-0.07133769 -0.12502724 -0.20845145 -0.03679586 -0.012680442 -0.03416816 -0.14835085 -0.25125816
-0.16435644 -0.09886832 0.09238945 -0.24188396 -0.123455144 -0.0054330765 0.018678082 -0.30820572
-0.21919909 0.094255246 -0.1051962 -0.017042391 -0.22499971 0.021799492 -0.14879152 -0.084567554
-0.17011872 -0.022006128 -0.072583325 -0.19765016 -0.18455492 0.105212554 -0.122918345 -0.06906593
-0.0857516 0.017120956 -0.23084171 -0.02539539 -0.04025452 0.045627348 -0.023689263 -0.114757545
-0.048765894 0.14923257 -0.131479 -0.19544952 -0.20184027 -0.09719586 -0.24250644 -0.08667207
-0.03802993 -0.106511295 -0.22115004 -0.089433305 -0.18950458 0.012247866 -0.16303799 -0.0003478733
-0.095989175 0.09988783 -0.18838105 0.041579824 -0.10915022 0.021089727 -0.24064837 -0.038072128
-0.15593201 0.079963274 -0.21053919 0.07360681 -0.2089955 0.042787984 -0.10205147 -0.28838524
-0.14358015 -0.29434043 -0.058047228 0.044423297 -0.07484853 -0.2092916 0.016056504 -0.09796227
-0.08585072 0.071581975 -0.27475256 -0.12968178 -0.04135687 -0.09095394 -0.20993455 -0.13343994

fc2.weight f4 [256, 516]
00000000: bcaa 0ebb 6eb6 1ebe d84b 053e 5e2c 843d
00000010: a862 2e3d 06d2 823d 511e c6bd f59e 03bd
00000020: e66a bd3d 2e3d 7dbc eb4c a93d cace 133d
00000030: 1a74 22be 779d 28be 227c 2c3c 4e0e 23bd
00000040: fe02 2b3d bc29 6cbd 159a 693d 1c3e cf3d
00000050: 6476 933d e2ce eabd c459 873d 3557 9a3c
00000060: 1534 e7bd a342 603d 6911 31bc e91f d53d
00000070: 3b5c e4bc 8a5c 13bc 44e6 f1bd d9fa 94ba
00000080: ed15 e43c 7a2f 94bc 54f1 50bd cae4 d4bc
00000090: 08ba d7bd efea e0bd 4411 97bd 4e44 18bd
000000a0: abbb b3bd adb7 bf3d 59eb 0dbd ef03 513d
000000b0: fb98 d0bd 1132 17be 4c31 f03a eb2f f03c
000000c0: bdcc f3bd 8726 30bd 1ffa 05bd 2bd9 e0bd
000000d0: 9319 643d e83e 933c d71b 29bc c232 88bd
000000e0: e01c 9ebd fcbb 2dbd 948f bd3c 0f92 03be
000000f0: 6fc0 6b3d b3d3 26bd ba78 213d e77b f23d
00000100: 5acd f9bd b814 23be 88f5 eabc cb08 f4bd
00000110: 69d0 a5bc fff5 f3bd e273 923d f111 6a3d
00000120: 7a39 c83d 1c4d 35bd 7be2 c9bd a90b d13d
00000130: f7a7 6d3c 013a c6bd e5a7 1fbd 3dd3 e9bc
00000140: 705d 953d 1776 fe3c c1ba d63b e2b6 e93d
00000150: b2e5 8a3d d8f0 3e3d 9497 5bbe c63a a1bd
00000160: 6c2c a03d 4257 9f3c fbda bb3c 88c9 5ebd
00000170: 34f2 533d 39a4 1fbd 9979 36bb 5faf a33d
00000180: 3719 1a3e fb23 f8bc 2380 003d 84d1 a53c
00000190: 15ed e23c bdc9 283c 2c03 8b3c 4bc0 04be
000001a0: 6b9d ff3d eb1a 86bd 3854 f3bd e7c6 bc3d
000001b0: c48a fcba cb02 d6bc c19d 9e3d fa27 ac3d
000001c0: 6910 0c3d cc4a 14bd 9c4e 953d 5688 d3bc
000001d0: cba9 04bd a3d8 81bd d011 c6bd a941 09bd
000001e0: f655 263c 7c8d 843d c8f4 e8bd f710 29bd
000001f0: a5e7 66bd 295d 673d 90e8 f3bd 4cfd 92bb
00000200: 631a 67bd c6aa 893d 5aca 0c3d 4730 173d
00000210: edbc 463d 1881 8cbd b52d 2cbd f293 56bd
00000220: 6f79 603c 6ccc 6c3d 2429 1fbd 61ee 2e3d
00000230: aa27 803c 74f6 903d 313f 04bb afa7 0c3e
00000240: 368c 543d 07c6 d8bc 05a4 5bbc c99d 2b3d
00000250: 9f57 36be b0a4 243d 30e6 4c3b dac2 d03d
00000260: 59e4 37bd c6c3 963c 1fac 253d 495e 773d
00000270: 4b77 a2bd 1d2c 3dbd 229a 2d3d 684d 84bc
00000280: 98fd 00be bc77 323d 62dc ffbc ad79 05bd
00000290: 2718 973c fc4a f23c f159 d3bd 647c 413d
000002a0: cdcd 2a3d 4492 b73c 4154 91bc c994 e13c
000002b0: 6cde ad3b 609f ca3d d06c 2ebc c891 e63c
000002c0: eb70 bebd 9c5b 0ebe b8d7 93bd 2cb8 04bd
000002d0: 8c53 babb 65b7 03bd 55e8 5b3b a020 973c
000002e0: 65ca be3c e975 f83c 0b2b f03c 5d27 033d
000002f0: 2178 e2bc d453 b1bd 536d 9d3d 642b 78bd
00000300: 644b 293c ecc2 ac3d ba82 b33d 8e54 59be
00000310: 1240 b93b 5c48 aa3d d6bc b13c bad0 413c
00000320: 3ce4 263d 30fd dd3d 56fe c03c a70f 9f3d
00000330: 71f2 a7bb 8338 90bc c6b0 c23a 3c8a 8ebd
00000340: e1e9 e8bc b4ac 59bd 58ec bfbd e17f 26bd
00000350: a45d 43be 1e9f 1b3d 2f49 133e d48d 9abb
00000360: f567 1abd c872 89bd 5305 71bd 8b5b 41bd
00000370: bb12 c0bc a73a f9ba b44b 1b3d e953 4abd
00000380: c3df 833d e67a a53c aadd 953d b1c0 663b
00000390: 6da9 eabd e136 943d d52c cdbd bd69 203d
000003a0: a09c 5ebd f00b 7b3d 6697 a93a 1b4e ebbb
000003b0: cfb4 4bbe 7067 f73c 9891 51bd 5bcc 35be
000003c0: 7ef9 8f3d f97a eb3c ab93 2fbd 7d7f d53d
000003d0: f8c7 37be 7888 3dbd 6d13 c2bd 41a8 aebc
000003e0: 8c60 9b3d 8993 123d 7105 13bd 2a50 d63c
000003f0: 0fb3 91bd ea10 8dbd 8e38 8ebb 24f4 323e
-0.0021769246 -0.15499279 0.13017213 0.06453775 0.042574555 0.06387715 -0.09673751 -0.032134015
0.09248905 -0.015456481 0.08266624 0.03608588 -0.15864602 -0.16466318 0.010527642 -0.039808564
0.0417509 -0.05765699 0.05703171 0.10119268 0.072003156 -0.11465241 0.06608918 0.018840412
-0.11289231 0.05475105 -0.010807374 0.10406477 -0.02787601 -0.008994231 -0.11811498 -0.0011366262
0.027842486 -0.018089045 -0.0510114 -0.025988001 -0.105335295 -0.1098231 -0.0737634 -0.037174515
-0.08776029 0.09361205 -0.034648273 0.051029142 -0.10185429 -0.14765193 0.0018325238 0.029319724
-0.11904285 -0.043005493 -0.032709237 -0.109789215 0.055688452 0.017974332 -0.010321579 -0.06650306
-0.07720351 -0.042415604 0.023139752 -0.12848686 0.057556566 -0.040729236 0.039421774 0.11840039
-0.12197371 -0.15925872 -0.028681532 -0.119157396 -0.02024098 -0.119121544 0.07151009 0.057146017
0.09776588 -0.04426299 -0.09857651 0.10207302 0.014505378 -0.09679032 -0.038978476 -0.02854311
0.072932124 0.031062169 0.0065530245 0.11411835 0.06782092 0.046616405 -0.21444541 -0.07872538
0.07820973 0.019450787 0.022931566 -0.054391414 0.051744655 -0.038974974 -0.0027843474 0.07992434
0.15048681 -0.030290594 0.0313722 0.020241506 0.02770094 0.010302004 0.016969286 -0.12963979
0.12481197 -0.06548103 -0.11881298 0.09217625 -0.001926743 -0.026124379 0.07744933 0.084060624
0.034195337 -0.036204144 0.07290384 -0.025821846 -0.03238849 -0.06340148 -0.09671366 -0.033509884
0.010152331 0.064722985 -0.11374813 -0.041275945 -0.056373257 0.05648533 -0.11909592 -0.0044857617
-0.05642165 0.067220256 0.034372665 0.036911275 0.048520017 -0.0686056 -0.042035777 -0.052387185
0.013700827 0.05781214 -0.038857594 0.042707805 0.015643913 0.07078257 -0.0020179267 0.13735841
0.051891528 -0.026461614 -0.0134058045 0.041898523 -0.17806862 0.04019612 0.0031265132 0.10193415
-0.044895504 0.018403899 0.04044735 0.06039265 -0.079329096 -0.046184648 0.04238332 -0.016150191
-0.12596738 0.04357122 -0.031233016 -0.032586742 0.018444134 0.029576771 -0.10319889 0.04723777
0.041700173 0.022408612 -0.01774037 0.027536767 0.005306056 0.098936796 -0.01064606 0.028145686
-0.09298881 -0.13902134 -0.072188795 -0.032402202 -0.005686229 -0.03215732 0.0033555229 0.018448174
0.023289869 0.030329661 0.0293174 0.03201996 -0.027645173 -0.08658567 0.076868676 -0.060588256
0.010332916 0.08435616 0.087651685 -0.21223661 0.0056533897 0.08314583 0.02169649 0.011829549
0.040745005 0.10839307 0.023558777 0.07766657 -0.005125337 -0.017605072 0.0014853708 -0.0695996
-0.028431835 -0.05314322 -0.09371251 -0.0406493 -0.1907869 0.037993543 0.14383386 -0.0047166143
-0.037696797 -0.06711346 -0.05884297 -0.047206443 -0.023446431 -0.0019014672 0.037913993 -0.04939643
0.064391635 0.020200204 0.0731767 0.0035210068 -0.11458097 0.0723703 -0.10018317 0.03916334
-0.054348588 0.06129068 0.0012938797 -0.0071809418 -0.19893192 0.03020069 -0.05116424 -0.17753737
0.07030009 0.028745161 -0.042865437 0.10424707 -0.17947376 -0.046272725 -0.094763614 -0.021320464
0.07586774 0.03578523 -0.03589386 0.026161272 -0.07114231 -0.06887992 -0.004340238 0.17475945

fc2.bias f4 [256]
00000000: b723 e73d 6b32 383e feb5 88bc 3ff3 c5bd
00000010: 4332 fabc cfa5 c03d 51e2 be3d 27da 96bd
00000020: 2638 87bc 4cc1 213e f228 873d 54dd abbd
00000030: ec92 1d3e 2376 3e3b 1c25 7d3d 64ed f5bd
00000040: d7f0 61bd b44b b3bc 1cdd b43d 1bca 2fbd
00000050: 0f1f bb3d e6ea c53d 1eeb 99bd 7565 8e3c
00000060: 1557 22be a559 2d3e 9a3d 113e 4dbc f23d
00000070: 3fda d13d 3a95 4a3d 649f 4b3d f2a6 d33d
00000080: ccb4 4abd 7b82 6a3d 0dd6 e73d f421 93bd
00000090: 9bfb 853d 4686 fd3d 579d a7bd b054 8d3c
000000a0: d9e9 eb3d 75d9 ec3d 4bb6 a2bc 039a a23d
000000b0: 9268 f43d de67 c73d f1ce 02be 1c97 e63d
000000c0: 7ab6 c53d be14 723d ae7e f43d e530 85bd
000000d0: 7b09 8bbc 8409 d53d 0f0c 3e3d 8ac3 b1bd
000000e0: 61ac ed3d b83a 963c b925 683d 0b2b e63d
000000f0: 1879 85bd d4b8 abbd f8d4 3bbd 16fe 143e
00000100: 9bc5 be3d ad7e d1bc efd0 d33d d7f3 9ebd
00000110: f515 d7bd 3252 8a3c 22f1 023e 1f72 283e
00000120: e9b8 abbd 753c 71bd 8e5e 273d 5822 58bd
00000130: fae9 21bd 496e 2a3c 5b5b 863d 4473 f8bd
00000140: c19f 59bd 5c66 8ebc 1c43 c4bd 6efa babd
00000150: 6acd a73c b584 173d bcc1 863d 52b6 64bc
00000160: 1b23 a1bd 8bc4 25bd c462 893d 9cc2 543d
00000170: 9f4f 6cbd a584 943d 8ff8 a13d 2bf0 9dbd
00000180: c3f0 91bd b2a7 c03d 8c1e 733d f9cf 873d
00000190: c372 c8bc 7995 76bd 719a 3f3d 9bca e6bc
000001a0: 7b0a df3c 1bd8 263e bafb c8bd abdf fa3c
000001b0: 2591 aa3d 29ca 773d 2f36 28bd 70c0 a03d
000001c0: 3eb2 c2bc cf7b 9cbd 9cc9 15be 8bda 01bc
000001d0: 0d75 febd aac2 a53d aa03 f23c 68b5 163e
000001e0: 629d 60bd 3d61 80bd 8d0b c83d c698 3cbb
000001f0: 1d4b c73d 1e94 273d ea06 893c 4cb6 9d3d
00000200: e1d4 f3bd 8263 5a3d faad 9bbc 6bdf 8abd
00000210: 22db 1c3d 853f 6fbd eb71 87bd 9de2 1fbd
00000220: 8a29 92bd 0ff0 0e3c adbd ba3d 7535 8cbc
00000230: 3e97 1e3e 51f8 c8bd f7f7 a83d 33b4 afbd
00000240: db3b 0d3d 9c39 bfbd 23e6 79bd ad76 f8ba
00000250: 7e25 76bc 2e55 a6bd dc42 d6bb 1d6d a7bd
00000260: 2b06 2f3d 0df0 e0bc 390c cd3c 6d44 cf3d
00000270: acb7 6bbd c1b4 9abc 6dcf 48bd f494 1bbd
00000280: 93cd d5bd 2f60 323d 7c39 4dbd 7a74 1cbd
00000290: d021 433d c527 ce3d 04df a1bd 233b 80bc
000002a0: dab1 84bd 4dfa 563d 0a2d 58bd 6af5 b33d
000002b0: 0686 50bd b139 0f3e ebb0 bf3c afc6 bd3c
000002c0: 7973 a13d 150a 023e 9ed2 75bd 2d75 273c
000002d0: 4a11 0b3e eb75 453e 6609 62bc a836 c0bd
000002e0: 3ffb e83d 4475 adbd 79e2 9cbc 756a 53bd
000002f0: 6455 04bd f94e 993d 417a a43d 8d80 7abd
00000300: eb03 25bd c8e3 2cbd 9cc0 bb3d ce27 c13c
00000310: f49c 7abd a8b8 b4bd ba72 9fbd 42bb 573c
00000320: 8636 af3d 5267 923d d854 e4bc b4f0 4c3e
00000330: 58f8 22bc df69 69bd e1ba f73d 335e 803c
00000340: d5f9 00bd f8a4 c1bc 29db 82bd 6f58 b6bd
00000350: e2e6 c33c 1b8d 783e 7d4c 013e d1c2 7f3a
00000360: 4627 ba3c 026b 99bd ab97 9b3b f0fc 9abd
00000370: 51d6 2bbd d7f1 813d e803 49bd 532f 5bbd
00000380: e4d1 36bd aa21 93bc a8fc 8b3d 933c 8f3d
00000390: 0969 1d3e 5acd 8f3d f57d 0dbc 0172 8f3d
000003a0: be88 d5bc 360c 9c3d 8a88 f03d 41fc 773d
000003b0: 39e0 eebb ed99 1fbe 2756 a1bc 0c3c 103e
000003c0: a2bb 3ebc c590 1b3e 835a 373e 1acc b13d
000003d0: 2304 a23d 37af 2d3e 9ba5 dc3d 1961 96bd
000003e0: 138b f13d ff65 c0bc 98ad 6f3d 7d82 0bbd
000003f0: af0b 09bd b375 e1bd e0bc fd3d e733 a33d
0.11286109 0.17987983 -0.016688343 -0.09665536 -0.030541545 0.094066255 0.0932051 -0.07365828
-0.016506266 0.15796393 0.065996066 -0.08391824 0.15388077 0.0029062114 0.06180297 -0.12008169
-0.055161323 -0.021886684 0.08831236 -0.042917352 0.09136783 0.09663944 -0.07515548 0.017382363
-0.15853532 0.16928728 0.14183655 0.11852322 0.10246705 0.04945872 0.049712554 0.10334577
-0.049488828 0.057253342 0.11320124 -0.071842104 0.065421306 0.12379126 -0.08184307 0.017252296
0.11519212 0.11564914 -0.019862315 0.07939532 0.11934008 0.09736608 -0.12774254 0.112592906
0.09653945 0.059101813 0.11938225 -0.065034665 -0.016972294 0.104022056 0.04639822 -0.08679874
0.11605144 0.018338546 0.0566766 0.112386785 -0.065172374 -0.083848625 -0.0458574 0.14550051
0.09315034 -0.025573099 0.10342585 -0.077613525 -0.10502235 0.016884897 0.12787297 0.16449784
-0.08384878 -0.058895547 0.04086166 -0.052767128 -0.039529778 0.010402271 0.065603934 -0.1213136
-0.05313087 -0.017382793 -0.095831126 -0.09129797 0.020483691 0.036991794 0.06579921 -0.013959484
-0.07868024 -0.04047064 0.06708291 0.051943406 -0.05769312 0.072518624 0.07908737 -0.07711824
-0.07126 0.09406985 0.059355304 0.066314645 -0.024468785 -0.060201142 0.046778146 -0.028172782
0.027226677 0.16293375 -0.09813638 0.030624231 0.08328465 0.06049553 -0.0410673 0.078492045
-0.023766633 -0.07640802 -0.14627689 -0.00792564 -0.124246694 0.0809377 0.029542763 0.14717638
-0.054837592 -0.06268547 0.09767828 -0.0028777584 0.097311236 0.04091274 0.01672693 0.07700786
-0.11905838 0.053317554 -0.019003857 -0.06780895 0.03829492 -0.058410186 -0.06613525 -0.039034475
-0.07136829 0.008724227 0.09118209 -0.017115334 0.15487382 -0.098129876 0.082504205 -0.08579292
0.03448091 -0.0933716 -0.06101049 -0.0018956267 -0.015023587 -0.081217155 -0.006538732 -0.081751086
0.04273049 -0.027458215 0.025030242 0.10120473 -0.05754821 -0.018885018 -0.04902594 -0.03798385
-0.10439601 0.04354876 -0.05010365 -0.03819702 0.047639668 0.10066179 -0.07903865 -0.015653199
-0.06479235 0.0524848 -0.052777328 0.087870434 -0.050909065 0.13986851 0.02339979 0.023166029
0.07883353 0.12699158 -0.060015313 0.010220808 0.13580814 0.19283263 -0.013796186 -0.09385425
0.113760464 -0.08469632 -0.01915096 -0.051615197 -0.032307997 0.07485766 0.080311306 -0.06115775
-0.04028694 -0.042209417 0.09167597 0.02357855 -0.06118484 -0.08824283 -0.07785554 0.013167204
0.085553214 0.07148613 -0.027872488 0.20013696 -0.009946905 -0.056985732 0.12096191 0.015669918
-0.03148826 -0.023638234 -0.06389458 -0.08903586 0.023913804 0.24272577 0.12626834 0.0009756508
0.022723805 -0.07491113 0.004748305 -0.07567775 -0.041952435 0.063449554 -0.04907599 -0.05351193
-0.04463376 -0.017960388 0.068353 0.069939755 0.15372099 0.070215896 -0.0086359875 0.070041664
-0.02606618 0.076195166 0.11744793 0.060543302 -0.007289913 -0.15586062 -0.019694401 0.14085406
-0.011641415 0.15191944 0.17905621 0.086815074 0.07910945 0.1696137 0.10773774 -0.07342739
0.117941044 -0.023486136 0.05851516 -0.03405999 -0.033458408 -0.110087775 0.12389541 0.07968884

fc3.weight f4 [1, 256]
00000000: cc7a 033e 9a23 013e beec 3cbe a4f2 bbbd
00000010: aa90 3bbf b3b3 fc3d 0c9b 273e dc54 4ebe
00000020: 310d d8bd e429 c73d 0c0e 473e 1b1b c0be
00000030: 4e7d f13d 7276 293e 4006 3f3e 07a0 1cbe
00000040: 92d4 25be 87f7 06be 7264 5b3e 0b4d 82be
00000050: b00c 153e 9169 2c3e 6b85 31be 4673 713e
00000060: 15b0 ffbd a084 fe3d 36a5 c23d 96b7 dc3d
00000070: 5b86 e23d 580f b63e 3f75 953e bd89 0d3e
00000080: 5f56 0fbf 444f 693e 950c f63d b4f7 7cbe
00000090: f072 033e 1f71 ba3d 13fb 90be dffc 933e
000000a0: 48cc f43d aecf 4b3e b158 b4be 838e 3d3e
000000b0: 2165 013e db45 de3d ed91 84be 07ad d53d
000000c0: e5c1 b83d 29e5 883e 7a81 013e 1743 58be
000000d0: d392 8d3e 44e3 ce3d 340b 4e3e ed6f 28be
000000e0: e67c ee3d c8bb b13e f5a2 913e 98e8 d73d
000000f0: d500 93be 6fda ddbe 8e1c 36be 3805 e83d
00000100: 557e 2f3e 9973 57be e24a fd3d d199 49be
00000110: 6b0b 13be 2b45 49be ac0e b33d 52b9 db3d
00000120: 069b 12be b707 10be 242e 143e 9f24 57be
00000130: 2fc9 49be cd7b 9f3e bae4 683e 8bb6 5cbe
00000140: e5f4 59be 0c25 14be ebb4 57be 0460 00be
00000150: 84b3 343e a563 f33d b2f6 f03d a793 92be
00000160: 8254 71be 526c 50be d517 293e 81d2 3e3e
00000170: 4013 4ebe ad59 113e a319 0f3e 6ba3 dfbd
00000180: 179e 50be 3190 213e b8e9 423e 5976 403e
00000190: 2b89 c13e 3c9d 39be 80b0 0e3e b5af e9be
000001a0: 3e87 1b3e 02a2 e73d b53c 13be 2ec3 c83e
000001b0: 1f5a 6c3e 74c7 003e 65f9 d03e c95d 203e
000001c0: a45d 16bf a92f 2dbe e9b0 14be c3f1 8cbe
000001d0: ce3d e8bd 8005 0f3e 1a94 3a3e 5b5d fa3d
000001e0: 1bc4 e6bd 0961 5bbe 7aa8 023e 8196 4abe
000001f0: 24cf 013e 7eae 4a3e e5b4 bc3e 1383 ab3d
00000200: 2b6b 4fbe b539 3c3e 4b7e 1bbe f89e 5abe
00000210: 2bcf 733e 8141 8bbe 3bb0 cfbd 624d 2fbe
00000220: 19a8 79be 8327 6b3e ea6e b33d f9db a5be
00000230: e96f 043e dbf9 14be ed7d 173e 19d7 2ebe
00000240: 5138 d93e 23ea 32be cc20 3cbe b1b2 30be
00000250: 17be 49be 6619 7cbe f081 85be fd00 6bbe
00000260: fe24 243e 38a3 39be 28ee e63e 46f8 0d3e
00000270: 2ad3 febd 700e b5be f2f2 51be ef7c 91be
00000280: 6a57 1fbe 244a 803e 5ff9 0cbe 2081 46be
00000290: 6fb0 083e 92ab d53d aac7 08be f6cb c13e
000002a0: 81a3 9bbe 5ea8 3c3e 6612 17be d41a 1a3e
000002b0: bfd3 34be aefa e63d 226f 923e 0f59 543e
000002c0: 6839 0d3e d892 1e3e 3ea4 04be 3474 be3e
000002d0: ae44 fc3d f2ec f83d 59ac e9be 8a93 94be
000002e0: 9f1e ce3d e8b2 b0be 8a1c 7c3e 9653 8ebe
000002f0: 567b 7cbe bf89 5a3e 5fbf 153e 4170 86be
00000300: c015 4cbe 7f2e abbe efbf 163e e692 613e
00000310: 8969 cfbe d085 a0be fc29 51be 0b4a 303e
00000320: 3916 ec3d 3076 713e ab58 a93e e54c e43d
00000330: 1c84 15be e3e4 abbe 0155 b23d 1d44 923e
00000340: 5e1f 5abe 4ca2 8e3e 2535 b0be c85f 25be
00000350: 2411 683e 290c 173e 4a7f 023e bc15 c0be
00000360: 1483 253e 5925 29be d75e 8dbe 4621 7dbe
00000370: 6dfd 5bbe 2e41 e13d d698 f4bd 6c5e 5abe
00000380: daf9 973e c4c5 c33e 4db8 0c3e 2a1b fc3d
00000390: dcee d53d 4a2e 083e 6a0f dbbe 3942 393e
000003a0: d404 84be 516e dd3d f511 d23d a8ed 4f3e
000003b0: 003d 9f3e 7cd8 41be 105c 2cbe e953 f43d
000003c0: f650 83be 9ace c73d 95e1 ef3d 69d7 293e
000003d0: eb8f 093e 05de 133e 20fa 123e eb08 ffbd
000003e0: 11fc e03d ac92 17be 3335 613e 03aa aa3e
000003f0: 3ef9 1cbe 2fbd 49be db37 ed3d b3c0 c83d
0.12839812 0.12611237 -0.18449685 -0.091771394 -0.73267615 0.123389624 0.1636774 -0.20149559
-0.10549391 0.09724787 0.19438952 -0.3752068 0.11791478 0.1654909 0.18654728 -0.1529542
-0.1619437 -0.13180362 0.21425036 -0.25449404 0.14555621 0.16837145 -0.17336051 0.2357913
-0.12484757 0.1242764 0.09504168 0.10777204 0.110607825 0.3555858 0.29191014 0.13822074
-0.55991167 0.22784144 0.120141186 -0.24703866 0.12836814 0.091036074 -0.28316554 0.28903863
0.11953026 0.19903442 -0.35223916 0.18511395 0.12636234 0.108531676 -0.25892583 0.10433393
0.090213574 0.26737335 0.12647048 -0.21119343 0.2765108 0.10101941 0.20121461 -0.16448946
0.11644916 0.34713578 0.2844464 0.105424106 -0.28711572 -0.43330714 -0.1778433 0.113291204
0.17138036 -0.21040191 0.123677984 -0.19687583 -0.14359824 -0.19655292 0.08743033 0.107287064
-0.14316949 -0.14065443 0.14470726 -0.21010064 -0.19705652 0.3114914 0.22743502 -0.2155401
-0.21284826 -0.14467257 -0.21065108 -0.12536627 0.17646605 0.1188424 0.117658034 -0.28628275
-0.23567393 -0.20353821 0.16512997 0.18634988 -0.20124531 0.14194365 0.13974623 -0.109198414
-0.20372806 0.15777661 0.19034469 0.18795146 0.37799963 -0.18126386 0.13934517 -0.45641866
0.1518831 0.113101974 -0.14378627 0.3921141 0.23081253 0.12576085 0.40815273 0.15660776
-0.58736634 -0.16912712 -0.14520611 -0.275282 -0.11339913 0.13966942 0.18220559 0.122248374
-0.11267873 -0.21423735 0.12759581 -0.19783975 0.12676674 0.19793126 0.36856762 0.0837461
-0.20255725 0.18381388 -0.15184896 -0.21349704 0.23809497 -0.27198413 -0.10141035 -0.17119363
-0.2438053 0.22964291 0.087613896 -0.32394388 0.12933315 -0.14548437 0.1479413 -0.1707424
0.42425779 -0.17472129 -0.18371886 -0.17255665 -0.1970142 -0.24619064 -0.26075697 -0.22949596
0.16029736 -0.1812867 0.45103574 0.1386424 -0.1244262 -0.35362577 -0.20502833 -0.2841563
-0.1556069 0.25056565 -0.13767003 -0.19385195 0.13348554 0.10433115 -0.13357416 0.37850922
-0.3039818 0.18423602 -0.14753112 0.15049297 -0.176589 0.11278282 0.28600413 0.20737098
0.1379143 0.15485704 -0.12953278 0.3719803 0.12317787 0.12154569 -0.45639303 -0.29018813
0.10064434 -0.34511495 0.24620262 -0.27798146 -0.24656424 0.21341608 0.14623784 -0.26257518
-0.19930172 -0.3343391 0.14721654 0.22028694 -0.40510204 -0.3135209 -0.20426172 0.17215745
0.11527676 0.23580241 0.3307546 0.11147479 -0.14601177 -0.33573064 0.087076195 0.2856759
-0.21301028 0.27858198 -0.34415546 -0.16149819 0.22662789 0.14750732 0.1274387 -0.37516582
0.16163284 -0.16518153 -0.2761142 -0.24719724 -0.21483393 0.1099876 -0.11943214 -0.21325082
0.2968281 0.3823682 0.1374218 0.12309869 0.104459494 0.13298908 -0.42785197 0.18091668
-0.25784934 0.10812057 0.10257331 0.20305502 0.31101227 -0.18930238 -0.16831994 0.11930067
-0.25647706 0.09756203 0.11712948 0.16586079 0.13433807 0.14440162 0.14353228 -0.12452873
0.10985578 -0.14802045 0.2199295 0.33332834 -0.15329453 -0.19701074 0.11582919 0.098023795
