checkpoint_actor.pth (torch_old, 161774 bytes, 14 tensors)

fc1.weight f4 [128, 33]
000000 41 25 2d 3d c6 76 5b bc e7 0e 6c 3d 0c 6c 5b 3e
       0.042271856 -0.013395017 0.0576314 0.21427935
000010 dc 39 9d 3d 2e 30 69 be 4c 1b 2a bd c8 db bb 3c
       0.076770514 -0.22772285 -0.04152994 0.022931948
000020 92 15 cb bc 6f 80 5c 3c 54 07 c5 bd 9c 85 1c 3d
       -0.024790559 0.013458355 -0.09620538 0.038213357
000030 55 62 14 3d 87 55 22 bc 58 97 97 3d ce 99 01 3c
       0.03622659 -0.009908087 0.074019134 0.007910205
000040 c7 00 c3 3c b7 6f 41 3e e4 ad d8 3e f8 01 81 be
       0.023804082 0.18890272 0.42320168 -0.25196815
000050 ef 1d 8e 3c 67 b6 25 3d 7a 43 88 bb 9f 10 5b bd
       0.017348258 0.040457156 -0.0041584345 -0.053482648
000060 fd 02 2e bb f0 51 1a bd 50 89 94 bd 9e 89 d0 3d
       -0.0026552074 -0.037675798 -0.07252753 0.101824984
000070 7b c1 0e bd ae 25 2e 3d 7c 54 4e bd 90 9c 88 bd
       -0.034852486 0.042516403 -0.05037354 -0.06670487
000080 45 5f e9 be c0 40 72 be 66 4e d9 3b 7f 63 e2 3d
       -0.45580497 -0.23657513 0.0066316603 0.110541336
000090 44 40 26 bc a6 62 40 bc 8c 6b f4 bc cf 52 87 bd
       -0.010147158 -0.01174227 -0.029836439 -0.06607591
0000a0 00 3f dc 3c 25 1d 5c bd d7 fb 49 be b5 09 e1 bc
       0.02688551 -0.053738732 -0.19724976 -0.027470449
0000b0 75 b0 11 bd 74 41 e3 3c 74 37 19 3e 4f a6 c2 3d
       -0.035568673 0.027741171 0.1496256 0.09504377
0000c0 92 c2 d1 bd 43 59 96 3d 04 4e 80 be 92 27 10 bd
       -0.102421895 0.07341244 -0.2505952 -0.035193987
0000d0 90 07 78 3d 67 2f d1 3d 65 c0 0a 3d e4 28 57 bc
       0.060554087 0.102141194 0.033874888 -0.013132308
0000e0 84 34 84 3c 28 5d 4d bc e5 7d 4f bc 7c 9b 3f bd
       0.016138323 -0.012534417 -0.012664293 -0.04677914
0000f0 ee 02 e9 bc 00 00 e0 bc ca d4 48 3d dc 13 30 3d
       -0.02844378 -0.02734375 0.049031056 0.04298769
000100 0f 08 5c bd 1c 99 91 3e 54 f6 04 3c 99 46 7c bd
       -0.053718623 0.28437126 0.00811537 -0.061590765
000110 1d d1 fa 3d b0 3b f6 3e ee 82 12 3e 1e 61 bf be
       0.122469164 0.48092413 0.14307758 -0.37378782
000120 30 8a d9 bc 17 f9 93 3d f6 a0 99 3d d5 6f 42 bc
       -0.02655515 0.072252445 0.07501404 -0.011867483
000130 d9 59 5d bd 28 f2 cb bd 4b 48 7a 3c 84 06 e4 bc
       -0.054040764 -0.09958297 0.015276025 -0.027835138
000140 71 4b 8b bc 81 19 0a be 66 c2 c6 3e 97 e5 b2 3d
       -0.017003747 -0.13486291 0.3882019 0.08735197
000150 4d e1 97 bd 8d 43 9a 3d a5 d3 8e 3c 4c 5e 9d bd
       -0.074160196 0.075324155 0.017434904 -0.07684001
000160 8a 0d de 3c ba 0f 2f bd 7f 48 1a bd 0d 51 53 bd
       0.027106065 -0.042739607 -0.037666794 -0.051590968
000170 1d 24 a9 3d 6c 34 12 3e 7e 20 df 3c e8 ea 46 bc
       0.08258841 0.1427781 0.027237173 -0.012140967
000180 ec 55 f0 bd 6a bd 18 3d 1c 9c 8f be 73 3f 39 3e
       -0.11735138 0.037290014 -0.2804879 0.1809061
000190 36 8a 9c 3d 0b a8 03 be ec 33 1d be 24 14 a9 3d
       0.07643549 -0.12857072 -0.15351838 0.08255795
0001a0 ba 8f e7 3d 2a 54 70 be a2 dd 09 be ca 7f a1 b9
       0.113067105 -0.23469606 -0.13463452 -0.00030803523
0001b0 7c 17 c0 bc 0e 9b 53 bd 64 bb eb 3c f6 e7 dc bc
       -0.023448698 -0.051661544 0.028775878 -0.026966076
0001c0 6b 73 e7 bd 77 57 4c bd 16 25 9a 3c ab c2 84 be
       -0.11301311 -0.0498881 0.018816512 -0.2592977
0001d0 ec d3 fa bd e3 7f f5 3d fd cf 60 bd e6 be 60 bd
       -0.12247452 0.11987283 -0.054885853 -0.054869555
0001e0 6e 29 a6 bd ce 11 e4 3b b3 00 22 bb cb 20 39 bd
       -0.08113371 0.0069601303 -0.0024719655 -0.04519729
0001f0 5f 0e c8 bd 60 d6 15 3e fd 96 7c bd cd da 2e 3d
       -0.09768366 0.14632559 -0.06166743 0.042689133
000200 24 8f 95 bd 7d 78 93 3c b8 72 5f bc e0 1b 78 3d
       -0.073026925 0.01800179 -0.013638191 0.06057346
000210 46 32 13 3d 19 f1 1c bd 8c b3 69 3e b4 e3 61 bd
       0.035936616 -0.038315866 0.22822398 -0.055148795
000220 aa 51 59 be e4 84 1b be 63 f3 1f 3b b1 23 b4 bc
       -0.21222559 -0.15187413 0.0024406544 -0.021989675
000230 98 c9 14 3e 24 74 a6 bd c2 c9 00 3d e2 e4 17 bd
       0.14530027 -0.08127621 0.03144241 -0.037083514
000240 f5 4e 01 3d 30 07 d2 3d 99 e4 36 bd 83 0b 2b be
       0.03156944 0.10255277 -0.0446516 -0.1670361
000250 77 5c 72 be fe f4 06 3e cd 47 28 be 82 2e b3 bd
       -0.23668085 0.13179395 -0.1643364 -0.08749105
000260 7b ed db bc c9 c4 f7 3d b5 9d 58 bd 16 e9 80 3d
       -0.026846638 0.12098081 -0.052884776 0.062944576
000270 ce 5c 8f bc 9d 97 6c bd 12 d8 99 bd 13 70 c5 bd
       -0.017500307 -0.057761777 -0.07511915 -0.09640517
000280 ff 57 f5 3b 53 c9 94 3d f1 79 b0 bc 24 e0 1a bd
       0.0074872966 0.07264962 -0.021542521 -0.037811413
000290 79 fa ad 3e 43 9a 83 bd ae ac 03 bd ad 3d 5c 3d
       0.33980158 -0.064259075 -0.032147102 0.053769756
0002a0 ed 6d ae bd 47 a2 14 be f5 ab 58 be c8 1e 83 bd
       -0.085170604 -0.14515029 -0.21159346 -0.064023554
0002b0 1b a5 a6 bd 52 f1 19 3e 8b b4 2f be bd a2 62 3d
       -0.0813696 0.15033463 -0.17158715 0.05533098
0002c0 9e 7e dd bc 9b f2 21 3d 95 cb 8e bd 8a 0a 5d 3e
       -0.027037915 0.039538007 -0.06972424 0.21586052
0002d0 67 9b a2 3d c2 4a 7b bd fe 4b ad 3c 2c c5 6b 3d
       0.07939797 -0.06135059 0.0211544 0.057561085
0002e0 ae 99 b0 bd 53 d1 f4 3d 05 e8 b5 bc a9 9f a8 3d
       -0.08623062 0.11953988 -0.022205362 0.08233578
0002f0 54 fd 12 bb d2 44 ce bc a9 ba 8f bc 0a 07 2c be
       -0.0022428827 -0.0251793 -0.017545061 -0.1679956
000300 95 49 ac 3d a5 cb 1d bc f4 db 99 bc e2 15 ca bd
       0.08412472 -0.009631072 -0.01878164 -0.09867455
000310 9c bf cd 3c b1 b2 cb bd 7b 01 37 bc 7f f4 1e bd
       0.02511578 -0.09946192 -0.011169787 -0.03880739
000320 0a c5 3d 3d 81 bb 84 bd b2 53 47 bd c7 59 d4 3d
       0.04633049 -0.06481076 -0.048663802 0.10368686
000330 df 4a cc bd fb c0 08 bd 66 99 c3 bc 41 72 0d be
       -0.09975218 -0.033387166 -0.023876857 -0.13813116
000340 8e b1 e8 3c 88 9c 42 3c a1 93 a4 b8 79 90 01 bc
       0.028404977 0.01187814 -7.8476274e-05 -0.00790798
000350 4d d0 7b 3c 62 92 f1 ba 10 ee 15 bd da 8f 36 3d
       0.015369487 -0.0018430466 -0.036603987 0.04457078
000360 16 27 90 be d4 23 d6 bd f1 78 f4 3c 13 55 98 bc
       -0.2815482 -0.104560524 0.029842826 -0.018595254
000370 8e 6c 00 bd 4b 96 99 bd 6c 01 7e bc 54 c6 6f bc
       -0.031353526 -0.07499369 -0.015503269 -0.014634687
000380 a5 b1 ba 3c 97 f8 b1 3d 2e a3 65 bc cf 32 80 bd
       0.022789786 0.08689993 -0.014015956 -0.06259691
000390 b0 ae 5a bd 28 43 e8 3c fc 5a 6f 3f d5 9a 3d 3e
       -0.05338925 0.028352335 0.93498206 0.18516095
0003a0 f5 90 9a 3c 8e c9 27 3e 76 1b 24 be c9 44 3a 3e
       0.018867949 0.16385481 -0.160261 0.18190302
0003b0 e3 66 8f 3e 7c 37 5c 3e 55 56 e2 3c a9 17 8d bd
       0.28008184 0.2150554 0.027629057 -0.068892784
0003c0 18 b3 b6 bb 4a 42 ea 3d dc da 98 3c 3a 4a 07 bc
       -0.005575549 0.11438425 0.018659048 -0.008257443
0003d0 79 ab f8 3d 1c 62 1f 3d 6b 55 57 3d e3 f4 6e 3e
       0.12142081 0.038911924 0.052571695 0.23335604
0003e0 26 e7 95 3d c2 05 8c be 7f 11 10 be 71 f0 1f bc
       0.07319479 -0.27348143 -0.14069174 -0.009761916
0003f0 20 09 95 3d 23 bc a5 bd 05 27 64 3d 62 62 a4 3c
       0.07277131 -0.08092525 0.055701274 0.020066444

fc1.bias f4 [128]
000000 0a 38 31 bd 49 44 0a 3e 8b 98 72 bc ff ed 03 3e
       -0.043266334 0.13502611 -0.014806877 0.12883757
000010 29 e1 84 bd d9 ef 4b 3c 07 ff 01 be aa b3 a1 bd
       -0.064882584 0.012447321 -0.12694941 -0.07895596
000020 c4 5f a0 3e b4 28 9f bc e3 41 b0 be ec c8 d7 3d
       0.31323063 -0.019428588 -0.34425268 0.1053637
000030 0f b3 e9 bd 60 c3 38 bd 31 9b 07 be 46 3d 25 be
       -0.11411106 -0.0451082 -0.13242795 -0.16136655
000040 74 eb 2d 3d 8f d9 17 bd 1b cb e1 bd 5a 89 fa 3d
       0.042460874 -0.037072714 -0.110250674 0.12233229
000050 a3 1b b6 bc 9a ec 06 3c c6 98 05 bd 97 04 89 bb
       -0.022229975 0.008235121 -0.0326164 -0.0041814554
000060 01 fc 2c bd 96 3f 58 bd 03 08 05 3e 9c f0 42 be
       -0.042232517 -0.052795015 0.12991337 -0.19037098
000070 a6 6f b0 be 1a 12 70 be b7 4f c2 bc c0 bb 3b be
       -0.3446018 -0.23444405 -0.023719652 -0.1833334
000080 13 13 3f 3e 02 e6 84 bd 33 18 81 3d 66 23 1b bd
       0.1865962 -0.06489183 0.06303444 -0.037875555
000090 47 87 78 be 20 e8 61 be 41 d2 e7 3d 96 27 a9 3d
       -0.24270354 -0.22061205 0.113193996 0.082595035
0000a0 2c 23 9e ba 5b 5b 32 3d 63 67 40 be 65 f2 b7 bd
       -0.0012064925 0.043544155 -0.18789439 -0.0898178
0000b0 2f ec 11 3e 73 4e 67 3d f6 27 e2 bd 7f a1 c5 3d
       0.14250253 0.0564713 -0.11042778 0.096499436
0000c0 e9 21 44 be 2d b3 51 bd db 86 93 be af 6b 61 be
       -0.1915356 -0.051196266 -0.28813824 -0.22013734
0000d0 29 e8 56 be 66 9d 85 bd eb 9a de 3d 53 0d b0 bc
       -0.20987 -0.06524162 0.10869392 -0.021490728
0000e0 c7 fa 1c be 8e 2a 16 bd b3 c5 00 be 7b fd 81 3d
       -0.15330039 -0.036661677 -0.12575416 0.06347176
0000f0 de d7 d0 3d 79 23 0c be 46 ff ba 3d da 2b 26 3a
       0.101974234 -0.13685407 0.09130721 0.0006338932
000100 39 0c 84 be 8f bf c3 bd a2 3b 12 3e d0 75 e2 bc
       -0.25790575 -0.09558021 0.1428056 -0.027644068
000110 f0 6b 82 3d 2c fe 15 bc ec 0d 9e bd 6e c6 b5 bb
       0.06368244 -0.009154838 -0.07717499 -0.0055473363
000120 83 12 8c be 7f d4 fe 3d 5e 22 08 3b 95 9c 14 3e
       -0.27357873 0.12442874 0.0020772438 0.14512856
000130 fc 1b 84 bb 56 cd 99 be dc fb 3a bd bd d7 35 be
       -0.0040316563 -0.3003947 -0.045650348 -0.17758079
000140 01 ff 1a bc 86 4f 4c bd 4a f3 8a 3c 7c 4a 25 be
       -0.009460212 -0.049880527 0.016961712 -0.16141695
000150 00 d4 f2 3d a3 a7 6d be 5f 19 22 3d 00 30 0d bd
       0.11856842 -0.2320848 0.039574977 -0.034469604
000160 fa 00 80 be 7f 82 5c bd 66 45 d1 3d e2 0a 9f bd
       -0.25000745 -0.05383539 0.10218315 -0.077657476
000170 89 4d ef bd 14 6e a0 bc 07 c1 c6 bd f2 ad 69 3d
       -0.116847105 -0.01958374 -0.09704786 0.057050653
000180 b4 5c 03 be df d5 2a bd 8e 25 97 3c 48 d7 ed bc
       -0.12828332 -0.04170787 0.018450525 -0.029033318
000190 ff 27 24 be 09 ec 1a 3d 0d 50 1c 3e 38 4f 81 be
       -0.16030882 0.037822757 0.15264912 -0.25255752
0001a0 db ab ea bc 0b 88 27 be 70 dc f4 bc 36 ae 5a 3d
       -0.0286464 -0.1636049 -0.029890269 0.053388797
0001b0 3b 97 1f be fc f0 04 3d 4a ca 68 3e 64 af ea 3c
       -0.15585034 0.032456383 0.22733417 0.028648086
0001c0 b1 10 e6 bd 34 52 a6 3d ec c5 21 bd 37 69 03 be
       -0.112336524 0.08121148 -0.039495394 -0.12833105
0001d0 bc 5b 8e 3d a0 41 e4 3c b4 54 b1 3d 66 26 b8 bd
       0.06951091 0.027863324 0.08658734 -0.08991699
0001e0 7e a9 40 be 5f 7e b2 bd d2 63 03 3e 09 92 2e be
       -0.18814656 -0.087155096 0.12831047 -0.17047895
0001f0 6a ed a4 3d 88 f3 6a 3d e2 04 60 3c c1 d9 a7 3d
       0.08053096 0.057361156 0.013673039 0.0819583

fc2.weight f4 [256, 128]
000000 41 a6 e4 3d 22 27 56 bd d8 27 e5 3c 19 21 53 3d
       0.11164523 -0.052283414 0.0279731 0.051545236
000010 dd f2 11 be 72 0c d7 3b b8 f3 bf 3d dd de 36 bd
       -0.14252801 0.006562763 0.093726575 -0.044646133
000020 14 1d 6b bd 82 9d 25 3c 23 ed 29 3d 2e 1a bd 3d
       -0.057400778 0.010108354 0.041485917 0.09233509
000030 6e f8 a5 3d 40 27 76 3d 9b 58 f4 3d 19 ed 5d 3d
       0.08104025 0.060096025 0.11930963 0.054181192
000040 c6 ce 90 3d ac ab 00 3b 89 d0 55 bd 0e bc 47 bd
       0.07070689 0.0019633574 -0.052200828 -0.048763327
000050 20 8b 04 3d 14 35 25 be 0f 37 18 3d 72 9f 04 bd
       0.032359242 -0.16133529 0.037161883 -0.03237862
000060 c3 fd b2 bc ca 07 45 3d db e6 96 bd e0 58 91 bd
       -0.021849519 0.04810313 -0.07368251 -0.0709703
000070 fb 50 27 be 5a 4e 99 3d 86 02 89 bd 5f 9c 1d 3d
       -0.16339485 0.074856475 -0.066899344 0.038479205
000080 27 10 bb bc 33 3e f5 3c d8 ca 33 be 2b c9 98 3c
       -0.02283485 0.029936885 -0.17557847 0.018650612
000090 36 1b e1 3d b3 c1 99 3c 29 c8 ae 3c 70 1d a3 3c
       0.10991518 0.01876912 0.021335678 0.019911498
0000a0 e1 51 d3 bd 18 96 65 bd 35 40 cf bb 3b d1 e8 3d
       -0.103183515 -0.056051344 -0.0063247927 0.113680325
0000b0 be 9d fb bd 70 4d eb bc 6d 47 e7 bd 9b 4b 68 3d
       -0.12285946 -0.028723449 -0.1129292 0.056712728
0000c0 07 2f 2f be 47 17 44 3d d4 f7 f5 bd d3 a5 2e 3d
       -0.17107783 0.04787376 -0.1201016 0.04263861
0000d0 ce 8b 18 bd 72 2b af bc bc 5d 1c 3e 25 4f 06 bd
       -0.037242703 -0.021383021 0.15270132 -0.03279032
0000e0 ee ac 15 be b5 8f 89 bc 96 7c 4c bd 72 b5 5b bc
       -0.14616749 -0.016792158 -0.049923502 -0.013409959
0000f0 4f f1 d5 bd 3f 80 de 3d c7 d0 1f bc 4b d5 9e bd
       -0.104464166 0.10864305 -0.009754366 -0.07755526
000100 4e ef 4e bd 8e d4 8a 3d 25 6a e9 bc 0e 9e 67 bd
       -0.050521187 0.06778823 -0.028492996 -0.056547217
000110 5f f4 81 bd d6 d3 46 bd 4f b9 94 bc af 1f 4f bd
       -0.06345438 -0.048541866 -0.018154768 -0.050567325
000120 c4 5c c5 3d 91 6a 72 bd 42 88 69 3c a8 4d e0 bd
       0.09636834 -0.05918366 0.014253678 -0.10952312
000130 6b f8 35 bd fe 83 91 be f8 d1 15 bd 24 dd 3e bc
       -0.044426363 -0.28421015 -0.036577195 -0.011649404
000140 a8 6d c5 bb 01 ed 5f bd 9f 20 13 be 11 9f 1c 3e
       -0.006025035 -0.054669384 -0.14367913 0.15295054
000150 45 9c 04 bc 3e b9 47 3e ec 61 82 3e b7 0b bf bc
       -0.008093898 0.19504258 0.25465333 -0.023321016
000160 51 13 6f bd ec cf 9b bd 14 8c da bd 2b 15 ec 3d
       -0.05836803 -0.07608017 -0.10671249 0.11527475
000170 80 64 b6 3d ea 3d 75 be 15 ab 44 3b 70 bc 54 bc
       0.089058876 -0.239494 0.00300092 -0.01298438
000180 0c 56 c4 bb d4 fd 00 3d ba f5 40 bd 92 3a 3a bc
       -0.005991703 0.03149207 -0.047109343 -0.011366503
000190 6e 68 0d be db 3a 82 3d ff 41 72 39 de 88 6c bd
       -0.13809368 0.06358882 0.00023103504 -0.057747714
0001a0 ff 79 a3 3d 01 fa c0 3d 84 f6 78 be 22 2f 6e bd
       0.07982253 0.094226845 -0.24312788 -0.058150418
0001b0 a2 02 a4 3c cd 3d 69 bc 2b a2 a5 bd e0 44 0d 3b
       0.020020787 -0.014235926 -0.08087572 0.0021555945
0001c0 41 94 35 bd 0f 7c db bc 77 e3 2f 3e 8d ba 3a bc
       -0.04433084 -0.026792554 0.17176615 -0.011397016
0001d0 91 be 7b 3d 2c ae 4b bc c4 91 87 bd 47 be 0d be
       0.061461035 -0.0124316625 -0.066195995 -0.13842116
0001e0 0d 17 32 3d fd 72 fd bd 03 89 6e 3d 10 b5 1e 3d
       0.043479014 -0.12375448 0.058236133 0.038746893
0001f0 f8 25 9b 3b 87 8a 71 3d 1c 8e 15 bd df e5 0c 3e
       0.004734751 0.05897 -0.03651248 0.13759564
000200 07 d1 3a be 31 47 69 3c fc 9a a5 3d 6e d6 4f bd
       -0.182438 0.014238165 0.080862015 -0.050741605
000210 79 77 29 be ee 2c 26 bd 59 94 28 be 30 d8 b0 3d
       -0.16549481 -0.040570192 -0.1646284 0.086349845
000220 a0 0e 5b 3d 2c ab 07 3c 3b 07 a0 3d 63 06 94 3c
       0.053480744 0.008280557 0.07813879 0.018069452
000230 99 a7 34 bd a0 a3 47 be a6 61 90 bd b2 84 17 3d
       -0.044105146 -0.19496012 -0.07049875 0.036991782
000240 a2 d0 a6 bd ef 99 4e 3d a1 c7 09 3d fa 3d 4d 3c
       -0.08145262 0.05043977 0.033637647 0.012526983
000250 27 c3 f8 3d 70 dd fa 3b 65 4a af bd fd 8e 8f 3d
       0.12146597 0.007655792 -0.085591115 0.07009695
000260 f4 e7 41 be 93 79 ec 3d 22 77 6f bd 38 28 13 be
       -0.1893614 0.11546626 -0.058463223 -0.14370811
000270 63 79 c1 bd 65 c9 42 bc 26 31 69 3d a0 1a bf 3d
       -0.09446981 -0.0118888365 0.056931637 0.0933125
000280 f1 03 31 bd b9 86 fa 3c 1b af 95 3d 6b 4e 2c 3b
       -0.04321665 0.030581819 0.07308789 0.0026291858
000290 92 89 3e bd a1 e9 53 3d bd 2a 50 bd bf e3 05 be
       -0.046517916 0.051736478 -0.05082201 -0.1307516
0002a0 f5 21 65 3d f0 bd bd 3d 6d dd 73 3d de 72 f5 3c
       0.055940587 0.09264743 0.05953734 0.029962
0002b0 52 3c 15 bd 3e 72 ae 3d e3 35 b8 bd ef 76 64 3d
       -0.03643448 0.08517884 -0.08994653 0.055777486
0002c0 bd 06 9d 3b 01 46 d1 3d 8f dd e3 bd e3 18 de bd
       0.004792063 0.1021843 -0.11126243 -0.108445905
0002d0 0d ad b2 3d 28 b7 c2 3d 62 d8 ae bd c2 16 dd bd
       0.08724413 0.095075905 -0.085373655 -0.10795356
0002e0 3c de 69 be c8 04 6e 3d cd 75 76 3d 66 ea b1 3c
       -0.22838682 0.05811003 0.060170937 0.021718215
0002f0 f0 21 a6 bd fc 5c 08 be e7 84 15 3e ab 25 99 bd
       -0.08111942 -0.1331672 0.1460148 -0.07477888
000300 61 f6 7a 3d 5f a5 17 3e c4 5c 67 3e 59 12 f8 3c
       0.06127012 0.14809178 0.22593981 0.030282186
000310 a5 d2 de 3d 08 79 4a bd 0f 5a 8b 3d 90 56 5d bd
       0.10880021 -0.04943183 0.06804287 -0.05403763
000320 71 e1 13 be d5 0d 4b 3c d3 60 84 bd 3c e5 81 bd
       -0.14441468 0.0123934345 -0.0646378 -0.06342551
000330 fb 44 67 bd 1c 85 2b 3d 41 7e 61 3d 56 55 04 be
       -0.05646227 0.04187499 0.055052046 -0.12923178
000340 ec 73 3b 3d 66 52 df 3d 9e d5 e4 bd 28 18 73 bd
       0.04576485 0.10904388 -0.11173557 -0.05934921
000350 8c a4 93 bd 40 f3 af be ed 77 10 3d 3e 85 59 be
       -0.07209119 -0.34365273 0.03527062 -0.21242234
000360 65 e0 2f bd 7c 49 f3 bc eb b7 0b bc a5 f0 73 bd
       -0.04293861 -0.029698126 -0.008527736 -0.05955567
000370 44 1f 11 3d 65 b0 c9 3c 0d a1 11 3c 43 35 e2 3c
       0.035430208 0.024620244 0.008888495 0.027613288
000380 59 65 19 be 88 c9 fb bc ef 20 e0 bd 84 53 ee bd
       -0.14980067 -0.030735746 -0.109437816 -0.11637023
000390 af 81 0f 3b 7f da ef 3c 52 8b 0a 3d ff 12 b4 3d
       0.0021897366 0.029278992 0.033824272 0.08792686
0003a0 21 82 0a be 24 de ef bd e8 28 de 3d 0e 10 ea 3d
       -0.13526203 -0.11712292 0.10847646 0.114288434
0003b0 c0 6f 38 bb 7d 3d c6 bb f0 d0 e1 bd 59 e5 b7 3d
       -0.002814278 -0.0060498104 -0.1102618 0.089792915
0003c0 8f 1b 82 3d 32 70 f7 bd 13 12 8c bb c7 86 9d bd
       0.06352913 -0.120819464 -0.0042746156 -0.07691722
0003d0 44 7f 96 3d 56 db 11 3b cb 92 3b be c0 2b da 3d
       0.07348493 0.0022255979 -0.18317716 0.10652876
0003e0 c8 b8 3c bd c7 22 63 be 80 3f 24 bd c7 c6 34 3d
       -0.04607466 -0.22181235 -0.04009962 0.04413488
0003f0 b2 21 52 3d df f7 a8 3c ab 20 a2 3c 25 50 39 3c
       0.051301666 0.020626007 0.019790968 0.011310612

fc2.bias f4 [256]
000000 c4 f5 b6 bd c4 ff 41 be e6 48 96 bd 4a eb e2 bd
       -0.08933595 -0.18945223 -0.07338123 -0.11080034
000010 59 92 28 be dc d5 16 be d4 01 7a bd e8 7b 94 bd
       -0.16462077 -0.14730018 -0.0610369 -0.07250196
000020 13 37 6b bd 50 4f 44 bd a5 bf 1a bd 03 68 50 be
       -0.05742557 -0.0479272 -0.037780423 -0.20352177
000030 40 dd a3 bd 59 b5 30 be d5 17 b2 bd e6 43 9b bd
       -0.080011845 -0.17256679 -0.08695952 -0.0758131
000040 d8 db c0 bd 33 9c 2c bd 06 78 f2 bd b3 1a 17 be
       -0.09416932 -0.04214115 -0.11839299 -0.14756279
000050 44 9c 20 be 72 93 84 be 5d 63 97 bd 03 e7 07 be
       -0.1568461 -0.25893742 -0.07391999 -0.13271718
000060 77 43 f1 bd aa a4 a5 bc ad 6f ef bd 02 8b 1e be
       -0.11780446 -0.02022012 -0.11691222 -0.15482715
000070 e4 7e 33 be 2e 36 25 be 29 2e fe bd 85 37 22 be
       -0.17528874 -0.16133949 -0.12411148 -0.15841492
000080 71 94 0f be 4c 1c 3a bd 43 82 6b 3c c7 36 61 be
       -0.1402147 -0.045437142 0.0143743185 -0.21993552
000090 46 7e 59 be d6 f9 38 be f9 d8 cc bd 86 3d 41 be
       -0.21239576 -0.18064055 -0.10002322 -0.18871126
0000a0 1f 69 aa ba 39 38 18 be 45 b5 a3 bd 4b cc e8 bd
       -0.0013001299 -0.14865197 -0.07993559 -0.11367091
0000b0 33 1d fe bd 79 93 5e bd 96 d7 96 bd e7 6f da bd
       -0.12407913 -0.05433986 -0.073653385 -0.10665875
0000c0 23 68 55 be 01 05 1e be c8 4a c1 bd 41 ee 04 be
       -0.20840506 -0.15431596 -0.094380915 -0.12981512
0000d0 32 ca 2a be 1d 83 30 bd 70 79 63 be 39 c2 ab bd
       -0.16678694 -0.04309379 -0.22214293 -0.083866544
0000e0 7f 67 cd bd 15 0f 0b be c9 17 6b 3d a4 93 20 be
       -0.10029506 -0.13579972 0.05739573 -0.1568132
0000f0 96 6b 14 be 36 78 30 be 09 70 06 be ca 88 3f be
       -0.14494166 -0.17233357 -0.13128676 -0.18704525
000100 9b 90 a0 bd ea 1e 95 3d bb 91 eb bb 0d 14 ca bd
       -0.07840081 0.07281287 -0.0071890033 -0.09867106
000110 7a 3b 46 be bf bf 5d 3d 81 72 a9 bd 24 9b fe 3c
       -0.19358626 0.05413794 -0.08273793 0.031079836
000120 c1 54 1f 3d a4 ae ac bc 95 76 24 be 3e 73 1e be
       0.038899187 -0.021079369 -0.1606086 -0.15473649
000130 f1 8c e8 bd 2d c6 70 be c5 b3 90 bc 8a 1b 40 be
       -0.113550074 -0.23513098 -0.017663846 -0.18760505
000140 74 56 f1 bd ca 56 d7 bd e5 e3 6b be ec 47 3d be
       -0.11784068 -0.105146006 -0.23036154 -0.18484467
000150 e9 00 84 bc 5d f7 1c bd 80 07 be bd b6 a0 52 be
       -0.016113715 -0.03832184 -0.09278774 -0.20569119
000160 ae 12 14 3d 34 2d dc bd a4 8a 2b be 6f 36 ae bd
       0.036150627 -0.10750809 -0.16752106 -0.08506476
000170 81 7e 5d be 20 4f 2f be 2e 99 7d be 19 18 8a bc
       -0.21630289 -0.17120028 -0.24765465 -0.016857194
000180 17 4f 39 be f5 af 2f be e4 d0 04 be 8c 30 ab bd
       -0.18096577 -0.17156966 -0.1297031 -0.08358869
000190 b6 92 91 be 07 e0 d7 bd 10 d2 f7 bc 36 e8 28 be
       -0.28432244 -0.10540777 -0.030251533 -0.16494831
0001a0 99 03 05 bb bd 0d de bd 55 36 aa bd 16 de 71 bd
       -0.0020296334 -0.10842464 -0.08311144 -0.05904969
0001b0 e9 91 54 be 8b e9 2f be fa 3c 80 bd 77 3f c9 bd
       -0.20758785 -0.17178933 -0.0626163 -0.09826558
0001c0 ff c7 86 bd d6 50 ee bd 4d e5 d3 bd 0a bb 15 be
       -0.06581115 -0.11636512 -0.1034647 -0.14622131
0001d0 d5 b8 eb bd cf 73 1c bd ec 41 46 be c3 0e d8 bd
       -0.11509863 -0.03819638 -0.19361085 -0.105496906
0001e0 37 ab 10 be f5 15 bc bd c3 dd 6d be 13 56 c9 bd
       -0.14127813 -0.091838755 -0.23229127 -0.098308705
0001f0 47 82 d3 bd fe 19 06 be fa 94 2f be 72 4e 59 be
       -0.10327583 -0.13095853 -0.17146674 -0.21221331
000200 a5 48 4f 3c 93 a8 5b be 16 8d ae bd 39 b2 89 bd
       0.012651597 -0.21451025 -0.08523004 -0.067234464
000210 d8 f0 87 be 34 18 08 be 29 b6 37 bd 75 d6 a2 bd
       -0.26550937 -0.13290483 -0.044851456 -0.07951061
000220 2c 65 b3 bd a1 a0 08 bd c4 d4 16 be 7d 42 b0 bd
       -0.087595314 -0.033356313 -0.14729601 -0.08606432
000230 39 e0 45 be 87 34 e6 bd d1 1e 81 bd d2 1d b6 bd
       -0.19323815 -0.112404875 -0.06304706 -0.088924065
000240 28 1d d8 bd 35 0c 0c be e8 cd 12 be 44 de 2f be
       -0.10552436 -0.13676532 -0.1433636 -0.17174631
000250 2f e0 21 be ac 6d 39 be 97 fe 3e be 3f 91 25 be
       -0.15808176 -0.18108243 -0.18651806 -0.16168688
000260 f2 95 24 be 8f bd 1e be 2b 68 2c bd 20 ce 4c be
       -0.16072825 -0.15501998 -0.04209153 -0.20000505
000270 ec c7 49 be 62 c2 1d be db 51 94 bd 74 76 0d bd
       -0.1970517 -0.15406182 -0.07242175 -0.034536794
000280 80 57 12 be d2 43 30 be 0d d0 15 be 04 0f 3e bd
       -0.14291191 -0.17213371 -0.14630146 -0.04640104
000290 7f 94 a1 bd d8 a9 0d be 69 af c9 bd 0e 99 74 be
       -0.078896515 -0.13834321 -0.0984791 -0.2388651
0002a0 55 9c 23 bd 95 f0 e9 3a b5 01 79 bc 70 12 70 bd
       -0.03994401 0.0017848188 -0.015198161 -0.058611333
0002b0 6a b8 6f be 1c 8f ef bd 9b 1d a4 bc b8 77 c6 bd
       -0.23410192 -0.11697218 -0.020033648 -0.09690803
0002c0 d4 09 97 bd 15 fa da bd aa 6f 98 bd 8d 9e 06 be
       -0.073749214 -0.106922306 -0.07443173 -0.1314642
0002d0 b8 30 2f bd fe 82 43 bd 71 ea 40 be 7d 12 fe bd
       -0.04277107 -0.047732346 -0.18839432 -0.1240587
0002e0 31 11 af 3b cf ff 54 be 87 b6 2e bd 2e fe 51 be
       0.0053426255 -0.20800708 -0.04265454 -0.20507118
0002f0 b9 2a 77 bd 14 4b e3 bd aa b0 c8 bd 1d f4 1e be
       -0.060343478 -0.110983044 -0.09799321 -0.1552281
000300 71 6e 1c be ea 90 28 be 72 74 55 bd fb 69 24 3b
       -0.15276505 -0.1646153 -0.052113004 0.0025087583
000310 e7 a6 bc bd 3f 9e fc bc 23 cf 20 be da 54 69 bd
       -0.092115216 -0.030837176 -0.15704016 -0.056965686
000320 29 fd d0 bd 88 24 36 3d 4e ee 04 be fb 3e 07 be
       -0.102045365 0.044468433 -0.12981531 -0.13207619
000330 d4 ac 47 bd f2 08 28 be d9 de d0 bd db 07 02 bd
       -0.048748806 -0.16409662 -0.10198755 -0.031745773
000340 7f 6c 62 bc 59 4a 20 be 70 27 db bd e3 33 45 bb
       -0.013819813 -0.15653361 -0.107008815 -0.0030090741
000350 32 db fe bd f3 ff 09 be 27 68 b8 bd a7 06 cb bd
       -0.12444152 -0.13476543 -0.090042405 -0.09913378
000360 3f ca f2 bd 1c d6 73 bd ad 76 37 be e7 6a ca bd
       -0.11854982 -0.059530362 -0.17916365 -0.09883671
000370 ef f5 48 be 27 36 6d be ba a5 0f be 74 e0 08 be
       -0.19625066 -0.23165189 -0.14028063 -0.13366872
000380 24 43 c6 bc 1c 75 30 be ae 6c 69 be 0f 52 b5 bd
       -0.024201937 -0.17232174 -0.22795364 -0.08853542
000390 c9 29 1d be 26 86 98 bd 97 b5 36 be 5c 05 80 bd
       -0.15347971 -0.07447462 -0.17842709 -0.06251022
0003a0 f5 fd 19 be 80 9d b0 bc 2c de 37 be b3 97 58 bd
       -0.15038283 -0.021559477 -0.17955846 -0.052879047
0003b0 a2 e1 21 be 70 a8 11 be 2b 13 e7 bd df d0 83 3c
       -0.15808728 -0.1422441 -0.11282953 0.016090808
0003c0 dc 99 4f bc cb c5 0c be c7 ee 1d be 8a dd 61 be
       -0.01267096 -0.13747327 -0.15423118 -0.22057167
0003d0 7f 49 52 be 99 68 0e be c8 13 fa bc 8b 25 0c bd
       -0.20535849 -0.13907088 -0.03052701 -0.03421549
0003e0 6b 82 e2 bd 9d 35 c8 bd 80 a0 5e 3b c9 5e 15 be
       -0.110600315 -0.09775851 0.0033970177 -0.14586939
0003f0 59 05 0f bc 14 69 79 be ff f7 5f bd 0d 44 d6 bd
       -0.008729302 -0.2435649 -0.054679867 -0.104621984

fc3.weight f4 [4, 256]
000000 b1 0a 05 3f 8b c4 9c 3e d8 0c a5 bd 2c 2c f3 3e
       0.5196944 0.306187 -0.080590904 0.47494638
000010 35 b2 24 bf 2c 64 7e be e5 dd a0 be d6 a1 23 be
       -0.6433442 -0.248429 -0.31419292 -0.15979704
000020 20 56 a7 3c ca 4a d4 be 28 4b b4 bd 8c 3b 5a 3e
       0.02042681 -0.4146331 -0.088033974 0.21311778
000030 e9 08 ba be 1e 95 e6 3e ba 7c 88 be d2 80 a6 bd
       -0.36334923 0.45035642 -0.2665766 -0.08130039
000040 70 12 d3 be a1 ce bb bd 1c 75 0a 3e c7 89 37 be
       -0.41225004 -0.09170271 0.13521236 -0.17923652
000050 4a 2a 04 3f 45 0a d4 3d e4 7a 0c be d6 dd 3b 3e
       0.5162703 0.10353521 -0.13718754 0.18346342
000060 86 7c aa be a5 b6 3f 3d 05 44 ec 3d 12 b5 25 3e
       -0.3329813 0.046805043 0.11536411 0.16182354
000070 e8 5b c4 3e 0d 6f 0a 3e d1 36 94 3e 38 58 0d 3e
       0.3835137 0.13518925 0.28948072 0.13803184
000080 86 40 f6 bd 73 58 38 bc df e4 03 bd 39 b4 20 3f
       -0.120240256 -0.011251557 -0.03220069 0.62775
000090 f6 c4 01 bf e2 f9 72 be 3f 9a b9 be 27 50 52 3f
       -0.50691164 -0.23728135 -0.36250493 0.8215355
0000a0 f1 21 6a be 7a ea fb 3e 0c 95 5c be 7d 99 3b bf
       -0.2286451 0.4920233 -0.21541232 -0.7328108
0000b0 7c de 8e 3e 98 70 89 be 73 3d d6 3e ed 0f a7 3e
       0.27904117 -0.26843715 0.41843757 0.32629338
0000c0 15 cd ea 3e a7 9c 6f be bb bc c4 3e 0a 7f b8 bd
       0.4585959 -0.23399602 0.3842524 -0.09008606
0000d0 3e 4b 0a bd 57 da 27 3d eb f5 68 be 26 b1 5f bc
       -0.033763163 0.04097971 -0.2275006 -0.013653075
0000e0 ac 7c cf bd bb 59 0a 3f 9a d4 59 3e bf 62 f9 be
       -0.10131201 0.5404317 0.21272507 -0.4870815
0000f0 a9 29 8e 3e 19 a0 e7 3e 51 2c 11 be 1b a9 fd be
       0.2776616 0.45239332 -0.14177062 -0.4954308
000100 5c 69 af 3d 9d 83 13 3d 29 c4 f3 be d1 41 30 3f
       0.085650176 0.036014188 -0.47610596 0.6885043
000110 d1 d7 5d 3d 78 e0 1d be 93 ee 26 3f 7a b9 e8 be
       0.054160897 -0.1541766 0.65207785 -0.45454007
000120 c3 8e 37 be 3c 01 ea be 66 35 29 3e de 42 18 3f
       -0.17925553 -0.45704067 0.16524276 0.5947703
000130 47 55 7e be de 35 d0 be 18 55 db 3e 8a 96 69 3e
       -0.24837218 -0.40666097 0.4283836 0.22811332
000140 24 a5 5d bd fc f2 19 3e 0c 0f 6c 3f 25 43 f5 bd
       -0.05411257 0.15034097 0.9221046 -0.119756974
000150 53 d9 6a be 89 04 57 be 9c 0d 53 bd 4b 64 0c be
       -0.22934465 -0.20997824 -0.05152665 -0.13710134
000160 2c a6 2f bf 1a af 57 be 9b bd 23 3f 47 99 36 be
       -0.68612933 -0.2106289 0.6396119 -0.17831908
000170 0c 59 13 3f 59 78 fa be 99 7f e4 be 4d 2a ab be
       0.5755775 -0.48919943 -0.446286 -0.3343071
000180 54 29 65 be f6 ac d4 bd b6 30 ca be b8 60 b2 be
       -0.22379047 -0.10384552 -0.39490288 -0.34839416
000190 60 9f d4 bd 56 4f b9 be 3e fe 36 bf e4 9d 66 bd
       -0.10381961 -0.3619334 -0.7148169 -0.05630292
0001a0 f0 e0 93 be eb 2b 0e be 99 45 b4 be 23 8a 3b 3f
       -0.2888255 -0.13883941 -0.3520935 0.73257655
0001b0 65 da b5 3c 17 48 c0 3d f3 0c a7 3e 8e 8b fd be
       0.022198865 0.0938875 0.32627067 -0.49520534
0001c0 b4 be e0 39 48 ab ff 3d c3 a4 90 3e 1b 88 bb 3e
       0.00042866694 0.12483841 0.28250703 0.36627278
0001d0 cc 36 09 3e 74 a8 5c 3d cc 12 26 3e 44 83 b9 bd
       0.1339981 0.053871587 0.16218108 -0.0905824
0001e0 b2 fa da 3d 03 27 2c be 2e 34 e0 3e 72 c5 ad 3e
       0.106923476 -0.16811757 0.4378981 0.339397
0001f0 f0 f1 20 3f fa 5d d8 be 17 c8 4a 3f 00 4c 19 bf
       0.6286917 -0.42259198 0.7921156 -0.5988159
000200 fb 61 cd 3e 60 50 55 3e 37 76 d1 be 51 3c ba be
       0.40113816 0.20831442 -0.40910503 -0.36374143
000210 48 01 03 3f 0f b0 1a bd 1f 9d 4f 3e 04 78 07 bf
       0.5117383 -0.03776556 0.2027478 -0.52917504
000220 19 03 e2 3e 56 05 4c 3f 5f 02 46 bf 9e 3d 09 bf
       0.44142988 0.7969564 -0.7734737 -0.53609645
000230 2f 60 7d 3e 82 e0 1e bf 60 ec a4 3d 09 94 1b 3f
       0.24743722 -0.6206132 0.080528975 0.6077276
000240 b7 4e b1 3d 02 0a 62 be bf 89 27 3e 98 42 e9 bd
       0.08657592 -0.2207413 0.1636114 -0.11389655
000250 de 0f 5a 3d c7 c7 0a bf f1 c4 63 3c 90 13 1c bd
       0.05323779 -0.54211086 0.013901935 -0.038104594
000260 d4 4c 25 3f 79 b3 c8 be 14 d8 46 bd 98 55 80 be
       0.64570355 -0.39199427 -0.048545912 -0.25065303
000270 8b d8 18 be 35 a3 fb 3e c8 28 a0 3e d7 a5 5b be
       -0.14926355 0.49147955 0.31281114 -0.21449982
000280 bc f6 a1 3e 9a 94 8a 3c a2 cf 1b bf 34 0b 17 bf
       0.31633556 0.016916562 -0.608637 -0.5900147
000290 0d 9a d7 bd b0 c5 04 3d f9 9c e3 3e 57 2a 05 3d
       -0.1052743 0.032415092 0.44455698 0.03251108
0002a0 5e bb 24 3e ae dd 7d bc d9 e6 e1 be 66 bf e0 3d
       0.160871 -0.015494747 -0.44121435 0.10974006
0002b0 08 4b 8d bd 08 c6 e4 be 23 ab 18 bf c0 82 8b 3e
       -0.06899077 -0.44682336 -0.59636134 0.27248192
0002c0 f4 42 35 bf 07 48 02 bf 5a f9 06 3e 20 55 21 bd
       -0.7080529 -0.50891155 0.13181058 -0.039387822
0002d0 88 93 65 3e c5 ad 88 3e 96 cf e2 bd 4a 98 fa 3e
       0.2241956 0.26695076 -0.1107475 0.48944312
0002e0 1d e6 24 be 73 fd 33 be 43 a2 7a 3e 65 fc 70 3d
       -0.16103406 -0.17577152 0.2447596 0.058834452
0002f0 e2 ec 03 be 9b 8d a2 3e c2 92 5d be 6f 53 06 bf
       -0.12883332 0.3174866 -0.21638015 -0.5247106
000300 ca b4 fc be 76 1a d8 be bc 55 b6 3e 94 9c 05 3f
       -0.4935668 -0.42207688 0.35612285 0.52192044
000310 5c fe a3 be c9 a2 f9 be f8 40 78 3e 6b 21 26 be
       -0.32029998 -0.48757008 0.24243534 -0.16223685
000320 fd 3a 63 be db 81 17 bf 4b 02 93 3e 7f d3 a1 3c
       -0.22190471 -0.5918252 0.28712687 0.01975417
000330 cc da 28 be a5 6f 20 3e bf 24 d5 3d 3a 21 4d be
       -0.16489714 0.15667589 0.104073994 -0.20032206
000340 be 47 ba 3a f1 de 0f be 25 3f 25 3e e1 69 e5 3e
       0.0014212055 -0.14049889 0.16137369 0.44807342
000350 91 6c e7 3e ef 75 81 be 2e 18 77 3e 39 8c 9a be
       0.45200017 -0.2528529 0.24130318 -0.30185106
000360 79 17 67 be 90 43 20 bf 80 fc c9 3d c4 eb cb bd
       -0.22567548 -0.6260309 0.09862614 -0.09957078
000370 f3 e8 6b 3e 9a 18 2f 3f 94 59 83 3e 5c ff a0 3d
       0.23038082 0.68396914 0.2565428 0.07861206
000380 df 5f 2a 3e fe 2b c9 bd 10 18 93 be 9f f9 ac 3b
       0.16638134 -0.09822844 -0.28729296 0.0052787806
000390 3a 93 c2 3e ad d4 5f be 19 21 14 3f 79 45 8e 3e
       0.3800295 -0.21858473 0.57863003 0.27787378
0003a0 05 54 b6 bd e5 db 0c 3e 49 38 1c be 90 fb c0 be
       -0.08902744 0.13755758 -0.15255846 -0.37691927
0003b0 bd 21 4b be 47 04 1c 3f 57 ba 9c be 79 91 d6 be
       -0.19837089 0.60944027 -0.30610916 -0.41907862
0003c0 c9 be cb be 5d 8b 4e be fb 86 61 be bc f1 ee 3d
       -0.39793995 -0.2017035 -0.22024147 0.11667201
0003d0 a2 ce 5f 3e 4e 2a 23 3f f7 3c cd 3e 5e 7b 78 bd
       0.21856168 0.63736427 0.40085575 -0.060664527
0003e0 02 ba 71 be 08 8b 27 3f 71 ca db 3e 14 07 56 3e
       -0.23606113 0.6544652 0.42927888 0.20901138
0003f0 fa c6 15 be 07 73 98 bd 25 0a ad 3d 74 f2 d3 3c
       -0.14626685 -0.07443815 0.084492005 0.025872447

fc3.bias f4 [4]
000000 ba ba 30 3d 94 9a 9f 3b 95 38 33 3d ff 4e fc bc
       0.043146826 0.004870722 0.043755133 -0.030799387

bn1.weight f4 [128]
000000 77 ac 10 3f d1 f0 0d 3f 36 22 e9 3e 0b 6e 28 3f
       0.5651316 0.5544558 0.45533913 0.6579291
000010 38 2c 05 3f 36 ac dc 3e 60 36 2e 3f 27 98 f4 3e
       0.520206 0.43100137 0.6805172 0.47772333
000020 75 a1 52 3f 57 e1 41 3f 37 a6 2e 3f c3 94 23 3f
       0.82277614 0.75734466 0.68222374 0.6389887
000030 2d 58 0d 3f b0 61 ca 3e 49 21 09 3f 47 81 dd 3e
       0.5521267 0.39527655 0.53566414 0.43262693
000040 9d 63 f0 3e 6d a1 43 3f fc 42 1c 3f 79 af 41 3f
       0.46951 0.7641819 0.6103971 0.75658375
000050 8e 55 f5 3e 14 0a 24 3f ac 7a 1f 3f 3d 9b e2 3e
       0.47916836 0.6407788 0.6229656 0.44259062
000060 fe f5 e9 3e 1e 62 f7 3e 57 0e bc 3e 32 8b 1d 3f
       0.4569549 0.48317045 0.3672969 0.6154052
000070 8c 85 63 3e 42 47 34 3f 06 1e 28 3f ff 2c c9 3e
       0.22218913 0.7042123 0.6567081 0.39292142
000080 4b 35 21 3f bb bd eb 3e 42 74 ea 3e 0b 0d 1c 3f
       0.62971944 0.4604319 0.45791823 0.609574
000090 9a 18 0a 3f 67 96 ef 3e 64 ff 41 3f c9 5b cd 3e
       0.5394379 0.46794435 0.7578032 0.4010909
0000a0 b5 84 38 3f 59 e4 d6 3e 33 80 57 3f 2c 28 e6 3e
       0.72077495 0.4197109 0.8417999 0.44952524
0000b0 6c b3 21 3f 9b ab 25 3f 79 e4 2a 3f e0 ae 30 3f
       0.631644 0.64714974 0.6675487 0.6901684
0000c0 56 39 da 3e 38 dd ba 3e ae 49 cf 3e 75 ca 16 3f
       0.4262187 0.36496902 0.404859 0.58902675
0000d0 22 a5 2e 3f 37 9e 0a 3f 59 95 21 3f 4d aa 02 3f
       0.6822072 0.54147667 0.6311851 0.5104111
0000e0 e1 a8 d4 3e 01 88 28 3f ed 2f 35 3f f1 88 c8 3e
       0.41535094 0.65832525 0.70776254 0.39166978
0000f0 a7 c7 11 3f 05 8a ad 3e 4c 4d 22 3f d8 49 fb 3e
       0.5694527 0.33894363 0.63399196 0.49079776
000100 da e9 52 3f 8c 49 f0 3e 65 ce 2e 3f 26 27 a8 3e
       0.8238808 0.46931112 0.68283683 0.32842368
000110 d5 0d 9b 3e ad a4 2a 3f 26 af fd 3e 9d f2 ef 3e
       0.3028399 0.66657525 0.4954769 0.46864787
000120 85 6f c7 3e fb a7 db 3e 2c 50 1a 3f 38 8f 2f 3f
       0.3895227 0.42901596 0.6027858 0.6857791
000130 d4 aa e9 3e 67 2c 05 3f 09 51 1d 3f 48 99 cf 3e
       0.45638144 0.5202088 0.61451775 0.40546632
000140 08 94 2b 3f 3d fa d0 3e bd f1 01 3f ac b6 24 3f
       0.6702275 0.40815917 0.5075949 0.64341235
000150 4e 97 e6 3e 82 e3 c0 3e f7 11 0a 3f 5f 59 81 3e
       0.4503731 0.37673575 0.5393366 0.25263497
000160 b0 0e a1 3e ee ea 41 3f 7c 88 33 3f 40 ca db 3e
       0.31456518 0.757491 0.70130134 0.42927742
000170 04 26 d2 3e aa 9c 03 3f ce f5 0d 3f d7 08 31 3f
       0.4104463 0.51410925 0.55453193 0.69154114
000180 de f7 b8 3e 90 7b d2 3e 34 00 26 3f 33 c5 e6 3e
       0.36126608 0.41109896 0.6484406 0.45072326
000190 6c 88 7a 3e b4 a1 32 3f a5 33 27 3f 63 0b 4d 3f
       0.24466103 0.6977799 0.6531318 0.800955
0001a0 98 94 12 3f 91 0b 2a 3f f2 a1 c4 3e af 37 19 3f
       0.57257986 0.664239 0.38404804 0.5985059
0001b0 d0 49 29 3f 4b 6b 38 3f 13 ef 6c be 57 d9 36 3f
       0.66128254 0.72038716 -0.23138075 0.71425384
0001c0 3f 8e 50 3f 76 d3 2e 3f b2 d0 f2 3e e6 7d f8 3e
       0.8146705 0.68291414 0.47424847 0.48533553
0001d0 6d 1d 38 3f 2e 4e 21 3f 2c 50 17 3f c9 51 1b 3f
       0.719199 0.6300992 0.5910671 0.6067167
0001e0 74 1f d5 3e 24 38 df 3e 8f 61 1c 3f 64 93 cd 3e
       0.4162556 0.4359752 0.6108636 0.40151513
0001f0 25 a0 f8 3e 93 03 21 3f 2c 36 0b 3f 42 e5 48 3f
       0.4855968 0.6289608 0.54379535 0.7847482

bn1.bias f4 [128]
000000 99 e5 17 3e 33 1d d3 3d 26 12 87 3d 14 8a 77 3d
       0.14833678 0.10308304 0.065952584 0.060434416
000010 df 11 79 bd 3f c4 59 3e 96 f0 90 3e fd 46 0e 3e
       -0.06080806 0.21266268 0.28308553 0.13894267
000020 bd e7 98 3b 52 25 1f 3e 22 ff 38 3e e2 a0 24 3e
       0.004666297 0.1554158 0.18066075 0.16076997
000030 49 3b f6 3d c4 1c c7 3d 93 06 57 3d 29 06 d9 3d
       0.120230265 0.097222835 0.052496504 0.10596878
000040 db e5 b3 3d db 20 ef 3d ae bf e7 ba af 46 37 3c
       0.08784076 0.116761886 -0.0017681026 0.011186286
000050 ca 31 06 3e fe e1 9a 3d 59 2a 35 3e 2d 7b 80 3e
       0.1310493 0.07562636 0.17691936 0.25093976
000060 4d 54 7d 3e cb c4 27 3c 1e c0 db bd a6 9a 82 3d
       0.2473919 0.01023979 -0.10730003 0.06377153
000070 0d 4f 31 3f 29 15 8e 3e b1 df ae 3e 06 5d ad 3e
       0.69261247 0.2775052 0.34155038 0.33860034
000080 af d0 56 3e 8f e9 37 bd 99 e4 d0 3d a2 3f de 3d
       0.20978044 -0.044900473 0.101998515 0.10851981
000090 d6 b0 4a 3e 8f 1b 19 bd c8 d4 e7 3d 7e 85 0c 3e
       0.1979402 -0.037379798 0.11319882 0.13722798
0000a0 75 ee 7f bb 15 3e 63 3d e3 93 21 3e a8 c5 65 3e
       -0.0039052044 0.055479128 0.1577907 0.22438681
0000b0 38 10 af 3c 1b df 97 bc 17 e9 8c 3c 89 08 05 3e
       0.021370038 -0.018539002 0.01720099 0.12991537
0000c0 ec da 5a 3e b9 7c ee 3d 9d 3a 48 3e 31 a4 08 3d
       0.21372575 0.11644883 0.19553609 0.03335971
0000d0 34 79 0a 3e c4 f9 09 3e 2d 24 51 3d 55 f4 98 3e
       0.13522798 0.13474184 0.05105989 0.2987391
0000e0 e3 97 10 3e 16 8e 07 3e 95 3e 60 3c 29 c8 3e bd
       0.1412044 0.13237795 0.013686796 -0.046577606
0000f0 3f b9 81 3d 63 aa 0a bd f8 11 d1 3d c5 5b 50 3e
       0.06334161 -0.0338539 0.102085054 0.20347507
000100 80 ca e0 3d 31 e9 ea 3d 96 28 56 3e c2 62 97 3e
       0.10976124 0.11470259 0.2091392 0.29567534
000110 09 f5 35 be b1 c1 e6 3d 19 cb c5 3d 5c 62 1a 3e
       -0.17769255 0.112674125 0.096578784 0.15076584
000120 68 5d 2b 3e a2 10 87 3e 36 37 ab 3d af 7e 3b 3d
       0.1673485 0.26379877 0.0836014 0.04577511
000130 aa bc 22 3e b8 52 ba 3d 14 7d 19 3d 4e 58 df bc
       0.15892282 0.090978086 0.0374728 -0.027263787
000140 7c a2 04 3e 26 5a 79 3d 29 05 b0 3e ae 68 56 3e
       0.12952608 0.060876988 0.34378937 0.2093837
000150 85 61 2c 3e 55 34 25 3e 10 95 a0 3d 95 07 cf 3e
       0.16834076 0.16133244 0.078409314 0.40435472
000160 72 90 1b be 10 ef 60 3e ca d3 fc 3d 99 05 b1 3d
       -0.1519182 0.21966195 0.12345083 0.08643646
000170 62 7e ce bd c8 01 02 3e 00 53 a0 3c 72 49 8b 3e
       -0.10082699 0.12695992 0.019570827 0.27204472
000180 30 c8 4b 3e df eb 79 3c 34 06 aa 3d dd f2 81 3e
       0.19900584 0.01525399 0.083019644 0.25380602
000190 19 d6 08 3f 2c 5f d1 3d 2b e4 6e 3d 92 ad e7 3d
       0.5345169 0.10223231 0.058323067 0.11312403
0001a0 82 92 a2 3d 4f 0c 37 3e cc 5f ed bc 3b 2e ba 3d
       0.079381004 0.17875789 -0.028976344 0.09090849
0001b0 60 3d 13 3e b8 cc 56 3e 82 7d 00 3f cb 42 93 3d
       0.14378881 0.20976532 0.5019151 0.07190474
0001c0 75 d3 c5 3d cd be 80 bc 6a 39 03 3e 04 91 da bc
       0.09659473 -0.01571598 0.1281487 -0.026680477
0001d0 bf 21 03 3e a5 6e 0a 3e b5 f9 97 3e 09 23 33 3e
       0.12805842 0.1351877 0.296827 0.17493834
0001e0 51 73 92 3b e1 b8 63 3e b4 fe be 3d 1e 14 5e 3d
       0.004469313 0.22238494 0.093259245 0.054218404
0001f0 df 79 04 3e 10 93 ce 3d 23 4d 4c 3e e9 a5 60 3e
       0.12937115 0.10086644 0.199513 0.2193829

bn1.running_mean f4 [128]
000000 89 67 34 3e 63 6a 58 3e dd ca d1 3e 21 1c b9 3e
       0.1761762 0.21134333 0.40975085 0.36154273
000010 48 75 bb 3e f4 23 9e 3e 8d 9e f4 3d d2 1c 9d 3e
       0.36612916 0.30886805 0.11944304 0.3068605
000020 2f 02 17 3f 03 b0 6a 3e 0f 87 66 3e 53 62 1f 3f
       0.58987707 0.22918706 0.22512458 0.62259406
000030 f3 ee 8c 3e 68 7e 28 3e 24 01 c9 3d 1a 62 59 3e
       0.27526054 0.1645447 0.09814671 0.21228829
000040 fa c8 5e 3f 7e 69 05 3e 07 a1 6d 3e 0f 6d 0a 3f
       0.87025416 0.13028523 0.23205958 0.5407266
000050 af 3e 8b 3e 8b 6b c9 3d 7c 7d 33 3e 7a 8d 5b 3e
       0.2719626 0.09834965 0.17528337 0.21440688
000060 a1 61 70 3d 0b 11 61 3e ba de a4 3d df f6 27 3e
       0.058686856 0.21979158 0.08050294 0.16402768
000070 00 e6 42 3c 76 cc b0 3e 36 a5 96 3e b5 df 5d 3e
       0.011895657 0.3453099 0.2942292 0.21667369
000080 bb e6 b6 3e d5 f0 2f 3e 82 1d 90 3e 50 16 12 3e
       0.35722908 0.17181714 0.28147513 0.14266324
000090 aa 68 55 3e bf b2 a7 3e f1 24 ca 3e 1f ff 3a 3f
       0.20840707 0.3275356 0.3948131 0.73045534
0000a0 86 4c 0a 3f 37 6c b5 3e f2 b3 74 3e 74 fa 26 3e
       0.54023015 0.35434124 0.23896769 0.16306478
0000b0 a0 88 ac 3e 22 c7 77 3e e7 6c cd 3e 27 19 2f 3e
       0.33697987 0.24197057 0.40122148 0.17099439
0000c0 71 8a 8c 3e ca cb 0b 3e d7 01 09 3e f5 26 ee 3d
       0.27449372 0.13651958 0.13379608 0.11628524
0000d0 e1 7b 15 3e a5 a5 b3 3e 6f 3c 8e 3e c7 1c 02 3f
       0.14598037 0.35087314 0.27780482 0.5082516
0000e0 ce a5 1e 3d d3 2a a4 3e 72 5d 9d 3e 88 10 94 3e
       0.038732342 0.32063922 0.30735356 0.28918862
0000f0 d2 9e 86 3e 92 92 2e 3e 41 5a 2a 3e f7 dd 5b 3e
       0.26293045 0.170481 0.16635992 0.21471392
000100 c6 5f 03 3e 56 58 3a 3e 91 95 23 3e 86 23 ed 3d
       0.12829503 0.1819776 0.15975024 0.11579041
000110 f4 7b b4 3d 60 28 69 3e b6 c1 5f 3f 11 51 44 3e
       0.08812705 0.22769308 0.87404954 0.1917155
000120 74 af 88 3d fc f9 15 3e 51 8d b6 3e c6 88 32 3e
       0.0667409 0.14646143 0.3565469 0.17434987
000130 cf 5b 1d 3f 39 73 f3 3d bf 50 2e 3e 2a da 08 3e
       0.61468214 0.11887211 0.1702299 0.13364473
000140 8b 0e 08 3f 6c 83 92 3d 53 44 b8 3e 46 16 83 3e
       0.5314719 0.07153973 0.35989627 0.2560293
000150 89 40 ed 3d cf d6 31 3e 60 bf 09 3f ea 0c da 3d
       0.11584575 0.17367099 0.5380764 0.106469944
000160 f1 d4 c5 3d fa d8 cf 3e 4f 51 92 3e d9 56 51 3e
       0.09659756 0.40595227 0.2857766 0.20443286
000170 f3 e1 29 3e d9 30 86 3e 66 0f c0 3e 19 06 b4 3e
       0.16590099 0.26209143 0.37511748 0.35160902
000180 25 5e 7d 3e 81 7e d3 3d 87 92 d7 3d 45 74 47 3d
       0.24742945 0.10326863 0.10525995 0.048694868
000190 0e e6 0f 3e 8a 03 44 3e 45 1d 65 3e 1c e3 a7 3e
       0.14052603 0.19141975 0.22374447 0.32790458
0001a0 bf 76 3e 3e e0 37 a0 3e 22 7e 7e 3e 73 62 21 3e
       0.18599986 0.3129263 0.24852803 0.15760212
0001b0 77 bf 2a 3e b7 bf 41 3e f2 27 d8 3e b3 f5 97 3e
       0.166746 0.1892079 0.42217976 0.2967964
0001c0 1e 13 9b 3e d9 76 88 3e 41 1d c7 3e 6d b6 cb 3d
       0.30288023 0.26653174 0.38889506 0.09946904
0001d0 a3 8e a3 3e d7 9c d3 3d 9e b4 bf 3e b5 64 55 3e
       0.3194476 0.10332649 0.37442487 0.20839198
0001e0 24 3c 95 3e d1 3a 0d 3e 1b 74 04 3f c9 fa cd 3d
       0.29147446 0.13791968 0.5173966 0.10057599
0001f0 05 9b fd 3e 21 13 42 3e 26 45 92 3e 96 9a a8 3e
       0.49532333 0.1895261 0.2856838 0.3293044

bn1.running_var f4 [128]
000000 bf 8b c5 3d 7a 76 c6 3d 35 86 3f 3e 37 26 8d 3e
       0.09645795 0.09690566 0.1870354 0.27568218
000010 2d 49 26 3e bb c9 82 3e ef f8 73 3d 6e 0c 54 3e
       0.16238852 0.25544533 0.059563573 0.20707867
000020 f6 66 d1 3d 93 ca 3d 3e 56 e6 11 3e 44 2c e0 3d
       0.10224716 0.18534307 0.14248022 0.10945943
000030 04 76 2c 3e 8c 25 bb 3d 86 08 5a 3d f2 ac ea 3d
       0.16841894 0.09138021 0.053230785 0.11458768
000040 51 d6 46 3f 95 5a 04 3e 0d 3b 23 3e 04 bf ac 3e
       0.7767077 0.1292518 0.15940495 0.33739483
000050 14 7e 0a 3e 04 83 a0 3d c5 f1 11 3e 5b de c4 3d
       0.13524657 0.07837489 0.14252384 0.096127234
000060 80 f8 02 3d f0 a3 22 3e 3e 44 40 3d 4f 27 00 3e
       0.03197527 0.1588285 0.04694008 0.12514995
000070 51 c6 f9 3b fd 0b 81 3e ab 5c 70 3e e3 98 11 3e
       0.007622518 0.2520446 0.2347285 0.14218478
000080 aa 03 24 3e fd 8d c5 3d 2e 54 16 3e 7a f5 ca 3d
       0.16017023 0.09646223 0.1468055 0.09910102
000090 df aa 0e 3e 9e 66 3d 3e a0 81 2b 3e 44 69 ac 3e
       0.1393237 0.18496177 0.16748667 0.3367406
0000a0 7c 98 6c 3e 43 9e 55 3e 99 4b 17 3e f5 b8 ba 3d
       0.23105043 0.20861153 0.14774932 0.09117309
0000b0 35 ce 64 3e e8 12 13 3e 89 1b 7f 3e ee 7e af 3d
       0.22344287 0.14362681 0.24912848 0.08569132
0000c0 87 e5 0a 3e 6a 26 aa 3d 66 c7 ac 3d 94 21 cd 3d
       0.1356412 0.08308108 0.0843647 0.1001617
0000d0 31 07 c6 3d df 63 55 3e b3 9d 25 3e f4 29 54 3e
       0.096693404 0.20838879 0.16173439 0.20719129
0000e0 71 5d e9 3c 82 8d 7a 3e 67 00 1c 3e 6b 28 4a 3e
       0.02848694 0.24468043 0.15234528 0.1974198
0000f0 51 73 e0 3d ae 73 e8 3d 03 fe 92 3d c2 6d eb 3d
       0.10959495 0.11350189 0.07177355 0.11495544
000100 e0 5f 92 3d 2e a0 ad 3d e1 aa 06 3e c6 1c a7 3d
       0.07147193 0.084778175 0.13151123 0.08159785
000110 5a df 67 3d c2 95 15 3e 56 b8 01 3f 3d 4c ba 3d
       0.05660949 0.1460791 0.506719 0.090965725
000120 2c db 84 3d 8f 34 b5 3d 11 63 25 3e 8d f5 a9 3d
       0.06487116 0.088479154 0.16151072 0.08298788
000130 e6 f3 74 3e 6e 01 b2 3d 6c 89 c0 3d 3b 9c 9e 3d
       0.23921165 0.08691679 0.09401211 0.07744642
000140 fe 6b 2d 3e ec fa bd 3d 23 73 86 3e 64 b5 3b 3e
       0.16935727 0.09276375 0.26259717 0.18330914
000150 0e d8 05 3e bc 22 db 3d a7 5c 38 3e 11 83 8e 3d
       0.130707 0.106999844 0.18004094 0.06958593
000160 62 90 3a 3d eb ae a6 3e 0b f2 75 3e d3 4a 0b 3e
       0.04554785 0.32555327 0.24018113 0.13602762
000170 71 ca f7 3d 3e bb 1c 3e 0e a7 ce 3d d2 59 29 3e
       0.120991595 0.15305802 0.10090457 0.1653817
000180 df bb e4 3d 36 61 44 3d b0 88 3f 3d f4 c2 1d 3d
       0.11168646 0.04794427 0.046761215 0.038516
000190 bd 1c d0 3d 27 ea 21 3e 77 8e 16 3e 1a 40 48 3e
       0.101617314 0.15811978 0.14702784 0.19555703
0001a0 91 72 ec 3d d3 c5 a3 3e d0 0e 10 3e 35 da d7 3d
       0.11545289 0.31986865 0.1406815 0.105396666
0001b0 e1 e7 ea 3d 42 2b e7 3d 1f 49 8b 3e d9 9f 37 3e
       0.11470009 0.11287548 0.27204224 0.17932071
0001c0 83 a4 3c 3e 78 10 00 3e 58 41 55 3e 8b 94 da 3d
       0.18422131 0.12506282 0.20825708 0.106728636
0001d0 3f 5d 1a 3e 9f 0b 79 3d 2e 6b 4b 3e 8b 9a 00 3e
       0.15074633 0.0608021 0.19865105 0.12558953
0001e0 3d 8f f9 3d 89 32 06 3e aa 61 14 3e a3 05 8f 3d
       0.12185524 0.13105215 0.14490381 0.06983497
0001f0 c0 44 04 3e 5f 4e fe 3d 99 56 32 3e b5 41 15 3e
       0.12916851 0.12417292 0.17415847 0.14575846
