checkpoint_critic.pth (torch_old, 601126 bytes, 5 tensors)

fcs1.weight f4 [512, 33]
00000000: 84e6 453d dc7c 6b3e 10e5 fbbd b844 57be
00000010: 8eb0 8d3e 78de dbbe deb5 393e c211 023e
00000020: c650 ea3e f1b3 59be ae13 febd ccfd cd3d
00000030: 6212 6fbc 4542 103e f73e 03be 6474 10bd
00000040: 05be 3bbe 0f18 0f3e 347c b03e 6eaf 223e
00000050: 75fc 1bbe 62cd ddbd a2ad 75bd 3e5e 3c3d
00000060: f7d3 a73a 919e 993d 118b e0bd fb8d e83e
00000070: 15c2 97bd 5a7a a73c 3560 d4be c883 943c
00000080: 906f 34be e36c b53d 2688 693e 2619 b0bd
00000090: 9efe acbd c42b 38be 1e58 1c3e 6a2d 70be
000000a0: 549e 113d 84c1 f3bc 7465 0ebe 2412 1b3d
000000b0: 3fa6 0b3e 2962 08bd dee2 343e 8647 15bd
000000c0: 7908 873c 8a97 a73e 8feb 293d 4b8f 7dbe
000000d0: 22f3 24be b3fc 813d 0208 0a3d 7821 26bd
000000e0: 0ad7 213e 0f64 4c3d d975 81bd de45 00be
000000f0: baf6 2f3e 12e1 713d 4e29 7bbc a41c 34be
00000100: 06eb 01bd 7649 8dbf 373e b1bb 7f29 9f3d
00000110: 6410 1cbd 49cb 9abe 057b 8f3e 714f 4e3e
00000120: 33b5 10bf cd8c 30be 188f 3abe 60f2 8e3e
00000130: 24e5 c93b d6cb 5b3d b152 1c3e fdcb 173e
00000140: 664e 4d3e 883a 12bd 61eb 6dbd 3d72 6e3e
00000150: 4379 1d3e 67df b1be 00a7 b73d 318c b43d
00000160: d264 04be 95e2 453d 9e6c 943d 35b3 6a3e
00000170: b91f 85bd 23df a13e a56a 803d 7dfa f5bc
00000180: fdf7 99be 073a 063d 8c7e a73e 20f4 00bf
00000190: 7587 f33d 8565 313e b2c4 57be 1c9d ffbc
000001a0: 8223 c83d 8cce d03d f2c6 44bd af2f a53e
000001b0: 26fe 50bd 4069 debd 08a0 1d3c f132 813d
000001c0: af42 28bd e424 b8ba fc53 17be 32dc 20bc
000001d0: 8735 8e3e 7b1e 8cbd e66d 6f3e 0fb2 67bc
000001e0: 5894 a23c 2103 90bd db2f 08be 9ebf 3cbc
000001f0: 0822 983c cc35 873d a6e5 a83d 7e83 1d3e
00000200: 700d 153b c975 a5bd 3060 31bc b0a8 3e3e
00000210: c1bb d83d 5620 1b3e af26 93be f981 753e
00000220: 3903 bebd e457 4ebe ec1b 41bc a573 eebd
00000230: 2bae cc3e be4b 28bc 3df0 52bd 51c2 763e
00000240: 1711 0e3e 4d2f cebd da79 803d 145a a4bd
00000250: e264 97be dc7c 9f3c a6a4 e1be eab4 4abe
00000260: 2832 f3bd 5ca4 f0bc f7cf 043e 0664 b23d
00000270: ed27 cf3c 240e 293d 9bd4 b33c ae46 9b3e
00000280: eb62 0abd a859 05bc ec41 bcbe e09c e4bb
00000290: 999f cabd 417a a0bd 4dea 343e cbeb f33d
000002a0: 167b 1bbe 4e7f 5d3c 8fe0 96be d5cf 83bc
000002b0: db46 903e 46dc dfbe 2fe2 05bd e919 29be
000002c0: 86eb 1f3e f5ce af3c c137 d5bc 92cf 5b3c
000002d0: 9b3e 06be 38f6 36be bae4 26bf e826 2f3f
000002e0: 7bf0 14bf 885c c83d 51e1 8c3d 196a 8f3d
000002f0: 7c21 dfbc 2578 893d 5471 313d be94 263d
00000300: 373d 943d be40 003b 08a8 a03b 027c 8ebd
00000310: 9eda 59bc 909d 29be a75b 983e a127 b8bc
00000320: 3e5c 15bc ea84 0bbf 9238 e2bd 76b7 19be
00000330: 9a7e 73bd 2fbf abbd f255 3dbe ec79 7c3c
00000340: cb82 123e 3cf4 6dbb 3c5e 15bd 8c4e 74bd
00000350: 4e94 78bc 84e7 1bbc bcb3 ddbc 1173 08bd
00000360: dccf 9dbe 4a1a 00bf cd1b cc3d 735b b93c
00000370: a3ef 7abe 9968 0ebe 283e 873c a0c6 203c
00000380: 3457 f1bb dcfb 4b3e 0ec6 863d 6c55 7c3c
00000390: ebcb 38be e086 f33b 5cab 6abf 02bf a7bd
000003a0: fd1a 023e 6c8d be3d aac3 6f3d 7be0 b63e
000003b0: 6fc7 cfbe 4943 053e bf7b b7bd c15c 243d
000003c0: b934 90bd 3152 fdbc ebf1 a73d 31fa 10bd
000003d0: a155 143e 50a7 4dbd 465e 623e 8733 fd3e
000003e0: 7f5f 71be f956 ffbe 9447 e63d a5b0 adbc
000003f0: be84 c7bd 9e1d b7bd 51df c73d 48a5 893c
0.04831554 0.22996849 -0.122995496 -0.21022308 0.27673763 -0.42943168 0.18135783 0.12702087
0.4576475 -0.21260048 -0.12406097 0.100581735 -0.014591785 0.1408778 -0.12816988 -0.03526725
-0.18334205 0.13974021 0.3446976 0.15887234 -0.15233023 -0.10830189 -0.059980042 0.045988314
0.0012804259 0.07500947 -0.10964025 0.45420823 -0.07410065 0.020444084 -0.4147965 0.018129244
-0.17620683 0.08858659 0.22805843 -0.08598547 -0.08447002 -0.17985445 0.15267989 -0.23454824
0.035551384 -0.029755361 -0.13905889 0.037859097 0.13637637 -0.033296738 0.17664668 -0.036445163
0.016483532 0.32732803 0.04148441 -0.24761693 -0.16108373 0.06347027 0.033699043 -0.040559262
0.15804687 0.04990011 -0.06321306 -0.12526652 0.17183962 0.059052534 -0.015329672 -0.1758905
-0.031718276 -1.1038043 -0.005409028 0.077715866 -0.03810157 -0.3023322 0.28023544 0.20147492
-0.5652649 -0.17241211 -0.18218648 0.27919292 0.006161349 0.05366119 0.1526592 0.14823909
0.20049438 -0.03570035 -0.058085803 0.23285766 0.15378289 -0.34740755 0.089673996 0.08815802
-0.12929085 0.04831179 0.072472796 0.22919925 -0.06500191 0.31615552 0.06270341 -0.030026669
-0.30072013 0.032770183 0.32713735 -0.50372505 0.11891071 0.17323883 -0.21071127 -0.031202845
0.097723976 0.10195646 -0.04804129 0.32262942 -0.051023625 -0.108599186 0.009620674 0.063085444
-0.04107922 -0.001404908 -0.14778131 -0.009818124 0.27775213 -0.06841751 0.23381767 -0.014141574
0.019846126 -0.07031847 -0.13299505 -0.0115202945 0.018570915 0.06602058 0.08246927 0.15382192
0.0022743605 -0.08079106 -0.010826156 0.18619037 0.10582686 0.15149054 -0.2874045 0.23975362
-0.092779584 -0.20150715 -0.011786442 -0.11643151 0.3997663 -0.010271965 -0.05149864 0.24097563
0.13873707 -0.10067616 0.06273241 -0.080249935 -0.29569155 0.019468717 -0.4407093 -0.19795576
-0.11874801 -0.029375248 0.12969957 0.08710484 0.025287593 0.04127325 0.021951964 0.30327362
-0.03378574 -0.0081390515 -0.36769044 -0.006976709 -0.09893722 -0.07835818 0.17667504 0.11910208
-0.15183672 0.013519121 -0.294682 -0.016090313 0.28179058 -0.43722743 -0.03268641 -0.1651379
0.15617189 0.02146099 -0.026027562 0.013416188 -0.1310982 -0.17867362 -0.6519276 0.6841874
-0.58179444 0.09783274 0.06878913 0.070026584 -0.027237646 0.06712369 0.04332097 0.040669195
0.07238238 0.001956984 0.0049028434 -0.06957246 -0.013296751 -0.16564012 0.29757425 -0.022479834
-0.0091162305 -0.54499686 -0.11045946 -0.15011391 -0.05944691 -0.08386075 -0.18489817 0.015409928
0.14307706 -0.0036308905 -0.036466822 -0.05964522 -0.015172077 -0.009515647 -0.027063243 -0.03331286
-0.30822647 -0.50040114 0.0996624 0.022626614 -0.24505477 -0.13907088 0.01650913 0.009812981
-0.0073651318 0.19920295 0.06580745 0.015401226 -0.18046539 0.00743185 -0.91667724 -0.08190729
0.12705608 0.09304318 0.05853621 0.3571814 -0.40581843 0.13013949 -0.089591496 0.04012752
-0.07041306 -0.030922981 0.08200439 -0.03539485 0.1448579 -0.05020839 0.22106275 0.49453375
-0.23571585 -0.49871042 0.11244121 -0.021202395 -0.097421154 -0.08941196 0.09759391 0.016802445

fcs1.bias f4 [512]
00000000: 0401 02bf 6160 8fbe e0dc e9be eee4 cebd
00000010: 6b39 e1be 16f8 63be d795 01bd 4a50 04bf
00000020: ba02 99be 282b 073d 4305 20bd 32af 30be
00000030: cb30 46be 86c0 bfbe 8c6c 0e3b 45fd 76be
00000040: 92f7 17bf fdfa 00be 1839 20be a59a 3abd
00000050: 007f 92be 20b0 b8bd 4b29 fcbd d2f4 45be
00000060: 7e35 b3bd a454 71bd f599 8ebd d470 70be
00000070: 4a1a 91be b85e 37bd 100d e6bd 55cb 13bd
00000080: f4ed 10be 3fbb 0abe f57a 76be 4b05 ef3d
00000090: efbf 153d 30c9 50be e2c0 8b3c bdca 81be
000000a0: e182 24be e897 2dbe 81cb 83be ba40 93be
000000b0: 3020 eebe f330 c2be 2cfa 36be 45b4 26be
000000c0: 1fad fabc 2a3c bbbe 9694 543d 6108 cfbd
000000d0: 339e 4cbd d814 b9be fe86 abbe f7cb 97be
000000e0: 4fc0 9fbe f302 c7be ae71 23be 5d95 dcbe
000000f0: 2ce1 2fbe 6c5c 99be cbf2 b9be 1ec8 66be
00000100: 8efd 8a3d b263 d0bc b772 f4be 21a9 efbe
00000110: 7ccd 25be 501d 7bbe 243e 97be a055 4abe
00000120: e29e 95bd 2642 d93c d1a9 30be f65f fbbd
00000130: 2ac4 43be 375f c9bd 69db 98be 96f6 b1be
00000140: 6638 e23d 011d 7dbe 4bdd 7cbe d120 60be
00000150: 977c dc3c b137 8bbe 6ad8 dcbe c667 8cbe
00000160: 9831 a5be 0574 dabd e46e 8fbe 159a a3be
00000170: 70f6 22be 320f 60be 1f8f 6cbe c852 60be
00000180: ed8f ddbe 7e1e 7abe 1043 72be 0d71 52be
00000190: 087f 09be 7d28 c43b 1954 0abe 2a80 16bf
000001a0: 686e dfbe 40d1 a2be a4ba bbbd 56be 17be
000001b0: 5f03 6fbe c535 abbe de10 49be aff6 61be
000001c0: 2bdf 9cbd 3978 17be 072a d4be d783 99be
000001d0: 9613 b6be 7fc2 81be d390 72be 66af 97be
000001e0: 6912 b8be 806d 17be 1741 aabe 1241 bbbe
000001f0: 8ab3 abbe 44a1 253d a85e 2ebe fe54 0dbe
00000200: 77ac 6fbe 0bdc 043c e115 9bbe af7d d8bd
00000210: ab4d a6be 4173 83be 660e 383d 7a56 1dbc
00000220: 8497 4bbd 629b f8bd c106 60bd 4501 bdbe
00000230: 2754 05be e870 9cbe 8ce6 55be 3ec3 77be
00000240: 5d5c aabe fe76 b1be 4bc1 81be bee7 99be
00000250: 973e 58be a933 98be 9e0a 9fbe 94d4 9ebe
00000260: 40ee 93be 027d 56bc ad6f 93be c3b7 cbbd
00000270: efae 2ebe 97a5 a7be 0ac9 34be c68f 293d
00000280: f242 46be 69c7 01be 5073 6ebe 2177 b0bd
00000290: 5040 3abe 8e38 cbbe 8cc5 8bbe 233b 19be
000002a0: 219e a7be c5e9 83be 5430 dbbe aaae 8ebe
000002b0: 688e 57be b808 25be 488b 78be a457 67be
000002c0: 5516 90be 57af e4be 0f25 64bd 2cab b3be
000002d0: 6dfd 2bbe 6187 8bbd 7931 833d 1231 c5be
000002e0: d503 e3be e03b f83b 1464 afbe a037 aebe
000002f0: dd95 c8be 1d97 81bd d533 e4bc aec1 82be
00000300: fc77 a5be 41f2 e5bd f452 b0be 4581 94bd
00000310: 524b 25be d3d5 5b3d 1cc5 f8bb 2653 a3be
00000320: e93a 1cbe 4de0 5bbe 5645 9dbe 5d34 183d
00000330: a9a1 fdbd 51b7 983d 4016 b3be 7bc9 dcbe
00000340: 35be 66be 0b51 943d f14e a7be 5335 c7be
00000350: 36a2 aebe 093c b9be 1045 fcbe 161d bebe
00000360: 2460 34be 12d8 81be d1b4 0dbf b148 febd
00000370: 20ee 88be ab1e a63d 15da 94be 5e59 b33b
00000380: 62e3 ecbd ccdf 73be 07d7 cabe 01db 1ebe
00000390: 3f86 63be 6659 0abd 074e 19bf cc3e 44be
000003a0: 2848 ddbe bc38 c8bd d4d6 12bf cc4c 9fbd
000003b0: 04c8 e5be beff 87bd eb0c 81be 8f13 c0be
000003c0: 1561 99be cdb3 17bf ba9c 9bbd 09cb 61be
000003d0: 39a2 363c 5822 45be 5921 aabd 8f1e 87be
000003e0: 41b0 aebe 92f8 8ebd 0895 6ebe 7a60 78be
000003f0: b3c6 e9bd fa40 4abe 25d6 5cbe 748c d0be
-0.507828 -0.2800322 -0.45676327 -0.101022586 -0.4398912 -0.22262606 -0.03163704 -0.5168501
-0.29884893 0.03300014 -0.039067518 -0.17254332 -0.1935455 -0.3745157 0.002173218 -0.24120052
-0.5936214 -0.12595744 -0.1564678 -0.045557637 -0.28612518 -0.09017968 -0.123125635 -0.19331673
-0.08750437 -0.05891861 -0.06962959 -0.2348054 -0.2834037 -0.044768065 -0.1123296 -0.036082584
-0.14153272 -0.13547991 -0.24070342 0.116709314 0.036559995 -0.20389247 0.017059747 -0.2534999
-0.16065551 -0.16952479 -0.257412 -0.2876032 -0.46508932 -0.3792797 -0.1786887 -0.16279705
-0.030600129 -0.3656934 0.051899515 -0.1010902 -0.049955558 -0.36148715 -0.33501428 -0.296478
-0.31201407 -0.38869438 -0.15961334 -0.43082705 -0.1717574 -0.29953325 -0.3631805 -0.22537276
0.06786643 -0.025438163 -0.4774377 -0.46808723 -0.16191667 -0.245229 -0.29539597 -0.19759226
-0.07305695 0.0265208 -0.1725228 -0.122741625 -0.191178 -0.09832614 -0.29854897 -0.34758443
0.110459134 -0.24718095 -0.24693792 -0.21887518 0.026914878 -0.27190927 -0.4313386 -0.27422923
-0.322644 -0.1066666 -0.2801429 -0.31953493 -0.15914321 -0.21880797 -0.23101471 -0.21906579
-0.4327387 -0.24425694 -0.23658395 -0.20550938 -0.13427365 0.005986272 -0.13508643 -0.5878931
-0.4363892 -0.3180027 -0.09166458 -0.14818701 -0.2334113 -0.3343946 -0.1963534 -0.22066759
-0.076597534 -0.14791955 -0.41438314 -0.29983398 -0.35561818 -0.253437 -0.23688059 -0.29626006
-0.35951546 -0.14787865 -0.33252785 -0.36573082 -0.33535415 0.040436998 -0.17028296 -0.13801953
-0.23405634 0.008109103 -0.3029013 -0.10570847 -0.3248113 -0.2567387 0.044935606 -0.009603137
-0.049705043 -0.12139012 -0.05469394 -0.3691503 -0.13020383 -0.3055489 -0.20888728 -0.24195573
-0.33273593 -0.34661096 -0.25342783 -0.30059618 -0.21117626 -0.29726914 -0.31062788 -0.3102156
-0.28892708 -0.013091328 -0.2879614 -0.09947159 -0.1705892 -0.32743523 -0.17654815 0.04139688
-0.19361475 -0.12673725 -0.23286176 -0.08616472 -0.18188596 -0.39691585 -0.27299154 -0.14963965
-0.3273783 -0.2576429 -0.4281031 -0.27867633 -0.21050417 -0.16116607 -0.24271882 -0.22592026
-0.28142038 -0.44665024 -0.055699404 -0.3509153 -0.16795893 -0.06812931 0.064059205 -0.38514
-0.4433886 0.007575497 -0.3425604 -0.34026814 -0.39176837 -0.06327651 -0.027856747 -0.2553839
-0.32318103 -0.11227847 -0.34438288 -0.07251219 -0.16142014 0.053670716 -0.0075918566 -0.31899375
-0.15256847 -0.21472283 -0.30716962 0.037159313 -0.1238435 0.0745684 -0.34977913 -0.43122467
-0.22533496 0.0724202 -0.32677415 -0.3890787 -0.34108132 -0.36178616 -0.4927144 -0.37131566
-0.176148 -0.2536016 -0.5535403 -0.124162085 -0.26744175 0.08111318 -0.29072633 0.0054733
-0.11566807 -0.2381584 -0.39617178 -0.15513231 -0.2221918 -0.033776663 -0.59884685 -0.1916458
-0.43219113 -0.09776446 -0.5735905 -0.0777832 -0.44879162 -0.06640576 -0.25205168 -0.37514922
-0.2995688 -0.5925873 -0.075982526 -0.22050108 0.011147075 -0.19251382 -0.08307142 -0.26390502
-0.34118846 -0.06981005 -0.23299038 -0.24255553 -0.11414852 -0.19751349 -0.21566065 -0.40732157

fc2.weight f4 [256, 516]
00000000: d04b c83d 834b 0fbe 1d9a 673d b862 0ebe
00000010: e72f 853d ff42 a43c 1cd6 9ebd 383b c2bd
00000020: 9747 2d3d e400 dabd 67ba 2fbe 5919 c0bd
00000030: 2df6 aabc e57c 4cbe 5054 58bc 301d fe3d
00000040: 7627 123e ea5d 893b 6b5d b33d f833 b4bd
00000050: 4016 6f3d 2066 64bd f741 24be da5f b2bd
00000060: 230c 58be 04e0 d2bd b853 203e 7bb2 3cbe
00000070: 7902 533d 2636 c6bd 0d68 933d f700 edbb
00000080: b1dd 5b3d 42f3 07bd e0d0 49be 1625 4a3d
00000090: d980 22be abd0 363d ca17 8b3d 6169 bb3d
000000a0: 8e6f 59be 3347 27bd 734d a0be 991c 30be
000000b0: 4a4d 9dbe e4a6 5cbe 9292 14bf a88b a73d
000000c0: a396 06be 6823 61be 60d6 853d af4b 0a3c
000000d0: 0761 9c3d 469b e0bb 6ce4 243d 1730 0bbe
000000e0: 319e 1dbd 1942 053c c1fd b3bc 21c1 d83d
000000f0: 2f6f 90bd a478 a03d 209f bf3c 9567 1b3e
00000100: 3a96 21be a79c f3be 162d 523e cd4e b43d
00000110: a542 2d3e ddcd cabe 598f 55bc de15 86be
00000120: 7b67 f53b 1fcd 0bbe a2fc f2be 829a e83d
00000130: ba62 dc3c 5d52 893e a0a2 89bb bcea b2bd
00000140: fd9d 9e3d 429a 203c 984b 913c b6e3 8dbe
00000150: e5a9 903d c545 a43d d2f1 b2be 7604 67bd
00000160: 6a0b 323e 8c07 26be 33a3 79be 665c 67be
00000170: ff2a a73c 8e9c 933e dea4 b9bd 33e9 b0bd
00000180: 0a17 133e 07bc ae3d 6b8c 81be 9f91 4f3d
00000190: 2095 e1be be53 7c3d f052 023e 3eba 373e
000001a0: 517e be3e 5277 70bd b166 6abe 8431 12be
000001b0: dad1 d83c 730b 03be 21cc 883e 2dc3 e3bd
000001c0: be55 9fbe 1476 d7bd c866 bb3c 3a37 9bbc
000001d0: c0c1 193a 224c 9fbd e01e 9fbe 3d93 d03d
000001e0: c33e 2a3d 98a9 6e3c d977 9fbc eb4c efbe
000001f0: 1590 1ebe 135a 553e 6154 afbd 560d 4e3d
00000200: 1ee5 b83d a379 68bd cc7c 303d 83a3 9a3e
00000210: 3a28 ae3d 3fd4 0e3e 3461 35bd 992c 87be
00000220: b0fe 9cbc 9158 c0bd cf78 18bd 496c 433c
00000230: 93d5 c9bd 3466 453d 7bf5 d7bd 6f20 473d
00000240: 2d6a 4c3d 229c 38be da2a 62bb b7d4 933e
00000250: ec14 36bd 8094 55be a59d 2abe ca48 9cbe
00000260: 4855 5ebe e09d 84be 7789 28bc 7bb8 363e
00000270: 87bb 8e3e 9959 d6bd a7cc 7cbe c330 c03d
00000280: da7d 223d a986 aa3d 51d4 7fbd f2bf 9ebd
00000290: 7abe 39bd b260 cd3d 9863 c7bb 0a54 853c
000002a0: 50f5 a1bd 2f4a dbbd 1093 2bbd 5077 1ebd
000002b0: 7d9b 0e3e 6874 97be 0205 83bd b0d1 323e
000002c0: fad3 eabc f34d 8b3d dfd7 81bd 2fb0 6f3e
000002d0: 681b 9d3d b2c3 9ebd 6b69 383d e857 b13e
000002e0: 3a7a 5ebd 14e4 293d e1dd 453d b70c 1abe
000002f0: 252a 0c3e c5a8 b43d a8b8 2dbd 1863 50be
00000300: 4f3c c1bc cfc9 823e 79ac 37be 03b3 343d
00000310: c214 ed3d 1ac1 3abe 13f7 363e 3101 be3d
00000320: f3d3 a13d 3e44 f4bd 8e09 12bd 537a 52bc
00000330: ffc9 11bd f690 883c 3b7c 4dbe 4b2b 9a3e
00000340: eeeb 73be 36b2 0c3c 2fee 1d3e 0ad5 e4bc
00000350: 2734 2ebe 6c05 0b3e 4571 19be 58a1 833e
00000360: 3804 bd3d e220 f5bb be4d a6bd 8a1e 433d
00000370: 1e47 bfbd 575a 3a3d a856 75be b226 86bd
00000380: 9673 443e 558f e6bd 500d 04be 4b23 1fbe
00000390: 4411 353b 90a0 fd3d 5553 49bd f09a a0be
000003a0: 8981 6abc 3111 21bd 7d53 8ebd a89d 58bd
000003b0: 96b6 27be af1a 23be 0783 2dbd b433 76bd
000003c0: bb6f db3c 8921 81be f350 abbd 2230 84bd
000003d0: b45e d2bd 55b4 49bf ba84 4dbe 2a56 e13a
000003e0: 0d84 21be c29b 143c fff6 f5bd da5b d93d
000003f0: 11ea 94be e755 a03b dbee 933d 33ee 3b3e
0.09780085 -0.13993649 0.05654346 -0.13904846 0.06503277 0.020051477 -0.07755682 -0.09483951
0.0423046 -0.10644701 -0.1716095 -0.09379835 -0.020869339 -0.19969518 -0.013203695 0.12407911
0.14272866 0.0041921036 0.087580524 -0.08798975 0.05837083 -0.055761456 -0.16040789 -0.087096885
-0.2109838 -0.10296634 0.15656936 -0.1842746 0.05151603 -0.09678297 0.071975805 -0.007232781
0.05367822 -0.033190973 -0.19708586 0.049351774 -0.15869464 0.044632595 0.06791647 0.09150959
-0.21233961 -0.040839385 -0.3130909 -0.17198409 -0.3072303 -0.21548039 -0.5803615 0.08180934
-0.13143401 -0.21986163 0.065350294 0.008440896 0.07635694 -0.0068544475 0.040256903 -0.13592564
-0.03848094 0.008133435 -0.021971585 0.105837114 -0.070524566 0.078355104 0.023391306 0.15176232
-0.15779963 -0.47580454 0.20525011 0.088040926 0.16919954 -0.39610186 -0.013034665 -0.26188558
0.0074891425 -0.13652466 -0.4745837 0.11357595 0.026902545 0.2682065 -0.0042002946 -0.08736178
0.077449776 0.009802403 0.017736241 -0.27712792 0.07063655 0.0802112 -0.3495012 -0.05640074
0.17387167 -0.16213816 -0.24378662 -0.22593841 0.020406244 0.2883038 -0.09064649 -0.08638229
0.14364257 0.08531957 -0.25302443 0.050675984 -0.44059086 0.0616033 0.1272695 0.1794214
0.37205747 -0.058707543 -0.22890736 -0.14276701 0.026467253 -0.12797336 0.26718238 -0.11121211
-0.31120104 -0.105205685 0.022876158 -0.018947233 0.0005865358 -0.07778193 -0.31078243 0.101843335
0.04156376 0.0145668015 -0.019466328 -0.4673837 -0.1548465 0.20835142 -0.08561016 0.050305687
0.09028076 -0.056756627 0.043087766 0.30202875 0.08503766 0.13948153 -0.044282153 -0.26401213
-0.019164413 -0.09391893 -0.037224587 0.011927673 -0.09855189 0.04819317 -0.105448686 0.048614915
0.049905945 -0.1802831 -0.0034510405 0.28873226 -0.044453546 -0.2085743 -0.16661699 -0.30524284
-0.2171222 -0.259017 -0.01028668 0.17843811 0.27877447 -0.10466308 -0.24687444 0.093843006
0.039670803 0.08326466 -0.06245834 -0.077514544 -0.04534767 0.10028209 -0.0060848705 0.016275425
-0.07908118 -0.10707509 -0.041888297 -0.038688004 0.13926502 -0.29580998 -0.063974395 0.17462802
-0.028665531 0.06801977 -0.06340002 0.23407052 0.07671243 -0.0775217 0.04502241 0.3463738
-0.054315783 0.041477278 0.048307303 -0.15043913 0.13687952 0.08821253 -0.04241243 -0.20350301
-0.023588328 0.25544593 -0.17936887 0.04411603 0.11576225 -0.18237725 0.17867689 0.09277571
0.07901754 -0.11927079 -0.035653643 -0.012846547 -0.03559303 0.016670685 -0.20066921 0.30111155
-0.23820469 0.008587411 0.15422891 -0.027933616 -0.17012082 0.13576287 -0.14984615 0.25709033
0.0922932 -0.0074807266 -0.08120297 0.047636546 -0.093397364 0.04549631 -0.23958838 -0.06550349
0.19184718 -0.11257807 -0.12895703 -0.15540807 0.00276287 0.123841405 -0.049151737 -0.31368208
-0.01431311 -0.039323036 -0.06949518 -0.052884728 -0.16378245 -0.15928148 -0.042361286 -0.0601079
0.026786676 -0.25220898 -0.08365049 -0.06454493 -0.102719694 -0.7879079 -0.20070162 0.0017191817
-0.1577303 0.009070339 -0.120100014 0.106132224 -0.29084828 0.004893053 0.072232924 0.18352585

fc2.bias f4 [256]
00000000: a07f be3d d847 1b3e dedc 7dbe b92b 7abd
00000010: 3a06 b53d 46e9 b33e 0cc6 843e 02e3 0cbc
00000020: be6a ae3c 32c4 1d3f 8b88 fabc 5b25 b5bd
00000030: babf 05bd 47ea 18be 6d12 02be 1075 93be
00000040: 5220 f2bd 5c89 743e cd1b f03e e0e0 42be
00000050: ef0b 6fbd 0cc7 ce3c 0bdb 09bd bb55 4a3c
00000060: 7fc1 4bbe cab3 57bc b04f 8cbc 4e86 663e
00000070: ca51 a33c dffa b3bd 8693 413e c2ec 183a
00000080: 5665 39bd fe45 a3bc 6c71 353f 85d5 78bd
00000090: 6ba3 253e 31ba 963e bc0a b9bd 3bb5 b9bd
000000a0: 9754 f33e c79b a43e 7805 cdbc d89d 69bd
000000b0: 3023 a23e 24f2 ae3d 0d69 2abe 69a6 353e
000000c0: 005c 413e d012 153e 7c42 0f3e 8059 48be
000000d0: 9459 933e a8d6 4dbd f38c 53bd 3acc 1b3e
000000e0: 0860 c33e 917d 0bbd e4ad a13c d0e9 9d3e
000000f0: e3c6 acbd 65f3 503e 6de4 12be 9aab e7bd
00000100: 7f74 ba3e 81f6 50bd 6d2c 9e3d 82c5 8dbd
00000110: 0de3 f33c 0b9c 05be 59a8 d03e 5445 14bd
00000120: 78a4 69bd 554c 23bd e2c5 1dbe 6bf0 7bbd
00000130: e761 30bd 351c 7c3d fc6f cbbc efb6 77bd
00000140: 8f46 a1be d0bb ac3e fe08 91bd 2e65 4a3d
00000150: 1154 83bd 95da 2b3e 814b 553e dcd3 45bb
00000160: 3e4e 8fbd 16ad b8bc d798 89bd a2ca 453d
00000170: 1e6c c23d 26dd 383d 6c98 3f3d 3cc5 ae3d
00000180: 8d2a 08be 1a55 ef3e 15ed 92bc 6285 07bd
00000190: 0548 01bd 2e86 7cbe 0685 d03d 6293 ae3b
000001a0: f09c 8dbd 5e6f 4c3c 4a65 d83c 8f99 ca3e
000001b0: 89b8 08be 938a 2abd d6fa 5fbe 93f9 653e
000001c0: fb5b 963e 0cc8 183d 4623 3d3d f067 37be
000001d0: b56b bc3d 7044 76be fe35 45bd f75b af3e
000001e0: b974 57bd b5a8 90bd 7ad8 db3e 2521 673e
000001f0: 3251 51bd e4a7 92bd fcf4 89bd 1f01 b43d
00000200: 5cea 073e 6217 313e d370 40be c137 81bd
00000210: 1da7 d63d fdbd 96be dd9e 13be 1ccc 15be
00000220: be3b 9d3e b44a babd cc52 873e 19b9 78bc
00000230: 3eeb 743d 1e18 db3d b688 97bc efcb 24be
00000240: fb47 423b 669d 7dbd 3abe 58be bfcf a1bd
00000250: 53e1 12bd a28f c9bd d340 c3bd 48da 003d
00000260: 7ebe ffbc 9a90 aebc b741 71bd 0a22 43be
00000270: 179f 0f3e 3adf 4d3b 89ca 363e 6c3d eebc
00000280: b838 64be 9c10 993c 3712 92bd 7c5f ba3d
00000290: 09b5 b0bd 2e38 803e 9c78 5ebd f010 b0bd
000002a0: b50e 473e 6b6d 883d 3514 0639 8a5d ad3d
000002b0: 1295 23be 9248 6ebd d721 a7bd 6118 9e3d
000002c0: 0b64 18bd 67ee 9fbc a1d8 07bd df52 113d
000002d0: 44de 25be 165d 7d3e 2706 c1bd a019 afbd
000002e0: 2779 333e 670f 7fbe 41f8 8cbd 27d1 32be
000002f0: b095 4ebe 4e7c 97bb 62c6 2a3f 4114 c83c
00000300: e4a5 80bd fcff 32bd 5740 46bd 2f48 00bc
00000310: 5c58 083c 3bdd 08be 03fe cdbd 2056 3e3d
00000320: bfd3 d3bc e989 043e 46cf 8ebd 381d 253e
00000330: 0030 6abc ecc9 45be 7377 203e c189 65bc
00000340: 8db5 02be 6b40 80bd fcac 09bd a7a6 aebd
00000350: b235 a53e 74e8 063f e122 253d d0f1 20be
00000360: dc17 80be 3756 42be 4398 0cbc a724 abbd
00000370: 6458 19bd be02 ad3e 0020 f43c d2d4 71bd
00000380: 6059 3c3c f52c 0abd 8d63 8a3e c62a a73e
00000390: 21b5 313d 046e c93e 9ae6 a73d ccca 063e
000003a0: 2393 02bd a5ca 113e e576 843e 89b8 5c3e
000003b0: 8d0c 3abd 598e 6fbe ca32 77be fea4 01bd
000003c0: c1ee 403e 14b8 b13e 5904 133f 2281 45be
000003d0: afb2 0f3e 2e3f 9d3e c185 21bc 3f48 093e
000003e0: 91a4 8abd 46fa e0bd dbcb 4cbd c340 623d
000003f0: 3d80 6ebe 40b3 4f3d 269c 52bd bc95 0c3e
0.09301686 0.15164125 -0.24791285 -0.061076853 0.08839078 0.3513891 0.25932348 -0.008599045
0.021291133 0.61627495 -0.030582687 -0.088450156 -0.032653548 -0.1493312 -0.12702341 -0.2880025
-0.11822571 0.23880523 0.4689621 -0.19031096 -0.05836099 0.025241397 -0.03365616 0.012349541
-0.19898032 -0.013165424 -0.017127842 0.2251217 0.019936461 -0.08788084 0.18903932 0.00058336195
-0.045262657 -0.019930836 0.70876193 -0.060750503 0.1617562 0.29438928 -0.090352505 -0.0906777
0.47525474 0.321501 -0.025027022 -0.057035297 0.3166747 0.085422784 -0.16641636 0.17739262
0.18882751 0.14557958 0.13990206 -0.19565392 0.2877928 -0.05025354 -0.05164809 0.15214625
0.38159204 -0.034055296 0.019736238 0.30842447 -0.08436372 0.20405348 -0.1434495 -0.11312027
0.36417004 -0.051016334 0.07723317 -0.06922437 0.029771352 -0.13047807 0.4075344 -0.03619893
-0.057041615 -0.039867718 -0.15407518 -0.061508577 -0.043062117 0.061550338 -0.024833672 -0.060477193
-0.31499144 0.3373704 -0.07081793 0.0494129 -0.06412519 0.16782601 0.20829584 -0.0030186092
-0.069973454 -0.022543471 -0.06718605 0.04828895 0.09493278 0.04513278 0.04677622 0.08533713
-0.13297482 0.46744615 -0.017935315 -0.03308619 -0.031562824 -0.2466056 0.10181622 0.005327628
-0.06914699 0.012477724 0.026415486 0.3957028 -0.13351645 -0.04163606 -0.2187303 0.22458486
0.2936705 0.037300155 0.046176217 -0.17910743 0.09200231 -0.24049544 -0.048147194 0.3424985
-0.05260155 -0.07063428 0.42938596 0.22571237 -0.051102825 -0.07160929 -0.0673618 0.08789276
0.13272995 0.17294076 -0.18793039 -0.06309462 0.10481093 -0.29441825 -0.1441607 -0.14628643
0.30709642 -0.0909628 0.26430357 -0.0151808495 0.059794657 0.10697959 -0.018497806 -0.1609342
0.0029644954 -0.061917685 -0.21166316 -0.079009525 -0.035859417 -0.09841849 -0.095338486 0.03145817
-0.031218763 -0.021309186 -0.05890056 -0.19055954 0.14025532 0.003141357 0.17850699 -0.029082023
-0.22287261 0.018684678 -0.071323805 0.091002434 -0.0862828 0.25042862 -0.05431424 -0.085969806
0.19439204 0.06661495 0.00012786764 0.08465107 -0.15974835 -0.058174677 -0.08160751 0.07719494
-0.037204783 -0.019522859 -0.033165578 0.035479423 -0.16198069 0.2474254 -0.094250016 -0.085498095
0.17526685 -0.2490822 -0.06883288 -0.17462598 -0.20174289 -0.0046229726 0.6670896 0.02442372
-0.06281641 -0.043701157 -0.048401203 -0.00782971 0.008321848 -0.13365643 -0.100582145 0.046468854
-0.025857804 0.12943234 -0.06973128 0.16124427 -0.014293671 -0.19315308 0.15670566 -0.014009894
-0.12764569 -0.06262287 -0.033612236 -0.0852788 0.3226753 0.52698445 0.040316466 -0.15717244
-0.25018203 -0.18978201 -0.008581224 -0.083566 -0.03743781 0.33791155 0.029800415 -0.059040852
0.011495918 -0.03373428 0.27029076 0.3264982 0.04338563 0.39341748 0.08198281 0.13163298
-0.0318786 0.14237459 0.2587196 0.2155477 -0.045422126 -0.23394145 -0.24140468 -0.03165149
0.18841077 0.34710753 0.5742851 -0.19287542 0.14033006 0.30712265 -0.00985855 0.13406466
-0.0676967 -0.10985236 -0.0499991 0.055237543 -0.23291107 0.050708055 -0.051418446 0.13728994

fc3.weight f4 [1, 256]
00000000: e44e d43d fcc0 ac3d 7d8a c8bd ef8c 8e3c
00000010: 6482 b83d e884 9a3d 2da8 b83d 88cb b23d
00000020: 17cb 523e e296 b33d 6d36 2b3e f0c4 ac3b
00000030: b781 733e 646a ccbe 45f7 9cbd ba45 fabc
00000040: cd49 62be b302 033e 1b24 b03d bbdf 3fbe
00000050: 3357 023e 3a65 dc3d 9d3a c93b 0099 da3d
00000060: 3e45 a4be dd20 933b 8059 91be 5232 bf3d
00000070: ed24 263e 41b5 18be 6ad8 aa3d fbfd a83d
00000080: 2a83 1c3c 6733 c5bb ca7a 013e a8ae 583c
00000090: baef 7a3d bab9 093e 42e6 ad3d 5aa4 63bc
000000a0: a13e b63d 5dab bb3d 2ce0 fc3b 5909 babd
000000b0: 2828 0d3e 429d b73d b590 debd 96a6 063e
000000c0: 9fd4 a83d 8e60 123e d7e9 363e ad0a 2cbe
000000d0: f3bd bd3d 7caa e63d acaa 693a f416 483e
000000e0: 3d7b 953d bc39 3cbb 3b67 083e 7001 9b3d
000000f0: c55a 3f3e 357d 953d 87cb afbe b7f7 63be
00000100: ea46 823d dd61 a7ba 7de0 0a3e e13f 1bbb
00000110: 2662 243e 3359 63be 0939 a83d 4691 373c
00000120: 0355 76bd 460b 69bc 4bdb abbe ebb6 6f39
00000130: de5c 6dbe 7a62 303e c54d febe 911c 0a3d
00000140: aff7 6dbd 5331 953d 0b85 50bc a438 0a3e
00000150: 59e7 4db9 0705 ab3d 86f2 8f3d 0a3f dfba
00000160: 8e89 9f3c 87d7 bcba 34e5 1f3e 4d0c e43d
00000170: 221b 6d3e a82a 183e e866 5d3e c04e 1a3e
00000180: d0c8 84be ded5 8e3d 77b5 2e3c 91dd 0c3e
00000190: 33f6 873e 13d3 bdbd c0d0 fd3d 35f9 eb3d
000001a0: 293f 453c d387 253a 10c4 803e 47c0 093e
000001b0: 39fa 80be a56e 1d3e b8ba 1bbe 9204 d93d
000001c0: c9e3 a93d 0a3a 483e 4848 ae3e 9b53 19be
000001d0: 8c1a 1a3e 564c 18be c8b3 bb3b c606 a53d
000001e0: d545 0bba a12d 18be 512d 7a3d 112a 903d
000001f0: d5f0 a7bb 7788 55bb fcf4 88bc 426e 133e
00000200: c8eb fd3d 974f d13d c744 aabe 4a63 18bb
00000210: eeaa da3d b360 d7bd e716 84be 1c44 12be
00000220: 5fda cb3d 8e0e 1ebb 68e8 8e3d 5176 153c
00000230: d081 463e 0301 bd3d 464e a83b 7cf2 07bf
00000240: 6f99 843e 5f5c 7cbf 4a68 63be 9ce8 06bf
00000250: 77e6 b9bb 8994 75be 165b 51be dff3 b23d
00000260: 8dc6 6a3b d977 833b 40a6 e43c e5b9 c9bd
00000270: c489 f73d 6228 2d3e 07ed e93d fe2b 63bb
00000280: 277e 62be 199f 823b ef31 9c3c be35 263e
00000290: 8cd6 29bf 9384 053e 7c40 94bc 4980 733b
000002a0: 9332 1a3e 5bd7 023e 6ae2 343e 8385 ec3d
000002b0: 9cea 2ebe 266f 81be d789 93bb 3fb8 063e
000002c0: c563 103c 803b 13bc 2f25 79be 0de2 d73d
000002d0: e8b7 29bf 764c d33d 3df1 34be 0f3a 58bb
000002e0: b009 863d def8 c3bd dfd9 963b bb87 f3bd
000002f0: 699b 0fbf 29b5 c6bc ba8f d13d 328a c33d
00000300: 2d9a 4bbe f563 a03b c5fe 16bc f055 c63d
00000310: 48c1 7c3e caab f6be f60a fd3b 2a36 053e
00000320: 7b37 3d3e 81d7 9e3d 5b2e 093c 4fd3 a43d
00000330: 87fc cdb9 0ae9 37be 5947 213e db32 fa3d
00000340: b566 1abe 04f8 6fbe 3cb1 aa3a 6a28 1dbe
00000350: ddd8 b43d 087a 073e 2a55 123e 6c3a 68be
00000360: e5ab 00be f5f6 3bbe 9aba 293b 1de2 633d
00000370: 720d 4f3a 2977 b23d 6e9a cdbd f9ae 233e
00000380: 3533 1c3e 2c6d b2bb 2f08 f03d 591a c43d
00000390: f673 283e d32a 863d b073 013e e91c 573e
000003a0: 2e56 05bf b5df b23d 41d2 863d 77ca c03d
000003b0: b302 36bc f621 fbbe 343a d5bd 4da8 4d3c
000003c0: c29e 0e3e 40aa bf3d e007 c83d 0436 eabd
000003d0: 57de 293e ffff d73d 58df 8fbb f2be 133e
000003e0: 93aa de3b a3fc a7be a779 5cbe 9102 2f3e
000003f0: 3aec dbbd e569 b73d 7785 1cba ea41 a43d
0.1036661 0.08435246 -0.097920395 0.017401187 0.09009245 0.07544881 0.09016452 0.08730227
0.20585285 0.08769013 0.1671998 0.0052725 0.23779951 -0.3992492 -0.076643504 -0.030550826
-0.22098465 0.12793998 0.086006366 -0.1873769 0.12728576 0.10761495 0.0061410205 0.10673714
-0.32084078 0.0044900016 -0.28388596 0.0933577 0.16225024 -0.14912893 0.08342059 0.08251568
0.009552756 -0.0060180905 0.12644497 0.013225235 0.061263777 0.13449755 0.08491184 -0.013894165
0.08898664 0.09163544 0.007717153 -0.09083814 0.1378485 0.089655414 -0.108674444 0.13149485
0.08243679 0.14294645 0.1786264 -0.16800947 0.092647456 0.11262986 0.0008913677 0.19540006
0.072988965 -0.0028720936 0.1332063 0.075686336 0.1868697 0.07299272 -0.34334967 -0.22262464
0.06361182 -0.0012770254 0.13562198 -0.0023689198 0.16053066 -0.22201996 0.082140036 0.0112040695
-0.060139667 -0.014223879 -0.33565745 0.00022860958 -0.23179957 0.17225066 -0.49668708 0.03371865
-0.058097538 0.072847985 -0.012727032 0.13498169 -0.00019636507 0.08350568 0.070286795 -0.0017032337
0.01947477 -0.0014407494 0.15614778 0.11135159 0.23154882 0.14860022 0.21621287 0.15069103
-0.25934458 0.06974386 0.010663382 0.13756396 0.26555023 -0.09268775 0.123933315 0.11522142
0.012038984 0.000631449 0.25149584 0.13452254 -0.25190905 0.15374239 -0.15207946 0.10596575
0.082954 0.1955339 0.3403952 -0.14973299 0.1504919 -0.1487287 0.0057282187 0.080579326
-0.0005312835 -0.14861156 0.061078373 0.070392735 -0.005125145 -0.003258256 -0.01671838 0.14397529
0.12398487 0.10220259 -0.33255598 -0.002325254 0.106771335 -0.10516491 -0.25798723 -0.14283794
0.0995376 -0.0024117562 0.06977922 0.009122447 0.19385457 0.092287086 0.005136284 -0.53104377
0.2589831 -0.9857845 -0.22207752 -0.52698684 -0.0056732255 -0.23982443 -0.20444903 0.08737921
0.0035823912 0.0040120897 0.027911305 -0.0984991 0.120868236 0.16909936 0.114221625 -0.0034663673
-0.22118436 0.003986251 0.019066779 0.16231439 -0.66343 0.13038854 -0.018097155 0.0037155321
0.15058355 0.12777464 0.17664495 0.11548903 -0.17081684 -0.25280112 -0.004502516 0.13156222
0.008812849 -0.008986354 -0.2433059 0.10541163 -0.66296244 0.10317318 -0.1767015 -0.003299359
0.065448165 -0.09568952 0.004603609 -0.11891123 -0.5609651 -0.024256306 0.10232492 0.09547843
-0.19883032 0.0048947283 -0.009216015 0.0968436 0.24683106 -0.4817794 0.007722254 0.13008943
0.18478195 0.07755948 0.008372868 0.080481164 -0.00039288795 -0.17959991 0.15749873 0.12216731
-0.15078242 -0.23434454 0.0013022791 -0.15347448 0.08830426 0.13230145 0.142903 -0.22678536
-0.12565573 -0.18355925 0.0025898577 0.05563556 0.0007898427 0.08714134 -0.10039221 0.15984716
0.15253909 -0.005445143 0.11720311 0.09575338 0.16450486 0.06551137 0.12641788 0.21007122
-0.52084625 0.08734075 0.065830715 0.09413617 -0.011109042 -0.49049348 -0.10411492 0.012552333
0.13927749 0.093586445 0.09767127 -0.11436084 0.16588722 0.10546874 -0.0043906383 0.14428309
0.0067952364 -0.32809934 -0.21530782 0.17090823 -0.10738416 0.08955745 -0.00059708155 0.080203846
