checkpoint_critic.pth (torch_old, 601126 bytes, 5 tensors)

fcs1.weight f4 [512, 33]
000000 d4 ae 34 be 4c 27 a4 3e e8 30 2f be 2c 28 79 3c
       -0.17644817 0.3206123 -0.171085 0.015207332
000010 67 79 8e bc c9 48 6e bd 79 96 2f be 01 28 55 3b
       -0.017391874 -0.058174882 -0.17147245 0.0032525065
000020 22 58 8f 3e 04 7f 4e bc 98 60 e3 3c b1 89 45 bd
       0.27996927 -0.012603525 0.02775602 -0.048227016
000030 a7 35 c1 3d fc b6 7a 3e 58 71 43 be 73 d1 07 3e
       0.094340615 0.24483865 -0.19086206 0.13263492
000040 4d a9 48 3c f7 3d 56 3b 03 8d 89 3d 40 63 e3 3d
       0.012247396 0.0032690743 0.06716349 0.11102915
000050 ba 58 5c 3d 0f dd a7 bd 7b 6b ee 3c 43 13 0d 3d
       0.053795554 -0.081964605 0.029103985 0.034442198
000060 70 71 8f 3c d4 1d 78 bb 06 d0 1b be 8f 23 02 3e
       0.017510146 -0.0037859576 -0.15216073 0.12708877
000070 b4 76 5d bd 5a 7a a7 3c 24 90 b3 bd c8 83 94 3c
       -0.054068282 0.020444084 -0.08767727 0.018129244
000080 fb 28 09 bf 31 5c 11 be 49 f4 8c bc d9 1f e0 bc
       -0.53578156 -0.14195324 -0.017206328 -0.027358936
000090 6b d3 17 be 45 bd 01 3d f7 27 c0 3d 3c 41 a4 3c
       -0.14826743 0.031674642 0.09382623 0.020050637
0000a0 c2 99 d1 3c 03 27 9f bd 81 8b 45 be 31 76 83 3d
       0.025586013 -0.07771113 -0.19291498 0.064190276
0000b0 d4 bc 16 bb 00 f0 4c ba 36 a5 27 3e 3f ba e5 3c
       -0.0023000734 -0.0007817745 0.16371617 0.02804291
0000c0 77 01 7b 3c ac fe 0d 3d 1e 5a cc 3d 5d 0c 6e 3d
       0.015320173 0.034666702 0.09978126 0.05811726
0000d0 1e 77 6d bd ae c5 a9 3b 7d 45 65 bc d5 3e 55 3b
       -0.057974927 0.005181036 -0.013993618 0.0032538672
0000e0 d9 c2 9d 3d fe 17 4c 3d f6 81 ae bc 9e fb 85 bd
       0.0770318 0.04982757 -0.021302205 -0.06542133
0000f0 69 13 7b 3e 29 5a ae 3d 4e 29 7b bc 54 39 7f be
       0.24519123 0.085132904 -0.015329672 -0.24924213
000100 06 eb 01 bd 5e 22 56 bf cb 0c 71 bd 8f fc c2 bd
       -0.031718276 -0.8364619 -0.05885009 -0.09520828
000110 af 00 a6 3d c4 46 df bc 40 04 53 3e 43 2c 90 3e
       0.08105599 -0.027255423 0.2060709 0.2815877
000120 58 6a 03 3d a9 21 d8 3d 59 b3 ca bc 71 62 08 bd
       0.03208384 0.10553295 -0.024743723 -0.033297006
000130 4b 95 29 3d fe 7f 90 3c a4 23 14 3e fb 4c 23 3e
       0.041402142 0.017639156 0.14466721 0.15947334
000140 71 da 9b bc 1c 92 ab bd 2e f4 60 3c 42 e7 2c be
       -0.01902506 -0.083774775 0.013730092 -0.16885093
000150 24 66 ba 3d 5b a4 8c bd 5e 7b e0 bd bf 32 84 bd
       0.09101513 -0.06867286 -0.109610304 -0.064549915
000160 17 12 df 3a ff 35 92 3d d9 a2 0f bd 46 ea 51 3d
       0.0017018941 0.07139205 -0.035067413 0.05124881
000170 73 31 d1 bd 44 cd a2 3e 3d 5b 14 bb 7d fa f5 bc
       -0.1021451 0.3179723 -0.002263739 -0.030026669
000180 0a e6 9a be 07 3a 06 3d ad 48 08 bf 96 66 fc 3d
       -0.3025363 0.032770183 -0.53235894 0.12324254
000190 78 e7 98 3e 9a e4 b7 3b d8 0d 9d 3d 9d e2 35 3e
       0.29864097 0.005611968 0.07668656 0.17762227
0001a0 82 9d d3 bd a4 92 83 3b 74 4d 1a bd 97 55 a0 bd
       -0.103327766 0.0040152837 -0.03767152 -0.07828825
0001b0 b2 10 eb bd a2 c2 94 3d 49 8e 67 3d 5f 06 84 bc
       -0.11477794 0.07263686 0.056532178 -0.01611632
0001c0 b9 79 0c bd bc 9d d5 bc 8b ca 0a 3e 47 f4 bc 3c
       -0.03429577 -0.02607619 0.13553827 0.0230657
0001d0 40 6a 47 3e e5 53 3e 3e 6f 16 85 3d 44 2e 68 bc
       0.19474125 0.1858669 0.064984195 -0.014171187
0001e0 bd 80 50 bc 91 b2 2e 3b d3 43 68 3d 1d d1 94 3d
       -0.012726006 0.0026656727 0.056705307 0.07266448
0001f0 a7 5f 8e 3d 58 be 25 bb 80 69 b4 3d cf cd cc 3d
       0.06951838 -0.0025290456 0.08809185 0.100001924
000200 70 0d 15 3b be f9 b0 bd 30 60 31 bc e0 e7 80 bd
       0.0022743605 -0.086413845 -0.010826156 -0.06294227
000210 e8 5a 9d bc c9 60 aa 3e e9 e4 19 be 20 59 d2 3c
       -0.019208387 0.33276966 -0.15028729 0.025677264
000220 ac 5e 85 be 49 86 25 3f 14 15 06 3f 84 20 85 3d
       -0.2604879 0.6465803 0.5237591 0.065003425
000230 cb be 0e 3e ce 6c 9e bd c1 be 5e bd 88 2f 58 3c
       0.13939969 -0.077355966 -0.054381136 0.013194926
000240 62 93 90 3c 05 51 21 3e fc ac c7 bd 77 df bc 3d
       0.017648403 0.15753563 -0.09749791 0.0922231
000250 40 8f 89 bd f3 29 d6 3d 71 03 f9 3d 77 b8 c1 bc
       -0.06716776 0.1045722 0.121588595 -0.02364753
000260 ae d9 0c bd 43 f5 fa bb 9d 00 c5 bd 25 04 5d bd
       -0.034387283 -0.007658632 -0.096192576 -0.05395903
000270 3a 31 e5 3b ce d5 06 3b f9 eb 8d 3a da bc 6b 3e
       0.0069943937 0.0020574215 0.0010827772 0.2302126
000280 d2 6d 9f bd a8 59 05 bc 98 d9 96 be e0 9c e4 bb
       -0.077846184 -0.0081390515 -0.29462886 -0.006976709
000290 cd 68 4b bf a6 34 f3 bd 1c 2a b4 bd a3 17 07 bd
       -0.7945679 -0.11875276 -0.08797094 -0.032981526
0002a0 36 05 34 be b0 4f f1 3c e8 2a 2a be 65 e4 ba bc
       -0.17580113 0.029456943 -0.1661793 -0.022813985
0002b0 66 46 2c 3d 35 d1 65 bd 94 97 f0 bb 57 c1 f0 bb
       0.042059325 -0.05610772 -0.0073422883 -0.0073472667
0002c0 1d 51 3d bd 48 e3 86 3c 57 dc af 3d eb 8f bb 3d
       -0.046219934 0.016465798 0.08586948 0.091583095
0002d0 89 97 83 bd a7 20 84 bd d4 a8 8e 3d 5e e5 a2 bc
       -0.064253874 -0.064515404 0.06965795 -0.019884761
0002e0 07 fd d9 bd 0a 45 82 3d 88 81 c0 bd dc 9e e5 bb
       -0.10643964 0.063608244 -0.09399706 -0.007007463
0002f0 73 80 6c 3d b9 40 45 3c 48 e8 60 bd e8 de cd 3d
       0.057739686 0.012039357 -0.05490902 0.100522816
000300 ec d5 1d 3b 29 e9 d3 bd 08 a8 a0 3b f9 80 d2 39
       0.0024083806 -0.10347206 0.0049028434 0.00040150413
000310 9e da 59 bc 3b 31 83 3e 19 b9 07 3e f0 b2 15 be
       -0.013296751 0.25623497 0.13254203 -0.1461904
000320 20 1c 2a bd 33 6d e0 3d 5a f0 9b 3e 03 92 08 bf
       -0.04153073 0.10958328 0.3045681 -0.53347796
000330 aa 98 1d be 3b 19 da bc 7a cf 86 bc 5a ac 32 3d
       -0.15390268 -0.026623359 -0.016456354 0.0436214
000340 10 9f 3d bb d3 2a 14 3c 62 6e b5 3c d6 2b 2d be
       -0.002893392 0.009043413 0.022147361 -0.16911253
000350 3e 5a 05 3e a7 e7 01 bd 04 62 25 3e 82 7e 0c bc
       0.13022706 -0.03171506 0.16150671 -0.008575084
000360 aa bd ba bd 48 2f bb 3d 22 e9 cb 3d 80 08 25 3c
       -0.09118207 0.091398776 0.09956576 0.010072827
000370 3a d6 2f 3d f4 0b 8c bd 6e bc 93 bc f5 4c 30 3d
       0.04292891 -0.068382174 -0.018034186 0.043042142
000380 12 fa 80 3d 29 05 0a 3e e0 72 9a 3d 6c 55 7c 3c
       0.06297697 0.13478531 0.07541442 0.015401226
000390 2c aa ed bd e0 86 f3 3b ef 04 76 be 9f 1d 02 be
       -0.11604723 0.00743185 -0.2402532 -0.12706612
0003a0 91 a0 4b 3c f1 c1 f2 3d 3c f8 d0 be 42 c5 36 be
       0.012428419 0.11853398 -0.40814388 -0.17848685
0003b0 7c d8 5f be e0 1b ec 3c 28 1f 5d be 9a 00 2f be
       -0.21859926 0.028821886 -0.21593916 -0.17090073
0003c0 9d 1f 7e ba f0 a0 45 3c 0b 1f dd 3c 02 ad 24 3c
       -0.0009694042 0.012062296 0.026992342 0.010051014
0003d0 47 22 07 3d 40 7c 4a bd 33 ac ff 3d a0 f8 c4 3e
       0.032991674 -0.0494349 0.12484016 0.38470936
0003e0 33 a6 0f bf 17 78 50 bd 8c 95 6a 3e dd be 9a 3d
       -0.56112975 -0.050895777 0.2290861 0.075559355
0003f0 80 6d 86 ba bc 3f 78 bd d5 16 dd 3c c4 3e b6 3c
       -0.0010256022 -0.060607657 0.026988426 0.022246726

fcs1.bias f4 [512]
000000 60 0b 39 be 65 ee b4 be 99 ca ea be 71 68 da bd
       -0.18070745 -0.3533813 -0.45857695 -0.10664452
000010 6e d1 bb be f8 50 1c be de 47 06 3d 26 15 d2 be
       -0.3668322 -0.15265262 0.03278338 -0.4103176
000020 aa e9 98 be bf d7 b6 3d 1f d8 66 be 84 de 3e bd
       -0.29865772 0.08927869 -0.22543381 -0.046598926
000030 05 d3 0f be 97 1d fa bd 58 26 97 bd d4 c9 30 be
       -0.14045341 -0.12212675 -0.0738036 -0.17264491
000040 07 e0 4c be 96 0c b9 bd 59 8e 08 be 1c fa b7 3d
       -0.20007335 -0.09035604 -0.13335551 0.089832515
000050 08 32 80 bd 37 40 f6 3c 64 02 14 be 63 4d c5 be
       -0.06259543 0.030059917 -0.14454037 -0.38535604
000060 ec 28 4e bd ee 1f 0c 3d 86 5c ed 3d 5b a5 7a 3d
       -0.050331995 0.034210138 0.11589913 0.06119285
000070 25 c8 27 be 77 13 47 be 8a 4f e1 3b 2c bf b4 bc
       -0.16384943 -0.19441019 0.006875937 -0.022063814
000080 a8 3f d3 3b dc cf e6 bd 14 6d c5 be df 02 21 3d
       0.0064467974 -0.11270115 -0.38559783 0.03930938
000090 86 8d 70 bd 93 33 b9 be 68 77 01 bd 61 c7 eb bd
       -0.058728717 -0.3617216 -0.031608015 -0.11512638
0000a0 7e ac bf bd a6 40 0a bd 92 66 21 be 12 64 ab be
       -0.09359072 -0.03375306 -0.15761784 -0.33474785
0000b0 bf 47 95 be 51 7e ca be 8c d6 44 be c0 19 1f be
       -0.291563 -0.39549497 -0.19222468 -0.15537167
0000c0 97 00 0f be 28 f0 9f be 56 e9 cb 3c ff ef 14 be
       -0.13965069 -0.31237912 0.024891537 -0.14544676
0000d0 d9 94 5e bd f6 f6 3a be 9b 20 96 be 61 71 8f be
       -0.05434117 -0.1825827 -0.2932175 -0.2801619
0000e0 8f 54 a5 bc 2c 0d 8e be 45 98 ba 3d 08 77 d5 bd
       -0.020181922 -0.27744424 0.09111074 -0.10423094
0000f0 c0 30 80 be 12 4a 97 be 8b e2 90 be 63 06 de bd
       -0.25037193 -0.295487 -0.2829784 -0.10841062
000100 16 8d 19 be 0e 29 d4 3d b2 ec d8 bd 20 ed ba bd
       -0.14995226 0.10359393 -0.10592021 -0.09127259
000110 5a 1f 21 3c 5d 36 b8 bd 7a 0b e8 be ac bf 30 be
       0.009834135 -0.08994744 -0.45321256 -0.17260617
000120 5b 1f c8 bd d1 80 0e 3b 9d a8 63 be d9 eb 99 be
       -0.097716056 0.002174426 -0.2223229 -0.3006275
000130 8c 6c d5 bd 9a 87 6d be 47 5e 32 3e ac 9c 9e be
       -0.10421094 -0.23196259 0.17418776 -0.30978906
000140 83 d7 6a 3d ba 28 92 be 0d d0 9a be d3 58 66 be
       0.057334434 -0.28546697 -0.30236855 -0.22494821
000150 54 5b 78 bd 19 0d ac be be 4d ce bd 82 9b a8 be
       -0.060633972 -0.33603743 -0.10073422 -0.32931143
000160 ca 50 3a be ae 34 6e 3c ea 86 17 be fe 9f 9c bd
       -0.18194881 0.014538927 -0.1479756 -0.076477036
000170 17 11 89 be b2 a0 68 3d 21 f1 5d be 18 9f 59 be
       -0.2677085 0.056793876 -0.21674015 -0.21252096
000180 83 bf e0 bd 4c a7 96 bc 38 92 e7 bd 34 34 3a bd
       -0.10974028 -0.01839032 -0.11307186 -0.04545994
000190 01 f1 05 be ef b5 83 bb d8 d1 e8 bd d3 e3 70 be
       -0.13080217 -0.004019491 -0.113681495 -0.23524408
0001a0 47 4e ab be 7d 0a 06 be 0c 30 92 3d fc 6a b1 bd
       -0.33458158 -0.13089938 0.071380705 -0.08662984
0001b0 62 99 7b be 43 d2 d9 be f7 5b c3 bd 10 94 72 be
       -0.2457023 -0.4254323 -0.09539025 -0.23689294
0001c0 bd cf af 3b 2f 5b ab bd 0a 5f 80 be 27 76 59 be
       0.0053653405 -0.08367001 -0.2507251 -0.21236478
0001d0 3a 02 82 be 72 12 13 be f4 83 b3 bd 0a 33 13 be
       -0.25392324 -0.14362505 -0.087654024 -0.14374939
0001e0 f5 32 3d be b3 ca aa be 3e ee 8b be ed fd 8f be
       -0.1847647 -0.33357772 -0.27330202 -0.28123417
0001f0 a4 d7 6b be 5d 26 0a 3e fd 2c 2c be 0e 6a ec 3c
       -0.23031479 0.13491197 -0.16814037 0.028859165
000200 9a 42 fa bd ad e8 bb 3d fb e2 74 be 10 82 99 bd
       -0.122197345 0.09175239 -0.23914711 -0.074955106
000210 52 9f d7 bd af 44 73 be 91 91 9d bd cd 82 50 be
       -0.10528435 -0.2375667 -0.0769378 -0.20362397
000220 11 a1 09 bd 4d d1 b8 bd b3 a2 a8 bd c6 71 bd be
       -0.03360087 -0.09024296 -0.082341574 -0.37000865
000230 d1 fb 3a 3d 1a d2 9f be e5 41 51 be 49 43 07 bf
       0.045650307 -0.31214982 -0.20435293 -0.52837044
000240 5e 88 94 be 5b 50 57 be af e1 14 be f1 aa 9d be
       -0.2901029 -0.21026747 -0.14539216 -0.3079448
000250 7c 8a f8 bd 6c b6 9d be d0 68 73 be 67 2d 9b be
       -0.12135789 -0.3080324 -0.23770452 -0.30308077
000260 68 6b 3b be d7 57 df 3d db d7 66 be b1 e2 2a be
       -0.18302691 0.10905426 -0.2254328 -0.16688038
000270 95 0b b0 bb 12 04 79 be 1e 4f ec bc 4f e6 4f 3d
       -0.0053724744 -0.24317959 -0.02884632 0.05075675
000280 50 aa d6 bc 3b bf 46 be 32 77 ef be b4 81 f1 bc
       -0.026204258 -0.19408886 -0.46770626 -0.029480793
000290 64 3b 53 be 1c a7 e3 bd 71 45 b0 be 9c a7 09 be
       -0.20628124 -0.11115858 -0.3442798 -0.13442844
0002a0 8c 12 18 be 25 cd 5b be a8 ad b2 be 2e 80 2b be
       -0.14850825 -0.21464975 -0.34898114 -0.16748115
0002b0 1a bd 4d be 78 27 ac 3d 26 f7 4a be 72 e3 60 be
       -0.20091668 0.084059656 -0.19820842 -0.21961764
0002c0 65 1f d6 be 4c 14 fa bd a4 f6 4c bb 2a 13 a7 be
       -0.41820827 -0.122109026 -0.003127494 -0.3263181
0002d0 73 23 6f be 15 ec 3a bd 92 2d 53 3d 19 1d 98 be
       -0.23353367 -0.0456353 0.05155713 -0.297097
0002e0 37 58 f2 be 1e 77 d7 bd c8 b4 46 be f9 92 8f 3b
       -0.47332928 -0.10520767 -0.194049 0.004381534
0002f0 cd 5f f3 be 4d e1 2a be aa 54 e4 bd 05 2e e6 be
       -0.47534028 -0.16687508 -0.11148961 -0.44956985
000300 ec c7 2a be 86 12 f2 bd 05 c0 d5 be c2 a1 a0 be
       -0.16677827 -0.11819939 -0.41748062 -0.3137341
000310 a1 82 b6 be 27 41 cc 3d 84 af b9 be 6b a3 84 be
       -0.35646537 0.09973364 -0.3626672 -0.25905928
000320 0f 2e eb bd e0 a3 bc bc 2e 44 9a be c0 07 a4 3d
       -0.11483394 -0.02302736 -0.30130142 0.08009291
000330 b8 f8 d0 3d a9 53 79 3c a4 a2 51 be a2 a1 a8 be
       0.10203689 0.0152177 -0.20472199 -0.32935816
000340 53 49 19 be 3f 0b 53 3d e3 d1 99 be 9b 68 8a be
       -0.14969377 0.051524397 -0.30042943 -0.27032933
000350 bd a5 7a be 9e 59 2d be 01 4b 85 be e6 34 b3 be
       -0.24477287 -0.16928717 -0.26033786 -0.35001296
000360 46 f3 c3 bd c8 9c 1f be 68 e4 94 be 0d 30 27 be
       -0.09567885 -0.15587151 -0.2908051 -0.16326924
000370 96 ae 34 be 2e 3c 35 bd fa fb 92 be 31 0b 49 bd
       -0.17644724 -0.044246845 -0.28707868 -0.04908294
000380 13 57 93 be 75 b1 0e be 03 b8 a8 bd dc 40 3a bd
       -0.2877737 -0.13934882 -0.082382225 -0.04547201
000390 f8 d3 5e be c3 43 df 3d 85 e3 cb be 41 52 67 be
       -0.21760547 0.109015964 -0.3982202 -0.22589971
0003a0 14 97 d3 be 54 69 bc bd 47 fd 97 be e9 46 0e 3d
       -0.413262 -0.09199777 -0.29685423 0.034735594
0003b0 ba 9c d4 be c8 0e 37 bd 75 26 5e be fe ea 9d be
       -0.41525823 -0.04469183 -0.21694358 -0.30843347
0003c0 ac c7 ad be e3 54 6e be 17 cf de bd d3 f3 26 be
       -0.339414 -0.23274569 -0.10879343 -0.16303949
0003d0 d6 c2 2c be 6c 3d a1 be bd 2a be 3d 1a 1c a2 bd
       -0.16871199 -0.31492174 0.092854954 -0.07915516
0003e0 8a 78 cd bd 04 5b ca bd d3 39 81 be 4a 0f 6e be
       -0.100327566 -0.09880641 -0.2523943 -0.2324802
0003f0 d4 28 8c be 30 23 6b be 8a e0 b9 be 42 c1 83 be
       -0.273749 -0.22962642 -0.36304122 -0.25733382

fc2.weight f4 [256, 516]
000000 75 57 0b 3e 8b ee 1f bf f2 0e 3a be f3 ff 2e 3d
       0.13607581 -0.6247336 -0.18169764 0.04272456
000010 55 8d d6 bd 63 2e 4c 3d 18 e1 ae 3d 6f fe 00 bd
       -0.10476176 0.049848925 0.08539027 -0.031492647
000020 a0 f0 09 3d 02 b4 05 be cf 71 3d bd 7a a7 9c 3d
       0.033676744 -0.13056949 -0.046251114 0.07649131
000030 eb d9 1f 3e ce 99 be bd 12 fe 91 3e 7b cc 47 3d
       0.15610473 -0.0930668 0.28514153 0.048778992
000040 c9 99 ad bb e7 99 a6 3c 3f 33 34 3d b9 d5 1f be
       -0.0052978736 0.020337058 0.043994185 -0.15608872
000050 36 a3 32 3e 81 fc 08 3e e0 ca 02 3e 13 b7 a6 bc
       0.17445073 0.13377573 0.12772703 -0.020350968
000060 ae eb fa bc e0 b8 2e 3d 01 00 d4 be 0e dc 33 3d
       -0.030629959 0.04265678 -0.41406253 0.043911032
000070 73 8e 1c be 42 1d 38 be 8c 4b 37 be 26 bf 02 3d
       -0.15288715 -0.17979911 -0.17899913 0.031920575
000080 f0 1d 58 3c 14 33 48 bd 09 d8 9e 3d 6d f4 54 bd
       0.013190731 -0.048876837 0.07756049 -0.051990915
000090 be bb 19 be a7 26 41 bb 0a d8 2c bc 60 91 88 3e
       -0.15013024 -0.0029472501 -0.010549555 0.26673412
0000a0 48 6e a7 bc 2f 1b d9 3d 6b 25 70 bd ed 1b 54 3d
       -0.020438328 0.10600888 -0.058629435 0.051784445
0000b0 cd 11 76 3d 68 5c d6 3b d3 0d 5f 3e 95 d7 47 3e
       0.06007557 0.0065417774 0.21782617 0.19515832
0000c0 96 2d 9a bd dc 67 da bd 3f 5c a2 3d 99 24 f5 3d
       -0.07528226 -0.10664341 0.07927751 0.11969871
0000d0 c2 09 b8 bd 2f 70 0d 3e 65 c6 48 3d f5 ed 6f 3d
       -0.08986236 0.13812326 0.04901733 0.058576543
0000e0 af 0c b0 bd a2 24 24 bc 76 4e fb bd d2 32 73 be
       -0.08596169 -0.0100185 -0.122708246 -0.23749855
0000f0 60 aa 8c be 5a 43 bb bc 7c 63 3d be f7 45 85 bd
       -0.27473736 -0.022859264 -0.18494982 -0.06507485
000100 c8 0b 14 bd a6 6f 1f bd b1 d4 4b 3d 31 f4 a9 bc
       -0.036144048 -0.038924836 0.049763385 -0.020746322
000110 a8 4f 01 3d 9e a3 0b be f6 b9 4b 3d 63 f9 01 3e
       0.031570107 -0.13636634 0.049737893 0.1269279
000120 c2 e0 53 3c 77 38 0e 3e bd ef 8b be e9 12 16 bf
       0.012932004 0.13888727 -0.27331343 -0.58622605
000130 d8 ee 51 be 54 6c 92 3d 1a 69 b2 3c a1 9d a7 be
       -0.20501268 0.07149568 0.021778632 -0.3273745
000140 d3 00 34 bb 6c 38 1b 3d 09 83 b8 bc a7 18 8c 3d
       -0.0027466312 0.037895605 -0.02252342 0.068406396
000150 8b ba ec bc 7f d3 af 3c 40 f6 49 bc 9e 61 1b 3e
       -0.028897544 0.021463154 -0.012326777 0.15173957
000160 b2 8f cd bc 2c 97 0e 3d 48 ee 76 be c8 87 90 3d
       -0.025092933 0.034812137 -0.24114335 0.07057148
000170 2a 71 18 be 6e b6 f4 3d ec ac 21 be 78 95 8e 3c
       -0.14886919 0.11948858 -0.1578862 0.017405257
000180 64 e5 28 bc d8 b2 0d be 79 1f 01 3e 04 12 8f 3d
       -0.010308597 -0.13837755 0.12609662 0.06985858
000190 a8 3c 00 be 20 84 06 3e c6 17 31 3e 65 d9 25 be
       -0.12523139 0.13136339 0.17294225 -0.1619621
0001a0 dd b9 96 bd 15 de 49 bd 08 e5 bf bd 7a 62 d5 bc
       -0.07359669 -0.04928406 -0.09369856 -0.026047934
0001b0 09 0b f5 bd 02 11 af bc dc c9 70 3d f1 58 8b 3d
       -0.119649954 -0.021370415 0.058786258 0.068040736
0001c0 ee d4 80 bc 6e 5a ee bd 4c 3c d0 bd c7 99 27 3e
       -0.015726533 -0.11638342 -0.10167751 0.16367255
0001d0 76 5f 0c bc 6b c8 f3 bd 83 7a 6a bc 61 1a c5 3d
       -0.008567682 -0.11903461 -0.014311436 0.09624172
0001e0 d9 57 77 3c c5 ae 46 be 52 f8 cc ba 3d 80 33 3d
       0.015096628 -0.19402607 -0.001563797 0.04382347
0001f0 e0 3f 87 3d e8 64 bb 3b 3c a6 d9 bc 10 57 f7 bd
       0.0660398 0.005718816 -0.026568525 -0.12077153
000200 4b ae be bb d4 31 70 3d b7 80 d2 be 74 d6 3f 3e
       -0.005819117 0.05864127 -0.41113827 0.18734151
000210 9c 17 d1 bc cc 2e dd bd 53 2d ab 3c 14 27 c9 bd
       -0.025523953 -0.107999414 0.020895636 -0.09821907
000220 c8 19 1f 3e 5f fb 3a be ec 9c 64 3d c3 c3 fc bb
       0.15537179 -0.18259953 0.055813715 -0.0077137663
000230 77 33 b5 be 63 03 f2 bd 41 be f8 bc e9 96 ef bd
       -0.35390827 -0.11817052 -0.030364158 -0.11698706
000240 00 56 10 be 79 db 67 be c8 cf e2 be d7 fe a7 bd
       -0.14095306 -0.22642316 -0.4429915 -0.08202904
000250 83 96 17 3d 95 1f e8 bb 6b 73 3b 3d 20 50 09 3c
       0.037008774 -0.007083843 0.045764368 0.00838092
000260 f8 f6 b4 3e 79 c8 ba bd 93 13 36 be ab ac d2 bd
       0.35344672 -0.091202684 -0.17780904 -0.1028684
000270 7e 37 5c ba 3e 72 8c bd 36 4b c3 3c c7 bc 92 3d
       -0.0008400603 -0.068577275 0.023839574 0.07164913
000280 29 5f dd 3d 82 52 48 3e 73 b6 8f be ef 92 82 3d
       0.10809166 0.19562724 -0.28068885 0.063756816
000290 7e 2c 08 bc 8a 82 e2 3d 87 33 aa be d5 0d f2 bd
       -0.008311389 0.110600546 -0.33242437 -0.118190445
0002a0 c2 13 86 3c b6 b7 e3 3d 95 e4 c9 be 95 82 ef 3d
       0.016366843 0.111190245 -0.39432207 0.116948284
0002b0 7b c4 9a bb 0f 85 24 bb fb a5 f6 3d df cb ac bd
       -0.0047231293 -0.0025103723 0.12043377 -0.08437323
0002c0 31 17 08 be 4f c5 3c bf c3 da 6c 3e fc 23 b5 3c
       -0.13290097 -0.7373857 0.23130326 0.022111885
0002d0 89 d0 a5 be 8a db 62 3d fc 31 ca 3d e1 b4 04 3d
       -0.32385662 0.05538515 0.09872815 0.032399062
0002e0 bb 1d 39 3e de ee 09 3e cd e9 26 3d 1c cb bb 3c
       0.18077748 0.13470027 0.040750314 0.022923999
0002f0 95 b3 00 bd c3 a1 f4 bd 88 89 81 be 18 cf 48 bd
       -0.031421263 -0.11944916 -0.2530024 -0.049025625
000300 a6 d7 9c 3d 7b 64 28 3d 5a b2 3c 3e 93 51 d8 bc
       0.07658319 0.04111145 0.1842741 -0.026406085
000310 36 7d 3a be 98 61 e0 3d 7d 44 a9 3d 74 5e 94 3e
       -0.18211827 0.109561145 0.08265016 0.28978312
000320 fa 83 13 be a9 ee 0c 3e 01 13 b7 3c 5c 7f 23 bc
       -0.14405814 0.13762917 0.022347929 -0.009979095
000330 ca 98 ff 3d 51 b1 a4 3d e1 31 37 3d 5f d6 13 3e
       0.12480314 0.08041633 0.044725303 0.14437245
000340 be c8 63 3d 0a 85 26 bd aa 45 13 3d ff aa 7b bd
       0.055611365 -0.04065422 0.03595511 -0.06144237
000350 4f 7b 5a 3e 76 4f 06 bc 4e aa 35 be e9 2f 4e 3e
       0.21336101 -0.008197656 -0.17740747 0.20135464
000360 dd ad 5b bd 94 bf b1 3c b3 95 1b be 84 1b 42 bd
       -0.053632606 0.021697797 -0.15193824 -0.047389522
000370 4c 47 ba 3c b5 b5 77 bc 75 52 d2 bc 94 0e 16 bd
       0.022739075 -0.015119006 -0.025674084 -0.036634997
000380 0d ce 7f 3e 88 9b 04 3e 74 28 4d 3d 45 c6 31 be
       0.24980946 0.12949955 0.050087407 -0.1736079
000390 ef 77 22 3d e4 84 b6 3d 25 98 7d be aa 8e a8 bd
       0.03966516 0.089120656 -0.2476507 -0.08230336
0003a0 a7 83 23 3e d0 21 04 bc 2d c3 ca be 6a 70 60 bd
       0.1596819 -0.008064702 -0.39602032 -0.054794706
0003b0 eb b3 ab 3d 1a 2a 59 be 6c fd 86 3d 93 94 62 bd
       0.08383926 -0.21207467 0.06591305 -0.055317473
0003c0 7c c5 d9 bd 29 d3 21 bd f3 90 08 be ec 6a ef 3d
       -0.1063337 -0.03950802 -0.13336544 0.116903156
0003d0 8a 51 58 be 72 3d 47 be 0a 06 7d be fc ec 0b 3e
       -0.21124855 -0.19457033 -0.24709335 0.13664621
0003e0 e2 e2 01 bd 34 4b df bd 5b ad 06 bd ec f0 3e be
       -0.031710513 -0.10903016 -0.03288017 -0.18646592
0003f0 fd 62 1f 3e dc 0b 94 bd 12 f8 0d be 40 57 6c 3d
       0.15565105 -0.072288245 -0.13864163 0.057700396

fc2.bias f4 [256]
000000 b8 90 8a bd e7 eb 0c 3e 4a 8f c2 bd f8 a0 5c 3d
       -0.06765884 0.13761865 -0.094999865 0.05386445
000010 6d c8 0d 3e 8a 45 88 bd 9e 0c 4b 3e ae 74 66 3d
       0.13845988 -0.066538885 0.19829032 0.05626362
000020 5c de 3d 3e 09 0e 79 3e a0 c9 bf 3d 61 b2 f8 bd
       0.18541855 0.2432176 0.09364629 -0.12143398
000030 31 96 29 3e e9 2f 34 be 8f e9 7a bc 5b 59 9c bd
       0.165612 -0.17596401 -0.015314474 -0.07634231
000040 7b 52 aa 3d 99 53 e4 3d 79 10 6c 3e 58 27 91 bd
       0.08316513 0.111487575 0.23053159 -0.07087582
000050 ad 90 b1 3d 39 ed 6f 3d fa 14 f4 bd 69 73 e6 bd
       0.08670173 0.058575843 -0.119180635 -0.112524815
000060 1d 22 7a 3d 96 60 12 3e 25 01 27 3e 99 dd 20 3e
       0.06106769 0.14294657 0.1630903 0.15709533
000070 97 88 9b bd 5e b2 1b bd f8 4d b9 3d 20 d2 12 3e
       -0.07594412 -0.0380119 0.090480745 0.14337969
000080 6a fe 51 bd 34 8e db 3d 66 79 22 3e 0e a5 8f 3d
       -0.05126802 0.107204825 0.15866622 0.070139036
000090 47 10 b7 3d 0e 5c a7 bd db f2 17 3d d1 1b 2f 3d
       0.089386515 -0.08171855 0.03709684 0.042751137
0000a0 3e 35 57 3e e2 94 43 3e e3 71 96 bb c0 70 9b bd
       0.21016404 0.19099763 -0.004591213 -0.07589865
0000b0 99 2e 18 3e e4 7a 06 3e b3 25 e7 bd f6 83 c4 3d
       0.14861526 0.13132817 -0.112864874 0.09595482
0000c0 25 15 13 3e ef 2c c1 bd 17 1a 25 be 66 5b 80 3d
       0.14363535 -0.094323985 -0.16123234 0.06267433
0000d0 b7 b3 65 3d 41 b3 1d 3e 06 fc 9f 3d 74 c9 dd 3d
       0.056079593 0.15400411 0.078117415 0.1082944
0000e0 c3 b5 2a 3e b9 aa ce 3c b6 9e cd bd b6 4e f1 3d
       0.16670899 0.025227891 -0.10040037 0.11782591
0000f0 c6 0f 07 3e d0 c3 3f be 45 9e 31 bd 59 58 cf bd
       0.13189611 -0.1872704 -0.04336383 -0.10124273
000100 26 c5 12 3e 12 db a6 3d ee 6d 07 be 3e 14 0a be
       0.14333019 0.08147253 -0.13225529 -0.13484284
000110 8d 82 e0 bd 94 25 62 3e 61 e3 34 3e 1e d7 5f bd
       -0.109624006 0.22084647 0.17664863 -0.05464851
000120 6d 25 ed 3d 91 0f d3 bd 8d 87 89 3d 89 da d2 bd
       0.11579404 -0.103057034 0.067153074 -0.102955885
000130 9c 03 52 3c ad c7 02 be 63 14 03 bd c0 fa 23 be
       0.012818243 -0.12771483 -0.032001864 -0.16013622
000140 f3 5a 06 be c7 95 49 3e 4c a9 2f be bc 3a 3e 3d
       -0.13120632 0.19686042 -0.17154425 0.046442732
000150 6a 5a e9 bd 17 84 49 3d c6 fa 30 3e ee 43 b0 bd
       -0.11394198 0.049198236 0.17283162 -0.086067066
000160 45 0e d6 bd fc 1e f8 3d 7b b5 dd 3d 94 c3 00 3e
       -0.104519404 0.12115285 0.1082563 0.12574607
000170 ce 0c ef bd 28 95 0e 3e dc 4a f1 3d cd 3b 0c be
       -0.11672364 0.13924086 0.117818564 -0.13694687
000180 97 44 68 3d fe 8b 4d 3e 37 69 3e be f4 43 e5 3d
       0.056706037 0.20072934 -0.18594824 0.11194602
000190 4d 20 04 3d b7 4c b5 bd 80 81 89 3d b8 7a 37 3e
       0.032257367 -0.08852523 0.06714153 0.17917907
0001a0 fc 86 02 3e 6e c1 5f 3e e7 e7 4f be 30 2b a7 3d
       0.12746805 0.21851131 -0.20303307 0.08162534
0001b0 47 ff 51 ba ac aa 69 3d cc a3 2d b8 b1 0f 40 3e
       -0.00080107566 0.05704753 -4.1398962e-05 0.18755986
0001c0 52 eb ea bd ed d1 20 bc 56 27 98 3d 35 79 82 bd
       -0.11470665 -0.009815675 0.07429378 -0.06370775
0001d0 ab a7 aa 3d 11 ea 0d bd b7 86 e9 bd 1c 5f 85 bd
       0.083327614 -0.03464705 -0.11402648 -0.06512281
0001e0 c6 22 f7 bd f7 ec d0 bd 1b f4 dd 3d 5f 1b 13 3e
       -0.120671794 -0.102014475 0.10837575 0.1436591
0001f0 ec 6d c7 3d 9a 8c dc bd 83 92 04 be a0 24 9e bd
       0.09737763 -0.10769005 -0.12946515 -0.077218294
000200 2c 66 2e 3d 8f 5c a0 bd ea ee e7 3d 12 53 b7 bd
       0.042577907 -0.07830154 0.11324866 -0.08951391
000210 50 09 2f 3e c4 75 85 bd 7e 62 0f 3e 7c 76 95 bd
       0.17093396 -0.06516603 0.14002416 -0.0729799
000220 d1 19 98 3d 8f e6 8f bd 66 63 4c 3d 04 e6 e1 3c
       0.07426799 -0.070263974 0.04989948 0.0275755
000230 36 59 39 3e e3 9a 05 be 58 c6 32 3e c3 ec f3 bd
       0.18100438 -0.13047366 0.17458475 -0.11910393
000240 44 f8 eb bd 82 13 24 be f9 18 22 be 1d 25 6f 3e
       -0.11521962 -0.16023067 -0.15829839 0.23354001
000250 f8 b5 cd 3d 67 75 bc 3d 61 1c a1 bd c6 f7 e0 3c
       0.100444734 0.0920208 -0.07866741 0.027461898
000260 5c 22 42 3c 36 14 6a bd 65 ad b7 3d d6 38 b5 bd
       0.011849012 -0.05714818 0.08968619 -0.08848731
000270 bd 7d 9e 3d a2 22 c2 bd 31 91 ab 3d 14 cd 1c 3e
       0.077388264 -0.09479262 0.083773024 0.15312606
000280 56 f5 35 be 57 69 b9 3d 26 d4 c2 bc 78 83 3d 3d
       -0.1776937 0.09053295 -0.0237828 0.046267956
000290 a9 53 c3 bd 19 d9 c9 3d 83 06 dd bd 6a 6e 1e be
       -0.09537441 0.09855861 -0.10792258 -0.15471807
0002a0 ca 7d ae 3d fc da e4 bd 50 b5 51 bd 2f 68 8c bd
       0.08520086 -0.111745805 -0.051198304 -0.06855809
0002b0 b6 f7 4a 3d 29 46 65 bd 44 34 db bd 3c b6 f9 3c
       0.04955264 -0.055975113 -0.10703328 0.030482404
0002c0 6a 61 9d bd e0 37 f1 bd 59 a5 8e bd 18 07 fa 3d
       -0.07684596 -0.117782354 -0.06965131 0.12208384
0002d0 9c 0c 0e 3e 8d 89 7e 3e 64 bb 0a be bc ac 16 be
       0.13871998 0.24857159 -0.13548046 -0.1471433
0002e0 72 11 a6 3d c0 d8 46 be fc d0 8c bd 15 ce 88 bd
       0.08108796 -0.19418621 -0.06875798 -0.06679932
0002f0 c1 cb e5 bd 3b 82 85 3c 2e e1 2a 3e 22 8b f5 bd
       -0.112205036 0.01629745 0.16687462 -0.11989428
000300 04 6c b7 bd 48 12 0d 3d 7f d3 ac bd 62 26 08 be
       -0.08956149 0.034441262 -0.08438777 -0.13295892
000310 01 44 c7 3d 5d 15 1f be 80 ee 54 3c 58 67 8a 3d
       0.097297676 -0.15535493 0.012996316 0.067579925
000320 8b 06 8c bd d2 0e f7 bc 21 49 cc bd 8e d2 6a 3e
       -0.068371855 -0.030158434 -0.09974886 0.22931883
000330 6f cc 3f 3d 4e 51 e5 bd ad 01 0d 3e 54 5c d1 3d
       0.046825822 -0.11197148 0.1377017 0.10222688
000340 c2 78 9b bd d3 32 a1 3d 98 12 f5 bd 37 b3 7e bd
       -0.07591392 0.07871022 -0.11966437 -0.06218263
000350 40 64 b9 bd 6d 1b 4f 3e c5 dc e0 bc 87 20 46 be
       -0.09052324 0.20225306 -0.027449021 -0.19348346
000360 d2 09 5f be 8a 5e 8c 3d 1b e5 41 3e 62 43 80 3d
       -0.2178109 0.068539694 0.18935053 0.06262852
000370 d4 40 31 3e c5 f4 54 3d 5c 2c 00 3e be 3c fe 3d
       0.17309886 0.051991243 0.12516922 0.124139294
000380 cb d0 1c be f9 81 ae bd 9b 14 31 3e 84 fe 5a 3e
       -0.15314023 -0.08520884 0.17293017 0.21386153
000390 e4 e0 1f 3e 3d bc db bd cd c8 d0 bd e0 c2 e4 3d
       0.15613133 -0.10729263 -0.1019455 0.11169982
0003a0 43 26 dd bd db 47 26 3e cb 80 1e 3e 4c b3 a5 bd
       -0.107983135 0.16238348 0.15478818 -0.08090839
0003b0 73 4a 95 bd 87 97 2b be 4c a3 3b 3e 9d 1a 0a 3e
       -0.07289591 -0.16757022 0.18324012 0.13486715
0003c0 b5 f3 0d bd a4 90 2b 3e 5a ed 54 3e e5 03 a5 3d
       -0.034656245 0.16754395 0.20793667 0.080573834
0003d0 9b 5b 18 3e 18 99 18 3e 07 1e 2c bd 20 73 a7 3d
       0.14878695 0.1490215 -0.042020824 0.08176255
0003e0 0b 85 78 3d d9 11 fb bd c2 98 90 3d df dd f8 3d
       0.060673755 -0.122592635 0.07060386 0.121516936
0003f0 9c 3c b4 bd 32 dd 8c 3d 3e 95 16 3e 1a 69 1e 3e
       -0.08800623 0.06878127 0.14705369 0.1546978

fc3.weight f4 [1, 256]
000000 9a 31 07 be b2 62 9f 3d a9 aa 8a bd 9e 49 af 3d
       -0.13202515 0.077824965 -0.06770832 0.08558963
000010 fa 2f 70 3d 71 c9 a0 bd 42 89 8c 3d d1 a6 8e 3d
       0.058639504 -0.07850922 0.06862117 0.069654115
000020 21 04 88 3d 0a 3c a4 3d d5 b2 c6 3d 33 85 9e bd
       0.066414125 0.08019264 0.09702078 -0.077402495
000030 c7 4c 7c 3d e7 32 9d bd 6c bd 60 3e 12 36 3d bd
       0.061596658 -0.076757245 0.21947259 -0.046194144
000040 c1 a2 d0 3d 94 ee 96 3d 8a 2c ab 3d d0 6a 9b bd
       0.10187293 0.07369724 0.083581045 -0.07588732
000050 fa fe a0 3d f7 c1 a2 3d 9f 98 96 bd e2 59 bc bd
       0.07861133 0.07947152 -0.07353329 -0.09196831
000060 ca ad 3a 3d 95 8f a9 3d 73 0a 6c 3d 82 49 6a 3d
       0.045575894 0.08279339 0.057627153 0.05719901
000070 b3 eb 80 bd 2c fd 81 bd 61 ae 09 3e d4 e4 34 3d
       -0.06294956 -0.06347117 0.13445427 0.04416354
000080 26 7a 05 be b8 6a ae 3d e3 b4 93 3d eb aa 90 3d
       -0.13034877 0.08516449 0.07212236 0.0706385
000090 dd c6 8d 3d e1 22 fa bd 5e 83 ae 3d b1 b7 44 3e
       0.06922696 -0.12213684 0.0852115 0.19210698
0000a0 92 87 9d 3d ae f6 8c 3d 00 90 04 3e eb 9a d6 bd
       0.076918736 0.06882988 0.12945557 -0.10478767
0000b0 17 32 2f 3e 57 a9 d2 3d 2a 3b 53 bd 63 a4 9e 3d
       0.17108952 0.10286205 -0.051570095 0.07746198
0000c0 fa a6 8a 3d 93 e3 9e bd 07 d5 a6 bd 5b 19 02 3e
       0.067701295 -0.0775825 -0.081461005 0.12704985
0000d0 b4 65 be 3d 54 b7 62 3d 10 a1 93 3d 9d 4b e1 3d
       0.09296742 0.055350617 0.072084546 0.1100075
0000e0 b2 a1 b6 3d 9e 94 4f 3e 8a a7 ab bd d0 37 97 3d
       0.0891756 0.20271537 -0.08381565 0.07383692
0000f0 27 a9 6d 3d b7 04 ec bd 67 3e 95 bd df 30 80 bd
       0.058022644 -0.11524337 -0.07287293 -0.062593214
000100 b7 82 8a 3d c2 aa 26 3d c1 6a 4c bd 91 3c 9a bd
       0.06763213 0.04069019 -0.049906496 -0.075310834
000110 30 5b 6f bd 2e 4c 7a 3d 9b e3 24 3d 4a 85 06 be
       -0.058436573 0.061107807 0.040256124 -0.13136783
000120 2c d5 90 3d c1 bd d6 bd 7d d5 8b 3d 2d fc 70 3e
       0.07071909 -0.104854114 0.06827829 0.23533697
000130 ba 34 1e 3e 05 5d dd bd d1 fd 83 be 2b 99 a3 bd
       0.15449801 -0.10808758 -0.25779584 -0.07988199
000140 13 e1 cb bd 79 67 91 3d ca ad 01 be e3 40 a2 3d
       -0.09955039 0.07099814 -0.12663952 0.079225324
000150 1e a1 90 bd 0d 03 7d 3d c9 24 9f 3d 8c 42 9b be
       -0.07061981 0.061770488 0.07770688 -0.3032421
000160 7e fc aa bd a6 1c be 3d 9e e2 55 3d fd ac 7b 3d
       -0.0834894 0.09282808 0.052218072 0.06144427
000170 c4 51 a0 bd 89 58 42 3d 3d 60 9b 3d a8 22 b0 bd
       -0.078280956 0.047447715 0.07586715 -0.0860036
000180 d0 44 9a 3d c0 69 86 3d 65 37 92 bd aa 2b 52 3e
       0.07532656 0.06563139 -0.07139472 0.20524469
000190 2a 9a fa 3d 8b 2e ae bd fe 84 a8 3d 0a 95 af 3d
       0.12236436 -0.08504971 0.08228491 0.08573349
0001a0 60 62 71 3d 0a b1 86 3d 1b 8b 0d be 91 1e 25 3e
       0.05893171 0.06576736 -0.13822596 0.16124941
0001b0 7b 40 cb bd 41 48 a1 3d f1 a2 7e 3e 01 e1 56 3d
       -0.09924408 0.078751095 0.24866845 0.052460674
0001c0 28 8a 9f bd db 92 7c 3e 9b 7c b0 3d ce d3 8a be
       -0.07790023 0.24665396 0.086175166 -0.2711472
0001d0 bb 92 0a 3e c5 0a 73 3e 4d ef 20 be e1 f2 85 bd
       0.13532536 0.23734577 -0.15716286 -0.06540466
0001e0 6b bc 91 bd f9 70 c8 bd 18 26 3b 3d c7 a0 a8 3d
       -0.07116016 -0.09787173 0.045690626 0.08233791
0001f0 3f d4 75 3d 0e d5 a8 bd 16 00 57 bd b7 68 c2 bd
       0.060016867 -0.08243762 -0.052490316 -0.09492629
000200 24 63 93 3d bb ed 0f be 9b 0c 7d 3d 43 b0 95 3e
       0.07196644 -0.1405553 0.0617796 0.2923604
000210 6b f1 c1 3d 58 d5 2c be c2 40 62 3d 4c fa 99 bd
       0.09469875 -0.16878259 0.05523754 -0.075184435
000220 62 bb bc 3d aa 15 a4 bd dd 17 a9 3d a8 33 65 3e
       0.09215428 -0.080119446 0.08256505 0.22382987
000230 79 9b 75 3d ee b3 b0 be b8 f1 85 3d af b4 de bd
       0.059962723 -0.34512275 0.06540245 -0.108743064
000240 c0 d7 b1 bd f4 66 44 3e f6 d6 82 be 13 db 93 3d
       -0.08683729 0.19179899 -0.25554627 0.072195195
000250 04 11 ca 3d b6 a7 44 3d 3c e6 48 bd de 59 f5 3d
       0.09866527 0.048011504 -0.049047694 0.119800314
000260 7c 00 93 3e d0 64 0f be 8b 10 d4 3d 01 9a f5 bd
       0.28711307 -0.140033 0.10354718 -0.119922645
000270 68 67 07 3e 5b ec bd bd 0c 8c 90 3d 4c 72 bc 3d
       0.1322304 -0.09273597 0.07057962 0.09201488
000280 06 da 80 bd 8e f9 cd 3d 3d 20 83 3e 1c 99 8c 3e
       -0.06291585 0.100573644 0.25610533 0.27460563
000290 ab 6e 4b bd ee 40 87 3d 77 3d f6 bd df 3f ce bd
       -0.049666088 0.06604181 -0.12023442 -0.10070776
0002a0 e7 24 9a 3d 59 0b 81 bd dd 6c 47 3e 7c 0a 35 bd
       0.0752657 -0.063009925 0.19475122 -0.04419945
0002b0 b4 cd 09 3e 11 7e b6 bd 71 4c 8d bd 52 5a 22 3e
       0.13457376 -0.08910764 -0.06899346 0.15854767
0002c0 26 fa 19 be ec af 60 bd 2b 12 5e be c9 ed 5f 3d
       -0.1503683 -0.054855272 -0.21686618 0.05467013
0002d0 c5 16 73 3d fe e3 b8 3d fb e0 aa bd d1 f1 13 be
       0.059347887 0.09027861 -0.08343693 -0.14447714
0002e0 cc 24 2d 3e 1d ba 84 bd 72 8e 64 3e ea 2b 64 bd
       0.16908568 -0.06480811 0.22319964 -0.055705942
0002f0 a4 d9 b7 bd 98 36 63 3e d5 99 37 3d d2 a7 07 be
       -0.089770585 0.22188795 0.04482444 -0.13247612
000300 e5 87 a9 bd 11 69 ce 3d 31 26 e0 bd 7c 09 33 be
       -0.08277873 0.100786336 -0.109447844 -0.17484087
000310 a4 9b 8d 3d 0a c1 c9 be 08 f8 7d 3e a4 5f a7 3d
       0.06914452 -0.3940509 0.24801648 0.08172539
000320 c6 e5 aa bd db 0f df be 17 fc eb be 73 66 df 3d
       -0.08344607 -0.43566784 -0.46090767 0.109082125
000330 10 ba 90 3e d6 1a 8b be d6 9f 8a 3d df 14 76 3d
       0.28266954 -0.27168912 0.067687675 0.060078498
000340 e7 ce 54 be ef 9d a0 3d 25 ba 89 bd b7 19 4b be
       -0.20782052 0.078426234 -0.067249574 -0.19834028
000350 1f 84 7a be 79 92 94 3d 34 7e 83 bd 80 b9 d7 bc
       -0.24464463 0.072545 -0.06420556 -0.02633357
000360 ba fb 92 be 23 27 bc 3d 18 e3 99 3d f9 45 96 3d
       -0.28707677 0.09187152 0.07514018 0.07337565
000370 2d 57 a1 3d b5 54 84 3d a8 cb bc 3d d8 30 69 3d
       0.078779556 0.06461469 0.09218532 0.056931347
000380 04 5d 88 be 13 2d 38 be 4c 4f 57 3d e0 93 b5 3d
       -0.26633465 -0.17985944 0.052565858 0.088660955
000390 67 6e 49 3d f4 07 f3 bd d0 2d e0 bd 0f 0e a2 3d
       0.049177554 -0.11866751 -0.10946238 0.07912838
0003a0 6d ef b8 bd e7 97 66 3d 15 a8 3a 3d f9 4a ca bd
       -0.09030042 0.05629721 0.04557045 -0.09877581
0003b0 75 9a ea bd 72 30 b1 bd 37 fb 71 3d 1e c2 66 3d
       -0.114552416 -0.08651818 0.059077468 0.05633747
0003c0 d0 da 97 bd 4f 0e 7a 3d 53 c1 7a 3d 55 ca ff 3d
       -0.07414782 0.061048802 0.061219525 0.12489764
0003d0 c8 9f af 3d 0d f1 72 3d d9 df 53 be c2 4d a9 3d
       0.08575398 0.059311915 -0.2069086 0.08266784
0003e0 d2 48 8f 3d 01 68 88 bd 27 b6 8e 3d f9 f9 5d 3d
       0.06996311 -0.06660462 0.069683366 0.05419347
0003f0 76 ba 41 bd e3 66 a4 3d 6e c0 93 3d 85 d0 a0 3d
       -0.047296964 0.080274366 0.072144374 0.07852272
