checkpoint_critic.pth (torch_old, 601110 bytes, 5 tensors)

fcs1.weight f4 [512, 33]
-0.1546846 0.17487173 -0.10424972 -0.19332181 -0.07519529 -0.5108763 -0.16085917 0.074433275
0.2593678 0.109405145 0.016904898 0.04376309 0.006868873 0.1073571 -0.050768707 -0.03539366
-0.14329061 0.021311717 0.05106512 0.23724246 -0.0050288676 -0.08825994 0.021992113 0.062408444
-0.047488388 0.071827754 -0.13791661 0.1336891 0.026302274 0.020444084 -0.09427701 0.018129244
-0.52199316 -0.17135832 -0.06507742 0.15409218 -0.070275635 0.25241846 -0.4199408 -0.22852583
-0.1255367 -0.2564874 0.03991246 0.008736232 0.031481463 -0.06100128 0.25584835 -0.048235342
-0.11878401 -0.13136083 -0.17113036 0.43738133 0.08462942 -0.0649246 0.060398694 0.042226944
-0.035750177 0.024917364 0.00048359897 -0.11267564 0.29524347 -0.057116568 -0.015329672 -0.29929462
-0.031718276 0.15888105 0.026962114 0.104896255 0.20972967 -0.20818287 -0.371126 -0.3059283
0.17782481 0.05517214 0.33268026 0.0145431245 0.046747815 0.009500737 0.014884166 0.20083064
0.029435735 -0.20089374 0.29776767 0.034480214 -0.5279455 0.09032769 0.038119003 0.011813227
-0.10627223 -0.08892747 0.035415556 0.10182882 -0.15308586 0.11801482 0.07422722 -0.030026669
-0.10257878 0.032770183 -0.008718268 0.12107496 0.112581655 -0.09169574 -0.05914514 -0.027153648
-0.014508765 -0.043050464 0.094635524 -0.17144151 0.06780833 -0.050996903 0.07669684 0.034254808
-0.009635186 0.004382619 0.016025497 -0.109120056 0.06344943 -0.19859016 -0.0047882413 -0.067630775
-0.07043956 -0.04858006 0.037419755 0.037728198 0.0319786 0.071254864 0.11373588 0.10194209
0.0022743605 -0.11205781 -0.010826156 -0.03603067 -0.08832852 0.050899934 0.026199976 -0.049198367
-0.50552684 -0.1304623 -0.1305869 0.076013826 -0.07227649 -0.024529113 -0.12870525 0.03538801
-0.16417985 0.09996919 0.11778716 0.0804055 0.0782076 0.3127717 0.04758232 0.01107112
0.008537267 0.040843874 0.113174796 -0.13910773 0.05553727 0.10078415 0.02307453 0.29515445
-0.15409324 -0.0081390515 -0.35956973 -0.006976709 -0.3487057 -0.0836461 -0.073628135 -0.039848946
0.05695441 -0.010932458 -0.09985238 -0.16639692 0.027371509 0.013373248 -0.017105557 0.0048392913
-0.024178727 0.010557833 0.101319075 0.05148034 -0.062623344 -0.018101204 -0.018258577 0.1338663
0.050598077 0.019067196 0.0071062804 0.02182281 -0.03286117 -0.020283515 -0.020474415 0.09391918
-0.03339618 0.003660314 0.0049028434 0.03620624 -0.013296751 0.09372651 0.11310426 0.016553711
-0.120682634 -0.22414885 0.2263398 0.064815655 0.09225062 -0.05088681 0.14934438 -0.12853245
0.06221989 0.035452574 -0.09893299 -0.097933516 -0.015300198 0.06166903 -0.17429465 -0.22009794
0.14368348 -0.09445432 0.048090186 0.034502376 -0.045015894 -0.072052315 -0.055334218 -0.030452952
0.083717264 0.14164707 0.0283951 0.015401226 -0.12291017 0.00743185 -0.42606398 0.004803297
0.27815422 0.13476318 0.035775524 -0.071834855 -0.56015533 0.23133886 -0.043689873 -0.22799833
0.0934554 -0.021876547 0.0057026334 0.069312 0.013356922 -0.117482185 0.13292077 0.009810861
-0.2793406 0.6791788 0.4647566 0.0861749 -0.10402783 -0.03981191 -0.025239194 0.054114647
00000000: a465 1ebe 9311 333e e180 d5bd 27f6 45be
00000010: fdff 99bd cac8 02bf 44b8 24be 7970 983d
00000020: dbcb 843e ce0f e03d 247c 8a3c ed40 333d
00000030: 4814 e13b 0ade db3d d9f2 4fbd f1f8 10bd
00000040: c6ba 12be e995 ae3c a929 513d b0ef 723e
00000050: 33c9 a4bb a1c1 b4bd ce28 b43c ff9f 7f3d
00000060: 2f83 42bd 6e1a 933d 033a 0dbe cce5 083e
00000070: de77 d73c 5a7a a73c 4e14 c1bd c883 943c
00000080: 58a1 05bf 8e78 2fbe 4f47 85bd 57ca 1d3e
00000090: acec 8fbd fe3c 813e 7b02 d7be ad02 6abe
000000a0: b18c 00be 5152 83be 3f7b 233d 6a22 0f3c
000000b0: b5f2 003d 7adc 79bd 8efe 823e 6c92 45bd
000000c0: 0845 f3bd 7483 06be cc3c 2fbe 72f0 df3e
000000d0: 3052 ad3d 30f7 84bd 9f64 773d 29f6 2c3d
000000e0: c76e 12bd 801f cc3c 8e8b fd39 7cc2 e6bd
000000f0: 272a 973e 10f3 69bd 4e29 7bbc 253d 99be
00000100: 06eb 01bd b7b1 223e a7df dc3c d9d3 d63d
00000110: 60c3 563e e42d 55be 3a04 bebe a2a2 9cbe
00000120: b517 363e 2ffc 613d 1155 aa3e 4946 6e3c
00000130: a37a 3f3d fba8 1b3c b8dc 733c 8ca6 4d3e
00000140: 3623 f13c 17b7 4dbe 0175 983e 203b 0d3d
00000150: 7027 07bf b9fd b83d ac22 1c3d 448c 413c
00000160: 41a5 d9bd 9b1f b6bd e70f 113d a18b d03d
00000170: 8ac2 1cbe c1b1 f13d 7104 983d 7dfa f5bc
00000180: d314 d2bd 073a 063d 11d7 0ebc 26f6 f73d
00000190: 3691 e63d faca bbbd 2d42 72bd 5471 debc
000001a0: 2cb6 6dbc af55 30bd 45d0 c13d 5d8e 2fbe
000001b0: 18df 8a3d 21e2 50bd 3c13 9d3d c54e 0c3d
000001c0: e6dc 1dbc 139c 8f3b e747 833c 567a dfbd
000001d0: c6f1 813d 385b 4bbe aee6 9cbb 0182 8abd
000001e0: 9e42 90bd e3fb 46bd 7545 193d e288 1a3d
000001f0: fefb 023d 12ee 913d 5bee e83d 04c7 d03d
00000200: 700d 153b 917e e5bd 3060 31bc e594 13bd
00000210: 95e5 b4bd 737c 503d 55a1 d63c 3a84 49bd
00000220: 356a 01bf e997 05be 93b8 05be 23ad 9b3d
00000230: b205 94bd 47f1 c8bc 4fcb 03be 05f3 103d
00000240: c31e 28be a6bc cc3d 653a f13d a4ab a43d
00000250: 4e2b a03d 9d23 a03e aee5 423d a563 353c
00000260: e5df 0b3c e84b 273d 30c8 e73d 4272 0ebe
00000270: 0c7b 633d ec67 ce3d cc06 bd3c 7c1e 973e
00000280: 9eca 1dbe a859 05bc 8619 b8be e09c e4bb
00000290: 8e89 b2be a54e abbd 59ca 96bd a638 23bd
000002a0: 0749 693d 0d1e 33bc 687f ccbd f463 2abe
000002b0: 373a e03c 781b 5b3c f420 8cbc eb92 9e3b
000002c0: 7712 c6bc c3fa 2c3c 6080 cf3d 0ddd 523d
000002d0: ab40 80bd fa48 94bc 0393 95bc 3f14 093e
000002e0: ee3f 4f3d cf32 9c3c cddb e83b c0c5 b23c
000002f0: 6f99 06bd 9d29 a6bc f6b9 a7bc b358 c03d
00000300: 6fca 08bd e1e1 6f3b 08a8 a03b ff4c 143d
00000310: 9eda 59bc aff3 bf3d 35a3 e73d a69b 873c
00000320: 7528 f7bd 4787 65be 9fc5 673e 12be 843d
00000330: e5ed bc3d b06e 50bd bced 183e 039e 03be
00000340: 49da 7e3d b836 113d 619d cabd 5e91 c8bd
00000350: afad 7abc aa98 7c3d 4c7a 32be 5b61 61be
00000360: c321 133e 4471 c1bd 37fa 443d 5d52 0d3d
00000370: 9662 38bd 2a90 93bd 22a6 62bd 7878 f9bc
00000380: f573 ab3d ee0b 113e d79c e83c 6c55 7c3c
00000390: 54b8 fbbd e086 f33b 0f25 dabe fa64 9d3b
000003a0: 3b6a 8e3e 5cff 093e 5b89 123d 271e 93bd
000003b0: 5766 0fbf 18e4 6c3e 27f4 32bd 6578 69be
000003c0: 8b65 bf3d 7236 b3bc 28dd ba3b 73f3 8d3d
000003d0: fed6 5a3c 809a f0bd 621c 083e bcbd 203c
000003e0: bb05 8fbe a9de 2d3f 94f4 ed3e 777c b03d
000003f0: 8b0c d5bd d011 23bd 6dc2 cebc 52a7 5d3d

fcs1.bias f4 [512]
-0.18730795 -0.40343553 -0.25861922 -0.1322887 -0.43176976 -0.116849154 0.025919678 -0.36444986
-0.23421338 0.044533156 -0.3133672 -0.17623898 -0.23829025 -0.27645814 -0.17809652 -0.20655534
-0.18654077 -0.060033787 -0.12609021 -0.015704427 -0.32150948 0.04082682 -0.23141831 -0.23380315
-0.015469413 -0.009084521 0.121202454 -0.09478607 -0.19730607 -0.06177681 -0.11092175 -0.027177759
0.07245753 -0.15046567 -0.1981575 -0.08001005 -0.042317472 -0.30616066 0.05351549 -0.13588658
-0.030143593 0.005656393 -0.20408389 -0.45465633 -0.3101633 -0.4077875 -0.1404206 -0.18068498
-0.14122054 -0.54522276 0.011396913 -0.12006937 0.010349484 -0.30530024 -0.19321743 -0.05171364
-0.22401895 -0.307284 -0.035659276 -0.26461953 -0.3994266 -0.25143677 -0.29603425 -0.11168847
0.03569955 0.025808863 -0.2694396 -0.14386047 -0.055617597 -0.21783924 -0.26824987 -0.1963458
-0.10700027 0.039655916 -0.1562123 -0.0870458 -0.21373808 -0.079253025 -0.03740824 -0.1977004
0.07233789 -0.12879212 -0.20132536 -0.1272762 0.15851039 -0.2446915 -0.06937149 -0.11868176
-0.18183468 0.04068588 -0.15338928 -0.11771242 -0.071783535 -0.14884967 -0.06670911 -0.29793426
-0.043340452 -0.16860327 -0.01637194 0.019824322 -0.1396478 0.018481178 -0.036429536 -0.11748674
-0.38673943 -0.15508653 -0.34459236 -0.17222385 -0.18240157 -0.36286098 -0.05721101 -0.06538847
-0.10854684 -0.2020526 -0.070870474 -0.10284664 -0.19755766 -0.27172944 -0.13770668 -0.22857158
-0.16848445 -0.030863315 -0.1511619 -0.11521492 -0.21506742 0.08858838 -0.040039282 -0.0042021177
-0.18739279 0.029430712 -0.19879948 0.017008819 -0.15297003 -0.4429142 0.033179708 -0.1250672
-0.008058804 -0.014182205 0.04043282 -0.37073493 -0.042980764 -0.15572622 -0.07376742 -0.39493468
-0.30840012 -0.22668889 -0.18323426 -0.1763499 -0.12258077 -0.1658949 -0.255479 -0.5598124
0.050724167 0.028399121 -0.12521704 -0.011052307 -0.051964965 -0.32557067 -0.14943194 -0.09856268
-0.07265134 -0.050900564 -0.3165296 -0.047276173 -0.20215456 -0.077214316 -0.29179576 -0.074475236
-0.17776099 -0.2550677 -0.29562134 -0.09286388 -0.083278656 -0.03895365 -0.07785262 -0.31207755
-0.23865305 -0.077337414 0.020063711 -0.40266103 -0.16928186 0.044794407 0.01475761 -0.2521872
-0.44450694 0.14657168 -0.26403466 -0.15157978 -0.19331522 -0.13910596 -0.2115222 -0.28050736
-0.17328012 -0.16012612 -0.27220574 -0.10495805 -0.55598235 -0.105120525 -0.084126346 -0.14933702
-0.13125934 -0.1802989 -0.3109626 0.021924984 0.062410112 -0.0450464 -0.16132034 -0.23501687
-0.013291247 0.051722996 -0.30216935 -0.27039468 -0.18990916 -0.039570823 -0.39541125 -0.2276379
-0.12253328 -0.16109355 -0.37039128 -0.1146754 -0.092225164 -0.15850043 -0.19643466 -0.3206162
-0.059953406 0.023923652 -0.23674604 -0.021520551 -0.18225507 -0.022487694 -0.30208683 -0.039654367
-0.21527848 0.014473533 -0.4039295 0.14404137 -0.32014844 -0.12556154 -0.18770571 -0.566424
-0.10084367 -0.29589328 -0.29912993 -0.061499912 -0.15620545 -0.21664338 -0.20820701 -0.10194724
-0.084301665 0.031724673 -0.29713646 -0.19647911 -0.18433702 -0.074700505 -0.32890004 -0.2307694
00000000: a8cd 3fbe 1a8f cebe bd69 84be b076 07be
00000010: ed10 ddbe 9c4e efbd 8155 d43c 2c99 babe
00000020: a2d5 6fbe 6668 363d aa71 a0be fe77 34be
00000030: 5c02 74be ec8b 8dbe ef5e 36be 3e83 53be
00000040: 8b04 3fbe fde5 75bd cb1d 01be 92a6 80bc
00000050: e49c a4be 063a 273d ecf8 6cbe 186a 6fbe
00000060: 6c73 7dbc 3ed7 14bc fe38 f83d 331f c2bd
00000070: 9a0a 4abe ae09 7dbd f12a e3bd e4a3 debc
00000080: 9d64 943d ac13 1abe cde9 4abe 4fdc a3bd
00000090: 1655 2dbd 17c1 9cbe 0f33 5b3d da25 0bbe
000000a0: b2ef f6bc 4359 b93b 5efb 50be b7c8 e8be
000000b0: b9cd 9ebe 86c9 d0be 6bca 0fbe 7c05 39be
000000c0: 1e9c 10be b893 0bbf 1eba 3a3c eee6 f5bd
000000d0: e290 293c 5050 9cbe cada 45be afd1 53bd
000000e0: 3965 65be 5454 9dbe 760f 12bd 367c 87be
000000f0: a581 ccbe 52bc 80be cd91 97be edbc e4bd
00000100: b139 123d 1c6d d33c fdf3 89be 2950 13be
00000110: 47cf 63bd 4011 5fbe 0c58 89be e00e 49be
00000120: f522 dbbd 3e6e 223d 1ef6 1fbe 1245 b2bd
00000130: 28de 5abe 694f a2bd 6239 19bd f971 4abe
00000140: e325 943d 15e2 03be 3c28 4ebe b154 02be
00000150: 8c50 223e 6990 7abe a412 8ebd 6c0f f3bd
00000160: df32 3abe 3da6 263d 1412 1dbe 3613 f1bd
00000170: 3f03 93bd 0c6c 18be c99e 88bd d78a 98be
00000180: c285 31bd 56a6 2cbe 721e 86bc 9e66 a23c
00000190: d5ff 0ebe d765 973c 2337 15bd e39c f0bd
000001a0: b602 c6be 01cf 1ebe 696e b0be 735b 30be
000001b0: 7ac7 3abe eac8 b9be 1856 6abd 64ea 85bd
000001c0: ce4d debd e0e6 4ebe 8a24 91bd 42a1 d2bd
000001d0: 8e4c 4abe 1f20 8bbe fb02 0dbe ab0e 6abe
000001e0: 3087 2cbe 10d5 fcbc 2fca 1abe cdf5 ebbd
000001f0: a23a 5cbe d36d b53d 3b00 24bd ebb1 89bb
00000200: e5e3 3fbe ad18 f13c 1792 4bbe 1456 8b3c
00000210: 2da4 1cbe a6c5 e2be 72e7 073d 9e11 00be
00000220: 1309 04bc 7b5c 68bc e29c 253d f8d0 bdbe
00000230: 990c 30bd b276 1fbe 6013 97bd e134 cabe
00000240: 9fe6 9dbe 2221 68be c3a1 3bbe 1195 34be
00000250: a00b fbbd 5ae0 29be 25ce 82be de4f 0fbf
00000260: 25c4 4f3d 46a5 e83c e538 00be bc14 35bc
00000270: 37d9 54bd 33b1 a6be b004 19be 3bdb c9bd
00000280: 3aca 94bd 1c7d 50bd 2b10 a2be a9a4 41bd
00000290: 9b01 4fbe 8a22 9ebd 4166 95be 7986 98bd
000002a0: fa06 36be 3c98 82be ae5b 97be 6b2f bebd
000002b0: 008e aabd dd8d 1fbd 3271 9fbd a1c8 9fbe
000002c0: 7761 74be 1463 9ebd a75c a43c 9629 cebe
000002d0: 3958 2dbe 577a 373d e7c9 713c ae1e 81be
000002e0: 6a96 e3be e316 163e 8d2f 87be bb37 1bbe
000002f0: 6df4 45be cb71 0ebe 4799 58be a99e 8fbe
00000300: 5870 31be 1af8 23be 8d5e 8bbe 3ff4 d6bd
00000310: dc54 0ebf 6e49 d7bd 6f4a acbd ceeb 18be
00000320: d968 06be 46a0 38be 7d36 9fbe 069c b33c
00000330: bfa1 7f3d 9382 38bd 2931 25be 43a8 70be
00000340: 88c3 59bc 7edb 533d f1b5 9abe 2c71 8abe
00000350: 8c77 42be 0415 22bd 5873 cabe e919 69be
00000360: baf2 fabd b5f5 24be eda3 bdbe f0da eabd
00000370: 8ce0 bcbd f04d 22be 2b26 49be ce27 a4be
00000380: b491 75bd 89fb c33c 8e6d 72be de4b b0bc
00000390: 13a1 3abe 1d38 b8bc 20ab 9abe 9e6c 22bd
000003a0: f671 5cbe 6622 6d3c d9cf cebe 957f 133e
000003b0: 7fea a3be 3493 00be ed35 40be 2a01 11bf
000003c0: 2087 cebd 537f 97be 8f27 99be 55e7 7bbd
000003d0: 52f4 1fbe c3d7 5dbe 3834 55be b7c9 d0bd
000003e0: 5aa6 acbd bbf1 013d 4522 98be d231 49be
000003f0: d8c2 3cbe 94fc 98bd 9665 a8be d04e 6cbe

fc2.weight f4 [256, 516]
0.028960498 0.01826213 0.025764069 -0.058923315 0.083235435 0.026790045 -0.025014604 -0.116940565
-0.00084510876 0.057509087 0.108501196 0.0065262564 -0.050157618 0.0042079953 0.009552785 0.008473565
0.08677652 -0.15211755 0.07351763 -0.036931623 0.09461318 0.029425299 0.04233079 0.116072394
0.062496223 0.054539163 0.014531894 -0.0046696174 -0.15777609 -0.065981135 0.08471219 0.017487185
0.023653783 -0.068473846 -0.16868533 0.1936198 0.06370189 -0.03566724 -0.15905681 -0.12016064
0.101026945 -0.07902635 0.071639754 -0.15691236 -0.041231908 0.10755679 -0.06217316 -0.059583273
-0.1634312 -0.12160538 -0.018516371 -0.020989446 0.004200226 0.11557786 0.003970065 -0.092148036
-0.127857 0.03550746 0.021229496 -0.008318363 -0.077449426 -0.009930384 -0.07473241 0.09047165
-0.028977165 -0.06983607 -0.0696014 -0.16180171 -0.0208746 0.010384239 -0.052539416 0.00802848
-0.0988282 0.059991896 -0.10865042 0.13172857 0.058849614 -0.051734123 -0.044596616 -0.11343753
0.012857602 -0.14904268 -0.03713726 0.100963235 0.109381236 -0.03416285 -0.10258831 -0.009835459
0.035365757 -0.014914906 -0.15449369 -6.3110376e-05 0.033650354 0.015785724 -0.047321647 -0.12276517
0.08602023 -0.11345778 -0.07939803 0.014987324 0.068092376 -0.03842995 -0.09614355 0.009424911
0.051096715 -0.19243748 -0.22504207 0.030523105 0.051853195 -0.07637172 0.052842215 0.021300586
-0.055706065 0.017269203 0.0026934068 -0.06247079 -0.012085294 -0.2921603 -0.091212325 0.091262445
-0.109412365 -0.021450793 -0.009430351 -0.037749726 -0.0398604 0.16425888 -0.08746738 0.12261384
-0.09231727 0.02905753 0.016042516 0.081495024 -0.35763052 0.072944485 -0.05393075 -0.19046101
-0.05743166 -0.16855863 0.07913769 0.1492972 -0.12391042 -0.09975096 -0.040579967 0.08354073
0.15376711 -0.11082129 -0.07304557 -0.017338715 0.10841133 0.008845005 0.081715025 -0.053157914
0.0011617622 -0.03852214 0.06347209 -0.0119384825 -0.054557055 0.103989996 -0.12444055 0.10466505
-0.13630517 -0.106891476 -0.034363747 -0.04651603 0.08769059 0.014967212 0.0239155 0.10804742
-0.035551522 0.16703866 -0.32972965 0.01476033 0.01973084 -0.07096772 0.08505515 -0.034004785
-0.3013099 -0.1438471 0.051658172 0.001386382 0.004319071 0.04905343 -0.035531268 -0.13498566
-0.30438027 -0.087180935 -0.046836756 -0.027765036 0.061316043 -0.1677204 0.3541306 0.036038075
-0.025146604 -0.2944219 -0.08006848 -0.08309048 -0.0572004 0.03477632 0.008422361 -0.00039487978
0.07498145 -0.021456769 -0.042622622 -0.020622527 -0.017676182 0.057566818 0.09865241 0.024983812
-0.012961662 0.082452804 0.14396703 -0.088777035 -0.046594813 -0.09256338 0.0454628 -0.26574963
-0.10057945 0.06418249 0.007880918 -0.084524766 -0.056307808 0.1360591 -0.047868054 0.055230055
0.057439923 -0.098426774 0.08164192 -0.04704898 0.12080238 0.14022382 -0.1711637 -0.055868126
0.06087065 0.040380627 -0.01839858 0.024182249 -0.077341884 -0.03989008 -0.16825794 -0.0006093756
-0.013004961 0.07556951 -0.12709 -0.049550723 -0.068852514 -0.0015453157 -0.07123588 0.0030529383
0.042416677 -0.12879579 -0.09455927 -0.1060325 0.067861415 -0.055051584 -0.097543456 -0.008502398
00000000: 913e ed3c 769a 953c 2b0f d33c 9359 71bd
00000010: 5777 aa3d cc76 db3c 6deb ccbc 897e efbd
00000020: 4a8a 5dba a68e 6b3d e035 de3d 35da d53b
00000030: 1372 4dbd 39e3 893b 4983 1c3c b5d4 0a3c
00000040: e3b7 b13d b4c4 1bbe 6990 963d 9d45 17bd
00000050: 8ec4 c13d 530d f13c 0d63 2d3d 5db7 ed3d
00000060: 0afc 7f3d 7564 5f3d 2e17 6e3c 9703 99bb
00000070: 0e90 21be 1e21 87bd 967d ad3d 4941 8f3c
00000080: 94c5 c13c 043c 8cbd d9bb 2cbe 4544 463e
00000090: 2376 823d d017 12bd cadf 22be c816 f6bd
000000a0: 37e7 ce3d 91d8 a1bd ddb7 923d a2ad 20be
000000b0: cae2 28bd bc46 dc3d 49a9 7ebd 970d 74bd
000000c0: 825a 27be 3e0c f9bd a5af 97bc 0ff2 abbc
000000d0: 0da2 893b 16b4 ec3d 5217 823b 1cb8 bcbd
000000e0: f2ec 02be 4570 113d 7be9 ad3c be49 08bc
000000f0: ce9d 9ebd 0db3 22bc 4e0d 99bd 3349 b93d
00000100: 8561 edbc 3706 8fbd 2e8b 8ebd 59af 25be
00000110: 3601 abbc a822 2a3c 9233 57bd e389 033c
00000120: 7066 cabd 10ba 753d 1d84 debd dbe3 063e
00000130: 4b0c 713d 29e7 53bd f1aa 36bd f051 e8bd
00000140: b1a8 523c a59e 18be 3d1d 18bd d0c5 ce3d
00000150: 4503 e03d 58ee 0bbd d219 d2bd e824 21bc
00000160: afdb 103d a65d 74bc 9833 1ebe 205a 84b8
00000170: f4d4 093d 1051 813c 58d4 41bd 4e6c fbbd
00000180: 602b b03d 8d5c e8bd 6f9b a2bd 658d 753c
00000190: 0474 8b3d b968 1dbd e9e6 c4bd f16a 1a3c
000001a0: ca4a 513d 550e 45be 6e71 66be 970b fa3c
000001b0: 0464 543d c768 9cbd 1471 583d 917e ae3c
000001c0: 0b2c 64bd 2578 8d3c de83 303b 5fe1 7fbd
000001d0: 6601 46bc 0996 95be 87cd babd cee7 ba3d
000001e0: 9713 e0bd 93b9 afbc c281 1abc 759f 1abd
000001f0: a944 23bd 7b33 283e 1922 b3bd f71c fb3d
00000200: d610 bdbd 0f0a ee3c 986b 833c dde6 a63d
00000210: 591b b7be eb63 953d 7de6 5cbd 3608 43be
00000220: 763d 6bbd a29a 2cbe f112 a23d 5de1 183e
00000230: bfc4 fdbd 3b4a ccbd 2e37 26bd 6717 ab3d
00000240: 2075 1d3e 46f6 e2bd ea98 95bd ec09 8ebc
00000250: c206 de3d a4ea 103c 355a a73d 1dbc 59bd
00000260: 4546 983a 64c9 1dbd a8fd 813d a099 43bc
00000270: 3877 5fbd b5f8 d43d b0da febd a15a d63d
00000280: 9593 0bbe ebe9 dabd 00c1 0cbd 9887 3ebd
00000290: 2097 b33d 0a39 753c 70ea c33c f747 dd3d
000002a0: 799e 11bd 2f0c 2b3e 53d2 a8be 50d5 713c
000002b0: 92a2 a13c 8657 91bd 6531 ae3d 9a48 0bbd
000002c0: 4b45 9abe a74c 13be 8597 533d 43b7 b53a
000002d0: fe86 8d3b 40ec 483d 3c89 11bd ae39 0abe
000002e0: bbd7 9bbe eb8b b2bd e6d7 3fbd 8073 e3bc
000002f0: 8826 7b3d e6be 2bbe 9b50 b53e a99c 133d
00000300: 4000 cebc 78be 96be f1fa a3bd 572b aabd
00000310: f74a 6abd 9d71 0e3d f1fd 093c de07 cfb9
00000320: e08f 993d 1bc6 afbc 0f95 2ebd 93f0 a8bc
00000330: a4cd 90bc 2fcb 6b3d 460a ca3d daaa cc3c
00000340: 275d 54bc 04dd a83d 186c 133e bcd0 b5bd
00000350: 34da 3ebd df91 bdbd 3337 3a3d 5610 88be
00000360: 99fc cdbd 1c72 833d f71e 013c 521b adbd
00000370: 04a3 66bd 1453 0b3e 4b11 44bd e938 623d
00000380: 2046 6b3d fa93 c9bd e133 a73d 6eb6 40bd
00000390: 3d67 f73d d596 0f3e 8945 2fbe fad5 64bd
000003a0: 8153 793d 2866 253d 9eb8 96bc da19 c63c
000003b0: 6c65 9ebd c863 23bd cf4b 2cbe 81be 1fba
000003c0: c312 55bc 30c4 9a3d e223 02be b3f5 4abd
000003d0: 8c02 8dbd 318c caba 1ee4 91bd ce13 483b
000003e0: 1cbd 2d3d 0be3 03be 4aa8 c1bd 9127 d9bd
000003f0: edfa 8a3d c57d 61bd ddc4 c7bd a44d 0bbc

fc2.bias f4 [256]
0.18714312 0.121741496 -0.09327368 -0.033571403 0.041099675 0.11474089 -0.0574436 0.021959973
0.15876889 0.2194329 0.08949168 -0.12792693 0.16198525 -0.124923036 0.058582596 -0.090374306
0.09359622 -0.079629436 0.17867321 0.15263574 0.13607444 -0.10904493 -0.1437422 -0.21594048
0.032333508 -0.092873946 0.13248873 0.090520136 0.10465946 -0.037470702 0.14918843 0.1423167
-0.07641843 0.057039402 0.1374023 0.07563268 0.066764124 -0.085021414 0.05502811 -0.18071403
0.21370706 -0.06500593 0.14222412 -0.08778329 0.13075726 0.117087886 0.17573018 0.076980256
0.09618683 -0.102397054 0.06396376 0.12481973 -0.06729354 0.073621854 0.05960494 0.14755063
-0.10911912 -0.11514792 0.060063027 0.12608814 0.051317368 -0.1607158 -0.09947629 0.11027172
0.016942784 -0.05866572 0.11842376 -0.129345 -0.11156342 0.16787516 0.19914275 -0.03826414
-0.12269337 -0.10821374 -0.18466638 0.08445352 -0.11914362 -0.11358543 -0.09436487 -0.13868056
-0.12113126 -0.06538832 0.017991744 0.0812495 -0.106419586 -0.1539346 0.10342256 0.000725157
0.057230253 0.07886354 0.118867405 -0.106735766 0.015109924 -0.14678292 0.03809533 -0.16170341
0.027038816 0.22901331 -0.025996247 0.030054273 -0.1411271 -0.079143256 0.06655268 0.16871624
0.10946483 0.2424543 -0.12410252 -0.023387846 -0.07961582 0.065288045 -0.16040766 -0.07286484
-0.120376475 0.019837502 0.11870215 -0.059105463 -0.019314844 0.051971782 -0.13260466 -0.049685746
-0.08379643 0.0071574673 0.19645597 0.09067904 0.110126734 -0.14187619 -0.13363732 0.04412009
0.06555214 -0.11200954 0.08422458 0.014242462 0.17172796 0.062326718 0.14071836 -0.090338714
0.09222291 -0.1805049 0.01788893 0.0873949 0.21508433 -0.085303366 0.1571717 0.046294976
-0.09551577 -0.04203096 -0.045248114 0.11635529 -0.097048655 0.11758649 0.1694496 -0.113598295
-0.105533734 -0.14935447 0.03692422 -0.082853295 0.0081553925 -0.086596824 -0.0061022313 0.073829226
-0.20903112 -0.0009266948 -0.111667216 -0.08598655 -0.15365343 0.10233954 -0.1454929 -0.11004231
0.0723572 -0.10944138 -0.040668406 0.13674076 0.042762436 -0.08320965 0.0153142745 0.07327745
-0.0714668 0.13010831 -0.057583764 0.13783261 0.16031012 0.23271035 0.047901552 0.024824861
0.13433358 0.10910799 -0.08809216 -0.08446942 -0.062148128 0.10616121 0.109939456 -0.13632797
-0.08692791 -0.050290663 0.15684327 -0.09500026 0.042133596 -0.1162488 -0.019946985 0.07903977
0.0044854647 -0.06309929 -0.2593807 0.15261112 0.05828683 0.06618311 0.098023385 0.056801487
0.024138553 -0.13187753 -0.15125252 0.053548187 -0.15308283 0.21099865 -0.12122804 -0.103350356
0.14729485 0.09433388 0.20537011 -0.1379908 0.03751799 -0.017975565 0.030313622 0.05599358
0.058612034 -0.10154228 0.148065 0.1089817 0.08782346 0.06412435 0.083148 0.12445954
-0.08192727 0.09672117 0.14725901 -0.085544825 -0.09275535 0.11428401 -0.10616803 0.17679204
-0.055052303 0.11809429 0.20740534 -0.08110358 0.12659681 -0.14021973 0.14679404 0.09330797
-0.106846005 -0.1098501 0.06099235 0.079938285 -0.06614974 0.029903438 -0.12431626 -0.005677403
00000000: 72a2 3f3e 9b53 f93d 4506 bfbd 2b82 09bd
00000010: 2258 283d 46fd ea3d fb49 6bbd 67e5 b33c
00000020: 5094 223e 05b3 603e 6a47 b73d 47ff 02be
00000030: 76df 253e a6d7 ffbd 4ef4 6f3d 2a16 b9bd
00000040: 60af bf3d c214 a3bd 1cf6 363e 8b4c 1c3e
00000050: 1957 0b3e f352 dfbd 2831 13be 801f 5dbe
00000060: 2470 043d b234 bebd 20ab 073e 9f62 b93d
00000070: b357 d63d e17a 19bd dac4 183e 78bb 113e
00000080: 4481 9cbd 26a2 693d 30b3 0c3e 4ee5 9a3d
00000090: a1bb 883d b51f aebd 2865 613d 190d 39be
000000a0: 06d6 5a3e d421 85bd 33a3 113e bac7 b3bd
000000b0: 3be5 053e c6cb ef3d 9df2 333e d3a7 9d3d
000000c0: 9afd c43d 8cb5 d1bd 6fff 823d 7da1 ff3d
000000d0: 32d1 89bd 0ec7 963d 4f24 743d 8317 173e
000000e0: d879 dfbd acd2 ebbd a604 763d 401d 013e
000000f0: 2932 523d af92 24be 3aba cbbd 24d6 e13d
00000100: 98cb 8a3c 774b 70bd 2888 f23d 0473 04be
00000110: 5d7b e4bd 77e7 2b3e 14ec 4b3e dcba 1cbd
00000120: a946 fbbd 2a9f ddbd 2f19 3dbe f8f5 ac3d
00000130: 9201 f4bd 7a9f e8bd 5e42 c1bd 4702 0ebe
00000140: ab13 f8bd 50ea 85bd 6c63 933c 2366 a63d
00000150: 83f2 d9bd 08a1 1dbe 35cf d33d 7618 3e3a
00000160: 456a 6a3d 3583 a13d c170 f33d 4898 dabd
00000170: 9d8f 773c 434e 16be d909 1c3d 9495 25be
00000180: 8280 dd3c 7782 6a3e 15f6 d4bc 6134 f63c
00000190: 9f83 10be dc15 a2bd c64c 883d f3c3 2c3e
000001a0: 192f e03d f145 783e 7629 febd de97 bfbc
000001b0: 9e0d a3bd bdb5 853d e841 24be 293a 95bd
000001c0: f187 f6bd 4282 a23c 1d1a f33d 9218 72bd
000001d0: 2a3a 9ebc 5de0 543d 84c9 07be 4883 4bbd
000001e0: 769d abbd 3089 ea3b c12b 493e efb5 b93d
000001f0: 208a e13d fe47 11be 39d8 08be 44b7 343d
00000200: 3340 863d 4265 e5bd f07d ac3d 3759 693c
00000210: 74d9 2f3e 4d4a 7f3d 7918 103e 8103 b9bd
00000220: 5ddf bc3d 47d6 38be ce8b 923c 19fc b23d
00000230: 113f 5c3e 88b3 aebd 9ef1 203e cd9f 3d3d
00000240: c69d c3bd a828 2cbd 1656 39bd af4b ee3d
00000250: 72c1 c6bd 30d1 f03d 3284 2d3e 39a6 e8bd
00000260: 1222 d8bd 61f0 18be da3d 173d fdae a9bd
00000270: 329e 053c ad59 b1bd 3af5 c7bb c733 973d
00000280: 410c 56be 6fed 72ba c8b1 e4bd b719 b0bd
00000290: 5357 1dbe 6597 d13d 17fc 14be dd5d e1bd
000002a0: 0330 943d cd22 e0bd ea93 26bd c505 0c3e
000002b0: aa27 2f3d d269 aabd b9e8 7a3c 7d12 963d
000002c0: 305d 92bd 1d3b 053e f4dc 6bbd fe23 0d3e
000002d0: 5628 243e 9f4b 6e3e 6b34 443d 825d cb3c
000002e0: be8e 093e 0374 df3d aa69 b4bd 4efe acbd
000002f0: 098f 7ebd 0c6b d93d f027 e13d 8f99 0bbe
00000300: 4307 b2bd 95fd 4dbd 869b 203e 7f8f c2bd
00000310: 4794 2c3d da13 eebd dc67 a3bc 9adf a13d
00000320: cefa 923b 333a 81bd 8ccd 84be 1746 1c3e
00000330: 2cbe 6e3d 038b 873d 7cc0 c83d ada8 683d
00000340: 37be c53c e70a 07be f1e1 1abe 5855 5b3d
00000350: bfc1 1cbe 0810 583e 6846 f8bd 5aa9 d3bd
00000360: 76d4 163e 1f32 c13d 8b4c 523e 764d 0dbe
00000370: 77ac 193d 7e41 93bc 4654 f83c 8659 653d
00000380: 2c13 703d 66f5 cfbd 5a9e 173e cc31 df3d
00000390: c9dc b33d a153 833d 8049 aa3d a5e4 fe3d
000003a0: 7cc9 a7bd c015 c63d 11cb 163e 2032 afbd
000003b0: 84f6 bdbd bc0d ea3d a06e d9bd f908 353e
000003c0: 867e 61bd 6bdb f13d 1162 543e a219 a6bd
000003d0: 98a2 013e c395 0fbe 2d51 163e 4018 bf3d
000003e0: 14d2 dabd 17f9 e0bd 1dd3 793d afb6 a33d
000003f0: 8479 87bd 0ef8 f43c 8699 febd 8209 babb

fc3.weight f4 [1, 256]
0.07926212 0.047291867 -0.0712087 0.19067995 0.09875361 0.055030875 -0.23270632 0.08496957
0.06993342 0.07106674 0.05024259 -0.3356527 0.046615474 -0.0562907 0.06732792 -0.0817387
0.08328569 -0.057896584 0.06113371 0.08211913 0.060207974 -0.07100542 -0.14841835 -0.16102108
0.07657675 -0.14486165 0.040393725 0.047643818 0.052709747 -0.29730418 0.06157431 0.047120012
-0.10468024 0.08221336 0.045036744 0.11479962 0.055630125 -0.11322606 0.08652187 -0.08153652
0.06388375 -0.24375653 0.060511656 -0.09514317 0.09133558 0.05523358 0.06350053 0.05230502
0.058669213 -0.09099188 0.0825055 0.07994152 0.31015202 0.073469214 0.11252334 0.059393868
-0.09293665 -0.11207622 0.091235876 0.062263552 0.08178111 -0.266754 -0.174248 0.11528481
0.31363967 0.18601954 0.046950832 -0.08401854 -0.33925337 0.069525756 0.062385485 -0.07777322
-0.06870398 -0.08013987 -0.07242897 0.07014507 -0.07619878 -0.5798263 -0.06600767 -0.07389997
-0.0748899 -0.13494928 0.083764456 0.05531687 -0.14189193 -0.12209676 0.055357806 -0.24929985
0.106838144 0.07299571 0.066505685 -0.24073686 0.18018481 -0.25644687 0.13646394 -0.046374064
0.05698393 0.057404414 -0.36209905 0.19955449 -0.10662724 -0.12869346 0.100920096 0.072681606
0.040956154 0.15049438 -0.106099255 -0.2761391 -0.36763906 0.06794432 -0.4387486 -0.059664246
-0.10506667 0.16557746 0.05297032 -0.043373697 0.22644916 0.07910071 -0.06194816 -0.10072581
-0.13734746 0.22401766 0.090891235 0.11199201 0.07751983 -0.1723747 -0.0906638 0.10454016
0.06442094 0.14425936 0.1795402 0.17628817 0.063461296 0.14813161 0.08735953 -0.3856167
0.07133342 -0.15463023 0.11531046 0.07492663 0.07207316 0.31856444 0.07892554 0.09229055
-0.07983768 0.005591315 0.24262491 0.07298545 -0.19043106 0.07201524 0.066688 -0.096843734
-0.12863061 -0.12745525 0.14266892 -0.061430484 0.22664234 -0.07019531 0.26171002 0.15583034
-0.05755859 -0.0040929294 -0.0730735 -0.087082624 -0.10302899 0.05824599 -0.60509557 -0.06870903
0.12639602 -0.09296992 0.20415463 0.05515877 0.10225347 -0.057777084 0.06892709 0.07603148
-0.057268325 0.064271994 0.2585072 0.07663061 0.07402359 0.061207555 0.16987443 0.1850923
0.07072456 0.07208967 -0.3713105 -0.23536555 -0.049936775 0.0683226 0.060594898 -0.5497956
-0.34446362 0.017780073 0.06529753 -0.09835702 0.06879112 -1.0856206 0.2314834 0.06471314
0.14171548 -0.077025495 -0.05906227 0.06157678 0.07237344 0.11987086 0.07485216 0.06894
0.11709381 -0.062036954 -0.19023429 0.09875198 -0.081760556 0.0766935 -0.29873496 -0.13004743
0.06471657 0.066000775 0.06692226 -0.09715862 0.14711075 0.11212199 0.25432256 0.060917787
0.060758773 -0.0910483 0.047411416 0.06553997 0.14868006 0.07270016 0.07785871 0.07041183
-0.44753993 0.069535196 0.044252858 -0.07820807 -0.570621 0.06607396 -0.14302042 0.08700679
-0.08057947 0.053043224 0.07957731 -0.07460899 0.07602192 -0.088993154 0.049684543 0.041794427
-0.14275876 -0.20280838 0.090919636 0.062071692 -0.06953459 0.07884365 -0.07999302 0.14233586
00000000: 2e54 a23d 1eb5 413d ded5 91bd 9b41 433e
00000010: 553f ca3d 0e68 613d 914a 6ebe 8704 ae3d
00000020: 4139 8f3d 708b 913d 2dcb 4d3d acda abbe
00000030: deef 3e3d 1491 66bd 38e3 893d 9f66 a7bd
00000040: b091 aa3d f824 6dbd 5767 7a3d 132e a83d
00000050: a39c 763d 4a6b 91bd fbfa 17be b6e2 24be
00000060: 45d4 9c3d 9d56 14be e473 253d 2a26 433d
00000070: 2de6 573d 4138 98be 5835 7c3d ea00 413d
00000080: 9862 d6bd 7a5f a83d 7378 383d 101c eb3d
00000090: 6adc 633d 11e3 e7bd 6132 b13d 9efc a6bd
000000a0: 7cd5 823d 509b 79be 12db 773d 6cda c2bd
000000b0: 260e bb3d 9b3c 623d 910c 823d ca3d 563d
000000c0: 214f 703d f359 babd a5f8 a83d 61b8 a33d
000000d0: 3fcc 9e3e 0777 963d a372 e63d fc46 733d
000000e0: 9255 bebd 3888 e5bd e0d9 ba3d 1108 7f3d
000000f0: db7c a73d fb93 88be 116e 32be 711a ec3d
00000100: 6195 a03e e87b 3e3e 844f 403d ea11 acbd
00000110: 9eb2 adbe 8563 8e3d ec87 7f3d 9147 9fbd
00000120: acb4 8cbd 5f20 a4bd a455 94bd 38a8 8f3d
00000130: 1b0e 9cbd 7f6f 14bf 072f 87bd de58 97bd
00000140: e05f 99bd 2530 0abe b38c ab3d f193 623d
00000150: 1e4c 11be de0d fabd debe 623d 7648 7fbe
00000160: f5cd da3d c67e 953d 2234 883d b983 76be
00000170: 5e82 383e 014d 83be 34bd 0b3e bbf2 3dbd
00000180: fb67 693d e420 6b3d 0c65 b9be 0358 4c3e
00000190: 625f dabd 38c8 03be 32af ce3d 18da 943d
000001a0: a4c1 273d 331b 1a3e 914a d9bd 1b62 8dbe
000001b0: 303b bcbe 6426 8b3d a8a3 e0be 7f62 74bd
000001c0: 322d d7bd 238d 293e 68f7 583d 9ea8 31bd
000001d0: 4ae2 673e 8eff a13d 5bbd 7dbd 5549 cebd
000001e0: d0a4 0cbe e364 653e 2f25 ba3d 115c e53d
000001f0: b7c2 9e3d fe82 30be f1ad b9bd 2719 d63d
00000200: 20ef 833d bab8 133e 63d9 373e e384 343e
00000210: fff7 813d d0af 173e 8ee9 b23d 8d6f c5be
00000220: 4217 923d 6357 1ebe e427 ec3d 2273 993d
00000230: 189b 933d e11a a33e b7a3 a13d d402 bd3d
00000240: f081 a3bd 5a37 b73b aa72 783e 6579 953d
00000250: 5c00 43be ba7c 933d b893 883d 0256 c6bd
00000260: beb7 03be a183 02be cd17 123e 889e 7bbd
00000270: ee14 683e 8fc2 8fbd dbfe 853e fd91 1f3e
00000280: 8ec2 6bbd fb1d 86bb 8fa7 95bd 6058 b2bd
00000290: dd00 d3bd 5993 6e3d 8be7 1abf 52b7 8cbd
000002a0: f56d 013e 0367 bebd e90d 513e 2aee 613d
000002b0: 446a d13d aaa7 6cbd a529 8d3d 65b6 9b3d
000002c0: 3192 6abd 09a1 833d 0e5b 843e 82f0 9c3d
000002d0: ae99 973d c6b4 7a3d 90f3 2d3e d688 3d3e
000002e0: 0ad8 903d c0a3 933d 691c bebe ab03 71be
000002f0: 818a 4cbd b8ec 8b3d 5b32 783d 68bf 0cbf
00000300: 895d b0be 84a7 913c b6ba 853d 686f c9bd
00000310: 5ce2 8c3d 9ef5 8abf fc09 6d3e 5388 843d
00000320: dd1d 113e 8bbf 9dbd 47eb 71bd ef37 7c3d
00000330: 8738 943d da7e f53d 174c 993d 6a30 8d3d
00000340: e1ce ef3d 761a 7ebd c7cc 42be 7a3e ca3d
00000350: 1472 a7bd 7b11 9d3d caf3 98be 272b 05be
00000360: 1f8a 843d 6a2b 873d 8a0e 893d 19fb c6bd
00000370: 33a4 163e 37a0 e53d 9136 823e ee84 793d
00000380: 31de 783d 8877 babd 7932 423d d239 863d
00000390: 963f 183e d2e3 943d 6374 9f3d 1434 903d
000003a0: f423 e5be 7868 8e3d 7c42 353d 8d2b a0bd
000003b0: 3814 12bf c951 873d f273 12be 9e30 b23d
000003c0: d906 a5bd da43 593d 6ef9 a23d 99cc 98bd
000003d0: 61b1 9b3d 0b42 b6bd 0582 4b3d a230 2b3d
000003e0: 5a2f 12be 00ad 4fbe 1334 ba3d e33e 7e3d
000003f0: 2768 8ebd c878 a13d 61d3 a3bd 7ec0 113e
