checkpoint_actor.pth (torch_old, 312317 bytes, 14 tensors)

fc1.weight f4 [256, 33]
0	0x3ddaeb39	0.106893964
1	0x3d2e9023	0.04261793
2	0xbd87d8c3	-0.06633141
3	0xbe058535	-0.13039096
4	0xbe79bf03	-0.24389271
5	0xbe587eaf	-0.21142076
6	0xbd5fc059	-0.054626796
7	0x3b7ae7c5	0.0038285118
8	0xbd7eba55	-0.06218942
9	0xbdc2d3b6	-0.09513037
10	0xbc5cc1ca	-0.013473937
11	0x3cc011bf	0.023445962
12	0x3d481a38	0.04885313
13	0x3d5795ea	0.052633204
14	0x3dadaf97	0.08480757
15	0x3e35a408	0.17738354
16	0x3e84c979	0.2593496
17	0xbe578748	-0.210477
18	0xbf21a59e	-0.63143337
19	0xbe34cdb0	-0.17656589
20	0x3d06d9e5	0.032922644
21	0x3d2bcdb2	0.041944213
22	0xbd9e046f	-0.077156894
23	0x3aec8d1f	0.0018047428
24	0xbbc14aa1	-0.005898789
25	0x3ba94d16	0.00516666
26	0xbc825c07	-0.015913023
27	0x3ea063dd	0.3132619
28	0x3d8f6558	0.07001752
29	0xbd67ff8c	-0.056640193
30	0xbeb2f79b	-0.34954533
31	0xbd0b59a6	-0.034021042
32	0xbd5b60fc	-0.05355929
33	0xbd11d032	-0.03559894
34	0xbaff1de6	-0.0019463866
35	0xbd88c484	-0.066781074
36	0xbd3e2c40	-0.04642892
37	0xbe8dc1e2	-0.27686983
38	0xbf0bee1e	-0.54660213
39	0xbdea7a43	-0.11449101
40	0xbdb3d69a	-0.087811664
41	0x3d81cd4f	0.06337988
42	0x3ddfd34d	0.10928974
43	0x3b00cb45	0.0019652408
44	0xbc77b8c9	-0.01511974
45	0x3cdc8020	0.026916564
46	0x3e3d19be	0.18466851
47	0xbd24798d	-0.040154982
48	0x3cc34ca6	0.02384026
49	0xbe9f1405	-0.3106996
50	0xbe7572ee	-0.23969623
51	0x3da2b6d3	0.07945027
52	0xbe2064fc	-0.15663522
53	0x3d82adfa	0.0638084
54	0xbdf55454	-0.11978975
55	0xbe281ac6	-0.16416463
56	0x3db6f5fb	0.08933636
57	0x3c9925f9	0.018694865
58	0xb72f838f	-1.0461444e-05
59	0xbe14841b	-0.14503519
60	0x3d9c1ff0	0.07623279
61	0x3cfb2a4f	0.030659823
62	0x3d127caa	0.03576342
63	0xbd762b8e	-0.06010013
64	0x3cfbf0b8	0.030754432
65	0xbf024bce	-0.5089692
66	0x3e42e42b	0.19032352
67	0xbdd9847b	-0.10620972
68	0x3e526f97	0.2055038
69	0x3e2027b9	0.15640153
70	0x3e3b392e	0.18283531
71	0x3e2b873e	0.1675081
72	0x3a903d2c	0.0011004559
73	0xbdfeff63	-0.12451055
74	0xbe1c89c6	-0.15286931
75	0x3c1abae6	0.009443974
76	0x3d938683	0.072033904
77	0xbbb1bcea	-0.0054241316
78	0x3dc83cd2	0.097772256
79	0xbcf85924	-0.030315943
80	0xbdb82d25	-0.08992986
81	0xbe499cea	-0.19688764
82	0x3e29cee2	0.16582826
83	0xbe89b433	-0.26895294
84	0x3e782bf4	0.24235517
85	0xbba9b016	-0.005178462
86	0x3debe321	0.11517931
87	0x3d27f25f	0.041002627
88	0xbdd53987	-0.10411363
89	0xbd510d57	-0.051038112
90	0xbd185615	-0.03719147
91	0xbd963374	-0.07334033
92	0xbd751aa7	-0.05983987
93	0x3e09db87	0.1346265
94	0xbd2ee844	-0.042701975
95	0xbd5c4e06	-0.053785346
96	0xbe1e22eb	-0.15443008
97	0xbc8faaec	-0.017537557
98	0x3e9162e0	0.28395748
99	0xbe81b9c6	-0.25337046
100	0x3c4d29f9	0.012522214
101	0x3d9faa25	0.07796124
102	0x3cf1cc21	0.029516282
103	0xbdb2d180	-0.08731365
104	0xbe86c72e	-0.26323837
105	0xbe192dd2	-0.14958885
106	0xbc1e96d5	-0.009679516
107	0x3de3c140	0.11120844
108	0xbc742c14	-0.014903087
109	0xbd57017b	-0.052491646
110	0xbcc5d4df	-0.024149356
111	0x3c6b1019	0.0143471
112	0x3dd1647d	0.10224245
113	0xbdecfde1	-0.11571861
114	0xbc17911b	-0.009250904
115	0x3e33a569	0.17543568
116	0x3f0c3370	0.5476599
117	0x3ef8b288	0.4857371
118	0xbd3f19a2	-0.046655305
119	0xbd00bffb	-0.031433087
120	0x3d71f704	0.059073463
121	0xbd77010d	-0.060303736
122	0x3ca24540	0.019808412
123	0x3c04c254	0.008102972
124	0x3cc6039a	0.02417164
125	0x3d12c5fc	0.035833344
126	0x3e596cdf	0.21232937
127	0xbd9f571a	-0.07780285
128	0xbc621198	-0.01379814
129	0xbe38289b	-0.1798424
130	0x3b45d080	0.003018409
131	0x3ed1860c	0.40922582
132	0xbd944625	-0.072399415
133	0xbd776a1f	-0.06040394
134	0x3e2fa9e0	0.17154646
135	0x3d1c39b3	0.038140964
136	0xbd257084	-0.040390506
137	0xbf1293ee	-0.5725697
138	0x3e5768fa	0.21036139
139	0xbdc48428	-0.09595519
140	0x3c996cde	0.01872867
141	0x3cb142b9	0.021638261
142	0x3d62fc54	0.05541642
143	0xbc723782	-0.014783742
144	0xbcc6933f	-0.024240134
145	0x3d7040e3	0.05865563
146	0xbd9a83c3	-0.07544663
147	0xbe0e2dcc	-0.13884658
148	0x3e3eaa05	0.18619545
149	0x3e994e2b	0.2994245
150	0xbe654e63	-0.22393183
151	0x3d4b8bbe	0.049693815
152	0x3c5a34f7	0.013318292
153	0xbcc31482	-0.02381349
154	0xbd1a9926	-0.03774371
155	0x3d0c7928	0.03429523
156	0x3bc96947	0.0061465832
157	0xbc8dc90a	-0.017307777
158	0x3b8a3a53	0.0042183786
159	0x3e46521c	0.1936726
160	0x3dfaac67	0.122399144
161	0x3cdb5420	0.026773512
162	0xbe97b529	-0.29630402
163	0xbcf27990	-0.029598981
164	0xbebc9b01	-0.3683701
165	0xbcb8be3e	-0.022551652
166	0x3e05c625	0.13063867
167	0xbe2e20bd	-0.17004676
168	0xbe9d0049	-0.3066428
169	0xbe2fbb42	-0.17161277
170	0xbe26e71e	-0.16299102
171	0xbe5f7515	-0.21822007
172	0xbdac1102	-0.084016815
173	0x3e1d159b	0.15340273
174	0xbe09dd57	-0.1346334
175	0x3b87cd44	0.0041443426
176	0xbae5ddf8	-0.0017537465
177	0xbcaf0855	-0.021366278
178	0x3dbeacdb	0.09310313
179	0x3b9aeb5d	0.0047277645
180	0xbd91b0cb	-0.07113799
181	0x3e92c38a	0.2866481
182	0x3d820ffd	0.06350706
183	0xbed4c073	-0.41553077
184	0xbeb55f48	-0.35424256
185	0x3c0c2a4c	0.008555006
186	0x3e2ddc07	0.16978465
187	0x3dc831be	0.097751126
188	0xbdd2363e	-0.10264252
189	0x3c1bc892	0.009508269
190	0xbd291f46	-0.04128959
191	0xbd1d17cf	-0.038352784
192	0x3e8a785d	0.27044955
193	0xbc20bd57	-0.009810767
194	0x3d59e74a	0.05319909
195	0xbe75959c	-0.23982853
196	0x3d225d16	0.039639555
197	0xbd4a5b8b	-0.04940371
198	0x3c1dfb77	0.009642473
199	0x3db3bdb8	0.0877642
200	0x3bb07b33	0.0053857802
201	0xbe1e5da1	-0.15465404
202	0xbee195e8	-0.44059682
203	0xbcbe9efb	-0.023269167
204	0xbd326f2d	-0.043563057
205	0x3cb0c634	0.021578886
206	0xbe879a99	-0.26485136
207	0x3d611277	0.05494925
208	0x3d4a04ca	0.049320973
209	0xbd41e9b1	-0.047342006
210	0x3e20958f	0.15682052
211	0xbd3b3155	-0.045701344
212	0xbe06eecf	-0.13177036
213	0x3ca82eaf	0.020530073
214	0xbe894a58	-0.26814532
215	0xbe16aa11	-0.14713313
216	0xbe2521ed	-0.16126223
217	0x3e7d81d2	0.24756554
218	0xbdea3bec	-0.114372104
219	0x3e46b3a2	0.19404462
220	0x3e14c6c5	0.1452895
221	0xbdc10cd7	-0.09426277
222	0xbd728e7a	-0.059217907
223	0xbd3f63e8	-0.046726137
224	0x3db70337	0.0893616
225	0x3e3c435a	0.18385068
226	0x3d90fe32	0.07079734
227	0xbd52fba4	-0.051509514
228	0xbe4e8814	-0.20169097
229	0x3d213f48	0.03936699
230	0xbe9fab8f	-0.31185576
231	0x3e448522	0.19191411
232	0xbe2c57b6	-0.16830334
233	0xbe6cf01a	-0.23138466
234	0xbd5fb8dc	-0.054619655
235	0x3db561fe	0.08856581
236	0xbef33479	-0.4750097
237	0x3d0ac4da	0.03387914
238	0xbd9064dd	-0.07050488
239	0x3d0db0f6	0.03459259
240	0xbdb67768	-0.08909494
241	0xbb85a748	-0.0040787794
242	0xbd430a0b	-0.047617
243	0x3d88fd52	0.06688942
244	0xbe1528bd	-0.14566322
245	0x3ad67880	0.0016362816
246	0x3dc70368	0.097174466
247	0x3d54142d	0.051777054
248	0xbe03293f	-0.12808703
249	0xbe0c005a	-0.13672009
250	0xbdb13302	-0.08652307
251	0x3ce09bc5	0.027418027
252	0x3e432980	0.190588
253	0xbe213ed6	-0.15746626
254	0xbdf7e5e1	-0.12104393
255	0x3c080743	0.008302513

fc1.bias f4 [256]
0	0xbe534aa3	-0.2063394
1	0x3d55da44	0.052210107
2	0xbe39cee6	-0.18145332
3	0xbcebe279	-0.028794514
4	0xbe75256b	-0.23940055
5	0xbecc2922	-0.39875132
6	0xbe9a8aa2	-0.30183893
7	0xbdc54567	-0.09632378
8	0xbe0dc503	-0.13844685
9	0x3e44552e	0.19173118
10	0xbe236fb6	-0.15960583
11	0xbe25c206	-0.16187295
12	0x3e8b5584	0.2721368
13	0xbd874bfc	-0.0660629
14	0xbd41f60b	-0.047353785
15	0xbe7e6267	-0.24842225
16	0xbea1b870	-0.31586027
17	0xbe4d0d38	-0.20024574
18	0xbd0fbc65	-0.035091776
19	0xbe0c8e16	-0.13726076
20	0xbe868454	-0.26272833
21	0x3daf8f2d	0.085722305
22	0xbe854347	-0.2602789
23	0xbe3b9f05	-0.1832238
24	0xbe23de3d	-0.16002746
25	0xbe2560fb	-0.16150276
26	0xbe1c913a	-0.15289775
27	0xbe36a5f6	-0.17836747
28	0x3cf32a22	0.029683176
29	0xbe285cb6	-0.16441616
30	0xbe939501	-0.28824618
31	0xbe2680e9	-0.16260113
32	0xbe376515	-0.17909653
33	0xbe15607e	-0.1458759
34	0xbe5f7c92	-0.21824864
35	0xbe30831f	-0.17237519
36	0xbda7b18a	-0.0818816
37	0xbd40f21e	-0.0471059
38	0xbe9fee1a	-0.31236345
39	0xbd7dcc7a	-0.061962582
40	0xbe385f57	-0.1800512
41	0xbd443bf7	-0.04790875
42	0xbd02f57c	-0.031972393
43	0xbedd6589	-0.43241528
44	0x3c9db7ca	0.019252677
45	0xbe3ce89a	-0.18448105
46	0x3dd1266b	0.10212406
47	0x3a10c65d	0.00055227225
48	0xbe77b585	-0.24190338
49	0xbe41be51	-0.18920256
50	0xbebdecd0	-0.37094736
51	0x3b824cef	0.0039764564
52	0xbea4de4e	-0.32200855
53	0xbdc1552e	-0.09440075
54	0xbe98c2a4	-0.29836
55	0x3bd85e88	0.006603066
56	0xbd9a40ee	-0.075319156
57	0xbd3c0c6e	-0.04591029
58	0xbe4aae96	-0.19793162
59	0xbdd4cc22	-0.10390498
60	0xbe1275b8	-0.14302719
61	0xbcd71c64	-0.026258655
62	0xbeb09b22	-0.34493357
63	0xbe88c21f	-0.26710603
64	0xbec8dd57	-0.3923137
65	0xbe3673fc	-0.17817682
66	0xbe8db303	-0.27675638
67	0xbd79dcd7	-0.061001625
68	0xbe4ac783	-0.1980267
69	0xbe2db56b	-0.16963737
70	0xbdeded93	-0.11617579
71	0xbd2e161e	-0.04250156
72	0xbec08099	-0.37598112
73	0xbe35dd92	-0.17760304
74	0xbd2c52f1	-0.042071287
75	0xbe172020	-0.14758348
76	0xbd646bd9	-0.055766914
77	0xbcfd2926	-0.03090341
78	0x3de57357	0.1120364
79	0xbea7aa2f	-0.32747027
80	0xbd9bc3f2	-0.07605733
81	0x3d7d699d	0.0618683
82	0xbe1b1c2b	-0.15147464
83	0x3c67fef4	0.014159907
84	0x3e0ea47e	0.13929936
85	0xbea3cd05	-0.31992355
86	0xbd54c1e1	-0.05194271
87	0xbd6bd9b8	-0.05758068
88	0xbe185d1e	-0.14879271
89	0xbe07c2d5	-0.13257916
90	0xbdf48a7e	-0.11940478
91	0xbdc309a2	-0.09523322
92	0xbd21f583	-0.03954078
93	0xbea59be8	-0.3234551
94	0xbe9db3a5	-0.3080112
95	0xbd5b07d4	-0.053474262
96	0x3c99ab93	0.01875857
97	0xbed4aea8	-0.41539502
98	0xbcc088e3	-0.023502773
99	0xbe59023d	-0.2119226
100	0xbe83bce8	-0.25730062
101	0xbe959b83	-0.2922021
102	0xbdd839a7	-0.10557871
103	0xbeaade31	-0.33372644
104	0xbe1786d4	-0.14797527
105	0xbdbb1a88	-0.0913592
106	0xbdf16bdf	-0.11788153
107	0xbdf4ba6a	-0.11949618
108	0xbe15d8a7	-0.14633428
109	0xbeacd50d	-0.33756295
110	0xbc90591c	-0.017620616
111	0xbd62c087	-0.05535939
112	0xbe955860	-0.29168987
113	0xbdbf0f10	-0.09329045
114	0xbdf8d508	-0.121500075
115	0xbe9cf84f	-0.30658194
116	0xbe93164c	-0.2872795
117	0xbe4ca6de	-0.1998553
118	0xbe7c9c52	-0.24669006
119	0xbe9e283d	-0.30890074
120	0xbd92c9eb	-0.07167419
121	0xbc315ff3	-0.010826099
122	0xbd886875	-0.066605486
123	0xbdbba234	-0.09161797
124	0xbdcc48e2	-0.09974839
125	0x3c9fb986	0.019497644
126	0xbdca1b1f	-0.09868454
127	0x3c40bc05	0.011763577
128	0xbe6e6fb2	-0.23284796
129	0x3e4229a7	0.18961202
130	0xbded87f7	-0.11598199
131	0xbe28cd3a	-0.16484538
132	0xbd9a6df3	-0.075405024
133	0xbe09df6e	-0.13464138
134	0xbd135e89	-0.035978828
135	0xbe4a8a00	-0.19779205
136	0xbe8edcef	-0.27902934
137	0x3ddb5042	0.10708667
138	0xbe3f7ca1	-0.18699886
139	0xbe936c3b	-0.2879351
140	0xbddf46af	-0.10902154
141	0xbe9b501c	-0.30334556
142	0xbe87803c	-0.26465023
143	0xbe04ed79	-0.12981214
144	0xbd0d54ba	-0.03450463
145	0xbeb4e7fe	-0.35333246
146	0xbe3f63e3	-0.18690448
147	0xbe948b01	-0.29012302
148	0xbdad005e	-0.08447336
149	0x3d14340d	0.036182452
150	0xbde3afb6	-0.111174986
151	0xbea73e5e	-0.3266477
152	0x3db2c17b	0.0872831
153	0xbe3a25b2	-0.18178442
154	0xbdc99c23	-0.09844234
155	0xbda5d848	-0.08097893
156	0xbd810686	-0.06300072
157	0xbdc7dad2	-0.097585335
158	0xbe8c1c9b	-0.27365574
159	0xbe63fd9d	-0.22264715
160	0xbc7b99f2	-0.015356528
161	0xbe4f22ec	-0.20228165
162	0xbe328d05	-0.17436607
163	0xbe8e15ec	-0.277511
164	0xbeab8009	-0.3349612
165	0xbdf03713	-0.117292546
166	0xbda7fdba	-0.082026914
167	0xbdb65a72	-0.0890397
168	0xbe86b1a6	-0.2630741
169	0xbd86d468	-0.06583482
170	0x3c7329a1	0.014841468
171	0xbd621e1a	-0.05520449
172	0xbba7f775	-0.0051259347
173	0xbdb3686b	-0.087601505
174	0xbdb93384	-0.09043029
175	0xbdc43875	-0.09581081
176	0x3b2e3dc8	0.0026587117
177	0xbe4adfad	-0.19811888
178	0x3d9ba73d	0.076002575
179	0xbea0d5a0	-0.31412983
180	0xbe818116	-0.25293797
181	0x3b998cba	0.0046859654
182	0xbe4cbce1	-0.19993927
183	0xbe6c3e75	-0.230707
184	0xbe2bce47	-0.16777907
185	0xbcc5fc33	-0.02416811
186	0xbd15f913	-0.03661449
187	0xbe3fc28d	-0.18726559
188	0xbe2e593b	-0.17026226
189	0xbcc0066d	-0.023440564
190	0xbc40c3b4	-0.011765409
191	0x3d876aaf	0.06612145
192	0x3c59c7dc	0.013292279
193	0xbe03bdc1	-0.12865354
194	0xbc8fa5d0	-0.01753512
195	0xbe0c6d8b	-0.13713662
196	0xbe83524e	-0.2564873
197	0xbe6e6db5	-0.23284037
198	0xbdb46473	-0.08808222
199	0xbe7c36d6	-0.24630293
200	0xbe70abab	-0.23502986
201	0xbdca238d	-0.09870062
202	0xbdf0421a	-0.11731358
203	0xbec40dc7	-0.3829176
204	0xbc449fc7	-0.0120009845
205	0xbe3f77d0	-0.18698049
206	0xbe532377	-0.20618998
207	0xbe4d65dd	-0.20058389
208	0xbe5a06db	-0.21291678
209	0xbdd20677	-0.10255139
210	0xbd1b0cce	-0.03785401
211	0xbd068990	-0.032846034
212	0xbdc942d8	-0.098272026
213	0xbe39415b	-0.18091337
214	0xbe211e5f	-0.15734242
215	0xbdd248f3	-0.1026782
216	0xbdeff714	-0.11717048
217	0x3d162b75	0.036662538
218	0xbd9e9c08	-0.07744604
219	0xbd415802	-0.04720307
220	0x3c90f84a	0.017696518
221	0xbe440118	-0.19141042
222	0xbe825ecd	-0.25462952
223	0xbe947fc7	-0.29003736
224	0xbe60862d	-0.21926184
225	0xbeaad62e	-0.3336653
226	0xbe987000	-0.2977295
227	0xbe4723a5	-0.19447191
228	0xbe613766	-0.21993789
229	0xbe0f3cd5	-0.1398805
230	0xbe394cc1	-0.18095686
231	0x3c8198f3	0.015820002
232	0xbeaae54f	-0.33378074
233	0xbe64b32d	-0.22333975
234	0xbcc3e943	-0.023914939
235	0xbe495b60	-0.19663763
236	0xbe0ff375	-0.14057715
237	0x389f3c89	7.5929864e-05
238	0xbe645ac6	-0.22300252
239	0xbeb80208	-0.3593905
240	0xbe500f80	-0.20318413
241	0xbe834b98	-0.2564361
242	0xbd09eaf1	-0.033671323
243	0x3d36e7b6	0.04465457
244	0x3cf2bf0c	0.029632114
245	0xbe27c4f3	-0.16383724
246	0xbc9e3caf	-0.019316046
247	0xbdf3e9dd	-0.1190984
248	0xbdf84ef7	-0.12124436
249	0xbeb6ea2a	-0.35725528
250	0xbe0ea7d4	-0.13931209
251	0xbdf61239	-0.120151944
252	0xbd91b5c4	-0.07114747
253	0xbe12d347	-0.14338408
254	0xbe700a89	-0.23441519
255	0xbde22929	-0.11043007

fc2.weight f4 [256, 256]
0	0x3e0069f9	0.12540425
1	0x3d397f37	0.045287337
2	0xbe3f5c60	-0.18687582
3	0xbe39df2b	-0.18151538
4	0x3d8de106	0.069276854
5	0x3d48b70e	0.0490027
6	0xbe83e14e	-0.2575783
7	0xbdbf918c	-0.09353933
8	0xbdb779ef	-0.08958804
9	0x3d991c2d	0.07476077
10	0xbdd52014	-0.10406509
11	0xbea6f3eb	-0.3260797
12	0x3bfc58d8	0.0077010207
13	0xbdb808b6	-0.089860365
14	0xbde7fc19	-0.11327381
15	0xbd512399	-0.05105934
16	0xbdf7b451	-0.120949395
17	0xbdc674f3	-0.09690275
18	0x3d0bf60c	0.034170195
19	0x3d3b6cc7	0.045758035
20	0x3d1f9909	0.038964305
21	0xbc224e83	-0.009906414
22	0xbe211008	-0.15728772
23	0xbdd24981	-0.10267926
24	0xbe9123fc	-0.28347766
25	0x3bb78cbf	0.005601495
26	0x3d2dacee	0.042401247
27	0xbc8e0996	-0.017338555
28	0x3d219367	0.039447214
29	0xbdca583f	-0.09880113
30	0xbd8fb77d	-0.070174195
31	0x3e1519e0	0.14560652
32	0x3ce34fee	0.027748074
33	0x3d660b25	0.056162972
34	0xbad16911	-0.0015976747
35	0x3cbb2a59	0.022847341
36	0xbe4f63d8	-0.20252931
37	0xbcc7c89e	-0.024387654
38	0x3e142d61	0.14470436
39	0x3debf22f	0.11520802
40	0x3e610226	0.21973476
41	0xbd66eb4e	-0.056376748
42	0xbd82904a	-0.06375177
43	0xbeb1f0a8	-0.3475392
44	0x3e5b5a16	0.21421084
45	0x3dadf8b4	0.08494702
46	0x3e0cfa6f	0.13767408
47	0x3d3d6f21	0.04624856
48	0x3c79f293	0.015255588
49	0x3cd3cf54	0.025855698
50	0x3cddfa51	0.0270969
51	0xbe2a180f	-0.1661074
52	0xbcc4701f	-0.023979245
53	0xbd8a656a	-0.067576244
54	0x3dcc0d88	0.099635184
55	0xbdc5240a	-0.096260145
56	0xbe1704a3	-0.14747863
57	0x3df5d13e	0.120028004
58	0x3e1a8769	0.15090717
59	0x3e090843	0.13382058
60	0xbde487ed	-0.11158738
61	0xbdcb34ff	-0.099222176
62	0xbdba5e47	-0.09100013
63	0xbdf9e12e	-0.12201153
64	0xbe18f3e2	-0.14936784
65	0xbe22a432	-0.15882948
66	0xbd29eea6	-0.04148736
67	0xbdb79736	-0.08964388
68	0x3e03d407	0.12873851
69	0x3bfe0c4d	0.007752931
70	0x3d84f0fb	0.06491276
71	0xbcb64194	-0.022248067
72	0xbe0d801b	-0.138184
73	0xbdab5bf3	-0.08367147
74	0x3d817023	0.063202165
75	0xbcf74051	-0.030182036
76	0x3cd5bafa	0.026090134
77	0xbc4e2084	-0.0125809945
78	0x3d63c1db	0.055604797
79	0xbce5998c	-0.028027318
80	0x3d72f520	0.0593158
81	0xbcbdbbfe	-0.02316093
82	0x3cae0d33	0.021246528
83	0x3e8bf887	0.2733805
84	0xbb402732	-0.0029320237
85	0xbd0d9b46	-0.03457191
86	0xbc4c1399	-0.012455844
87	0x3d784b11	0.060618464
88	0x3ca90963	0.020634359
89	0xbd1aa0af	-0.037750896
90	0xbd7a75ce	-0.061147504
91	0x3d876224	0.06610516
92	0xbb811ba5	-0.003940063
93	0xbd21d6bc	-0.039511427
94	0x3a360c79	0.00069446076
95	0xbd81f982	-0.06346418
96	0xbde862e7	-0.11346989
97	0x3e529228	0.20563567
98	0x3e33e3ad	0.1756732
99	0x3cf8b26e	0.03035852
100	0xbdb6f127	-0.08932715
101	0xbae4bd7b	-0.0017451489
102	0xbd709bea	-0.05874244
103	0x3d86c600	0.06580734
104	0xbd7ae151	-0.061250035
105	0x3debd193	0.115145825
106	0xbce5fb0a	-0.028073806
107	0x3cbcc8da	0.023044992
108	0xbe2aa0a3	-0.1666284
109	0x3db0c4b0	0.08631265
110	0xbe6f572c	-0.23373097
111	0xbec1fff3	-0.37890586
112	0xbd1eeb25	-0.03879847
113	0x3ccc943d	0.02497303
114	0xbc763502	-0.0150272865
115	0xbcbf2a06	-0.023335468
116	0xbd941127	-0.07229834
117	0x3e3e80f0	0.18603873
118	0xbd09e5cf	-0.03366643
119	0xbd265d73	-0.040616464
120	0x3d3f988f	0.04677635
121	0x3dc69459	0.09696264
122	0xbe73bbdc	-0.23802131
123	0x3c03889c	0.008028176
124	0x3e0a5b96	0.135115
125	0xbd68809e	-0.056763284
126	0xbd5e2e99	-0.054243658
127	0x3d9bf7a1	0.07615591
128	0x3e0fe8df	0.14053677
129	0x3d98a6b7	0.07453673
130	0x3e6867c6	0.22695836
131	0x3d0e0b9c	0.03467904
132	0x3d878c8a	0.066186026
133	0xbe8a9b16	-0.27071446
134	0xbc72a7d4	-0.014810521
135	0x3d2a2e3c	0.041548
136	0xbe69e254	-0.22840244
137	0x3d006e87	0.031355407
138	0xbdd066a5	-0.10175828
139	0x3d2efb10	0.0427199
140	0xbca3820e	-0.019959476
141	0xbe13b289	-0.14423575
142	0xbe201beb	-0.1563565
143	0x3ccb6fe1	0.024833621
144	0x3e0309f8	0.12796772
145	0x3d8cad09	0.06868941
146	0x3e2c3095	0.16815408
147	0x3e18ad54	0.1490987
148	0xbd76ffed	-0.060302664
149	0x3d876309	0.06610686
150	0x3e409046	0.18805036
151	0x3cadfc49	0.021238463
152	0x3c22d2a7	0.009937919
153	0x3dcedb5a	0.10100432
154	0xbe13895f	-0.14407872
155	0xbd95c9c3	-0.073138736
156	0xbdebe3fe	-0.115180954
157	0x3e1761a2	0.14783338
158	0xbc2758b8	-0.010214023
159	0xbd4e6ecf	-0.050398644
160	0x3d8c9b78	0.06865591
161	0xbd0e3919	-0.03472242
162	0xbdef4baa	-0.11684354
163	0xbe797bbf	-0.24363612
164	0xbe88f15b	-0.2674664
165	0xbe9411ef	-0.28919932
166	0x3e8196f1	0.25310472
167	0xbe6fbb5f	-0.2341132
168	0xbdf1f548	-0.11814362
169	0xbbff23a4	-0.007786231
170	0xbca308fb	-0.019901743
171	0x3de6519d	0.11246035
172	0xbde6b631	-0.11265219
173	0x3e41b544	0.18916804
174	0xbebcaa1b	-0.3684853
175	0x3deb47f7	0.114883356
176	0x3d38e3be	0.045139067
177	0x3dbb79b0	0.091540694
178	0xbe5329dd	-0.20621438
179	0x3c1e79b7	0.009672574
180	0x3c1699e8	0.009191968
181	0x3e12dd8f	0.1434233
182	0x3de1a287	0.11017328
183	0xbe7a9aa7	-0.24473058
184	0x3bffcb53	0.0078062206
185	0xbd11de71	-0.035612527
186	0x3da6fca2	0.08153655
187	0xbde75d8f	-0.11297142
188	0xbcd8ef7b	-0.02648138
189	0xbd9b160c	-0.075725645
190	0x3e3a77ca	0.18209758
191	0xbd83dbd5	-0.06438414
192	0xbbcc2743	-0.0062302663
193	0xbdb2d35c	-0.0873172
194	0xbdee9532	-0.116495505
195	0x3db40155	0.087893166
196	0xbe6e1c59	-0.23253001
197	0xbe1b8300	-0.15186691
198	0xbe0c0984	-0.13675505
199	0x3dd82716	0.1055433
200	0x3d86e320	0.065862894
201	0x3d160b71	0.036632005
202	0xbdf80b86	-0.12111573
203	0xbe0e72f8	-0.13911045
204	0x3ce80539	0.028322803
205	0xbc7d65a7	-0.01546613
206	0xbe1b3855	-0.15158208
207	0xbe20baed	-0.15696307
208	0xbda9bc83	-0.08287909
209	0x3dc9fb29	0.09862358
210	0xbe05f090	-0.13080049
211	0x3d21b3ef	0.03947824
212	0x3d50663b	0.050878745
213	0xbd7d3399	-0.061816785
214	0x3e3b7fdc	0.18310493
215	0xbd16c672	-0.036810346
216	0xbde82c62	-0.1133659
217	0xbd11d476	-0.03560301
218	0x3d5af350	0.053454697
219	0xbe2c5e0f	-0.16832756
220	0xbc9bda81	-0.01902509
221	0xbcd72edc	-0.026267461
222	0xbe74cd0b	-0.23906343
223	0xbc851a4d	-0.016247893
224	0xbe3b8f9d	-0.18316503
225	0xbda0418d	-0.07825003
226	0x3c98ded2	0.018660937
227	0xbd4bb081	-0.049728874
228	0x3e0b0723	0.13576941
229	0x3d4dda35	0.050256927
230	0xbe06a163	-0.13147502
231	0x3d1155b9	0.035482142
232	0xbd664700	-0.056220055
233	0x3e04824f	0.12940334
234	0xbca12f09	-0.019675748
235	0x3dfb9319	0.12283916
236	0x3c3ad1f4	0.011402596
237	0x3e08e806	0.1336976
238	0xbed738ca	-0.42035514
239	0x3cc5c809	0.024143236
240	0x3e19da9b	0.15024798
241	0x3dc229f3	0.094806574
242	0xbe0bb4d4	-0.13643199
243	0xbe5c8a84	-0.21537215
244	0xbdebf96c	-0.11522183
245	0xbc611694	-0.013738293
246	0x3e289d88	0.16466343
247	0xbd864bab	-0.06557401
248	0x3e2a3faf	0.16625856
249	0x3d198d68	0.03748837
250	0x3b9a68f4	0.0047122184
251	0xb9e5f728	-0.0004386243
252	0xbe5c16f5	-0.21493132
253	0xbd24689f	-0.040138837
254	0xbd9fa714	-0.077955395
255	0x3acf73e7	0.0015827388

fc2.bias f4 [256]
0	0xbe082f99	-0.13299407
1	0xbe543ede	-0.20727107
2	0xbdaff0c0	-0.08590841
3	0xbd7dbcf4	-0.061947778
4	0xbe3d5c72	-0.18492296
5	0xbe48808b	-0.19580285
6	0xbda06bed	-0.07833085
7	0xbe8368b2	-0.25665814
8	0xbd5aa4e6	-0.053379916
9	0xbde97e83	-0.11401083
10	0xbdff4bf3	-0.12465658
11	0xbe48c887	-0.19607745
12	0xbd1ecf36	-0.03877183
13	0xbe182e41	-0.14861394
14	0xbe8610f0	-0.26184797
15	0xbdca13b0	-0.09867036
16	0xbda5294a	-0.08064516
17	0xbcfa2c3b	-0.030538669
18	0xbc778b1f	-0.015108853
19	0xbe294664	-0.16530758
20	0xbd57e7e7	-0.052711394
21	0xbd74008d	-0.059570838
22	0xbe40e22a	-0.18836275
23	0xbd0dd449	-0.03462628
24	0xbe4bb8cf	-0.19894718
25	0xbe27f4a0	-0.16401911
26	0xbd91fe22	-0.0712855
27	0xbe8c58d2	-0.27411515
28	0xbdaba877	-0.083817415
29	0xbe59c0cb	-0.21264951
30	0xbe0117ee	-0.12606785
31	0xbd8a1631	-0.06742514
32	0xbbb985b4	-0.0056616906
33	0xbcfdf49c	-0.031000428
34	0xbdfb45d5	-0.12269179
35	0xbdf61c8b	-0.12017163
36	0xbda83b22	-0.08214404
37	0xbd89baa6	-0.067250535
38	0xbdd236d0	-0.10264361
39	0xbdcb2203	-0.099185966
40	0xbd33280c	-0.043739364
41	0xbd8c79d1	-0.06859172
42	0xbd6cfbb4	-0.05785723
43	0xbdda8ca8	-0.10671359
44	0xbe5f9e29	-0.21837677
45	0xbe00ecb1	-0.1259029
46	0xbdf1b977	-0.11802953
47	0xbe02385a	-0.12716809
48	0x3cf79f7a	0.030227412
49	0xbcfbfb1b	-0.030759385
50	0xbeac7e50	-0.3369012
51	0xbd9f4bc4	-0.07778123
52	0xbd87d55e	-0.066324934
53	0xbe9b7f82	-0.30370718
54	0xbddf7932	-0.10911788
55	0xbde321f9	-0.11090464
56	0xbde0550b	-0.10953721
57	0xbdc5d645	-0.09660009
58	0xbd9c0360	-0.07617831
59	0xbd7211e1	-0.059099082
60	0xbd073d37	-0.033017363
61	0xbe5f1c42	-0.21788123
62	0xbe0c80db	-0.1372103
63	0xbe6e4a9a	-0.23270646
64	0xbd09a9f9	-0.033609364
65	0xbda6b08c	-0.081391424
66	0xbdd8634c	-0.105658144
67	0xbdca9afc	-0.09892842
68	0xbdd9d67a	-0.10636611
69	0x3b933b09	0.0044931215
70	0x3c6daf36	0.014507106
71	0xbdd0ef40	-0.10201883
72	0xbdf21fee	-0.11822496
73	0xbd261178	-0.040544003
74	0xbe144941	-0.14481069
75	0xbe0e8a0c	-0.13919848
76	0x3e0cf699	0.13765945
77	0xbdc34ffc	-0.0953674
78	0xbe186004	-0.14880377
79	0xbd8481aa	-0.06470044
80	0xbd9d8fa3	-0.07693412
81	0xbe16aa2d	-0.14713354
82	0xbd144a2f	-0.03620356
83	0xbde10a18	-0.10988253
84	0xbdc19af6	-0.094533846
85	0x3bc5fcf2	0.0060421163
86	0xbde6b345	-0.11264662
87	0xbe2a0609	-0.16603865
88	0xbd8a3cd3	-0.067498825
89	0xbdefba57	-0.117054634
90	0x3c04eb1a	0.008112693
91	0x3bbb8f55	0.0057238736
92	0xbb827836	-0.0039816154
93	0xbde79605	-0.11307911
94	0xbcd30b92	-0.025762353
95	0xbdfd9cc6	-0.12383418
96	0xbe1ae7e5	-0.15127523
97	0xbc3efc2c	-0.011656802
98	0xbe7bace4	-0.24577671
99	0xbe300ba6	-0.17191944
100	0xbe91d6bf	-0.2848415
101	0xbe273738	-0.16329658
102	0xbd3c05e7	-0.045904066
103	0xbd8b7e11	-0.06811155
104	0xbca56b23	-0.020192688
105	0xbd6a1f45	-0.057158727
106	0xbde4dc0c	-0.11174783
107	0xbe423ee0	-0.18969297
108	0xbdff1edf	-0.1245706
109	0xbc00b8fc	-0.007856604
110	0xbdac44b5	-0.08411542
111	0xbdbf9ea5	-0.09356431
112	0xbccabece	-0.024749186
113	0xbd849edc	-0.064756125
114	0xbe4aa26c	-0.19788522
115	0xbe1e19b3	-0.15439491
116	0xbdeed2da	-0.116613105
117	0xbd98ed45	-0.074671306
118	0xbd8ea46d	-0.069649555
119	0xbe3d02c4	-0.18458086
120	0xbd8fbf7f	-0.07018947
121	0xbdc8beb5	-0.098019995
122	0xbe0abf19	-0.1354946
123	0xbdfc4354	-0.12317529
124	0xbc7dd162	-0.015491815
125	0xbe887396	-0.26650685
126	0xbe5aa12f	-0.21350549
127	0xbe46b923	-0.19406562
128	0xbdfa04d4	-0.12207952
129	0xbe124c23	-0.14286856
130	0xbdad5adf	-0.08464598
131	0xbe1b8aaa	-0.15189615
132	0xbd35d583	-0.044393074
133	0xbdd46672	-0.103711024
134	0xbe545d50	-0.20738721
135	0xbd999998	-0.07499999
136	0xbda78ad7	-0.081807785
137	0xbe00f9df	-0.12595318
138	0xbdcee835	-0.10102884
139	0xbe1ea063	-0.1549087
140	0xbcbf0010	-0.02331546
141	0x3ceaa0da	0.028641153
142	0xbde4389a	-0.111436084
143	0xbcb088d4	-0.02154962
144	0x3c512745	0.01276571
145	0xbe115206	-0.14191446
146	0xbe153576	-0.14571175
147	0xbe0d8d0c	-0.13823336
148	0x3cf86ba0	0.030324757
149	0xbcc92727	-0.024554802
150	0xbdf4cf5a	-0.11953612
151	0xbd100723	-0.035163056
152	0xbd4bfe31	-0.049802963
153	0xbdb2186b	-0.086960636
154	0xbe08c822	-0.13357595
155	0xbe1b4d76	-0.15166268
156	0xbd35341a	-0.04423914
157	0xbddbf69b	-0.10740396
158	0xbdd0b8bd	-0.10191486
159	0xbe0bfa1b	-0.13669626
160	0xbe1b7dd9	-0.15184726
161	0xbd8205fd	-0.063487984
162	0xbda5fb20	-0.08104539
163	0xbe169468	-0.1470505
164	0xbe523985	-0.20529754
165	0xbe4d0fa8	-0.20025504
166	0x3d598ce6	0.053112887
167	0xbd8afd3a	-0.067865804
168	0xbd9cc9b9	-0.07655663
169	0xbe1a3dc5	-0.15062626
170	0xbe18794c	-0.14890021
171	0xbd8bc965	-0.06825522
172	0xbdde87db	-0.10865756
173	0xbe4b3f86	-0.19848451
174	0x3b85d5a3	0.0040843054
175	0xbe1d7dca	-0.15380016
176	0xbe48b69e	-0.19600913
177	0xbe3ce0ec	-0.18445176
178	0xbe060596	-0.13088068
179	0xbd8df214	-0.06930938
180	0xbe312247	-0.17298232
181	0xbe5cecaa	-0.21574655
182	0xbd0abe18	-0.033872694
183	0xbe3108b4	-0.17288476
184	0xbe0f095e	-0.13968417
185	0xbdd67466	-0.1047142
186	0xbe937af9	-0.28804758
187	0xbe522391	-0.2052138
188	0x3cccdde4	0.02500815
189	0xbe1da43e	-0.15394685
190	0xbc41585a	-0.01180085
191	0xbd8396eb	-0.0642527
192	0xbce5921b	-0.02802377
193	0xbd59c603	-0.053167354
194	0xbd6d6df5	-0.05796619
195	0xbdf8c4ec	-0.12146935
196	0xbdc26456	-0.09491794
197	0xbd31a40c	-0.043369338
198	0xbd8c7a6d	-0.06859288
199	0xbe11b1cc	-0.1422798
200	0xbd4832ff	-0.04887676
201	0xbdf81346	-0.12113051
202	0xbe14cd93	-0.14531545
203	0xbd97c834	-0.074112326
204	0xbd8ac462	-0.06775738
205	0xbd594f84	-0.053054348
206	0xbcd5856e	-0.0260646
207	0xbd81729a	-0.06320687
208	0xbdba2f79	-0.09091086
209	0xbe3f093b	-0.18655865
210	0xbd813865	-0.063095845
211	0xbd893502	-0.066995636
212	0x3b8b3c23	0.004249112
213	0x3dafcad3	0.085836075
214	0xbd7a3fb0	-0.061095893
215	0x3cf0555f	0.029337583
216	0xbcc7486e	-0.02432653
217	0xbe68ee98	-0.22747266
218	0xbc917d8c	-0.01776006
219	0xbe0b17ba	-0.1358327
220	0x3c89a111	0.016800435
221	0x3b92b7ca	0.004477476
222	0xbe54b087	-0.20770465
223	0xbe0d30ca	-0.13788143
224	0xbd98f717	-0.07469004
225	0xbdad2610	-0.084545255
226	0x3a1ba896	0.0005937902
227	0xbe077efc	-0.13232034
228	0xbd9bfd7a	-0.07616706
229	0xbd5fa547	-0.05460098
230	0xbe671e27	-0.22570096
231	0xbd92245d	-0.07135842
232	0xbe069fa3	-0.13146834
233	0xbdb3cf71	-0.08779801
234	0xbe123b6a	-0.14280477
235	0xbe3a6071	-0.18200852
236	0xbc2360fe	-0.009971855
237	0xbe9011f8	-0.2813871
238	0xbd6983e9	-0.057010565
239	0xbe07e02d	-0.1326911
240	0xbd8faff4	-0.07015982
241	0xbe36cef1	-0.1785238
242	0xbdeb78cd	-0.1149765
243	0xbe539244	-0.20661265
244	0xbddaf6e9	-0.106916256
245	0xbe0e1880	-0.13876534
246	0xbdf4b885	-0.11949257
247	0xbd9c4b65	-0.07631568
248	0xbe291163	-0.16510539
249	0xbe3dc658	-0.18532693
250	0xbdca8659	-0.09888906
251	0xbe4efeb0	-0.20214343
252	0xbda9c452	-0.08289398
253	0xbdffd1b5	-0.1249117
254	0xbe010da6	-0.12602863
255	0xbe08affd	-0.13348384

fc3.weight f4 [4, 256]
0	0xbec20127	-0.37891504
1	0x3e4e8396	0.20167384
2	0x3e9716b5	0.29509512
3	0xbe943b07	-0.28951284
4	0xbe1e5d03	-0.15465169
5	0xbe68baad	-0.22727461
6	0x3d8f9813	0.07011428
7	0x3cd0aba8	0.025472477
8	0xbe19b908	-0.1501199
9	0x3cb5ea51	0.022206457
10	0xbf2cf725	-0.6756461
11	0x3d824d4b	0.06362399
12	0x3e9ab41e	0.30215544
13	0x3d973bb6	0.07384436
14	0xbeea7a70	-0.45796537
15	0x3e9335ab	0.28751883
16	0x3f222c74	0.6334908
17	0xbc21399e	-0.009840397
18	0xbf16b9a3	-0.5887701
19	0x3eebce7b	0.4605597
20	0xbed74b3f	-0.42049596
21	0x3ec40188	0.38282418
22	0x3e86fab1	0.26363137
23	0xbe79163c	-0.24324888
24	0xbd3bf5f8	-0.04588887
25	0xbebd699d	-0.3699464
26	0x3ddff9c0	0.10936308
27	0x3e30c101	0.17261125
28	0x3f266b21	0.65007216
29	0x3ebe7c02	0.37203985
30	0xbe62b078	-0.2213763
31	0x3e98113d	0.29700652
32	0x3db4a284	0.0882006
33	0xbf02a817	-0.51037735
34	0x3cfc8ccd	0.030828858
35	0x3cb55796	0.02213649
36	0xbd60bf75	-0.054870088
37	0x3e525631	0.20540692
38	0x3df530e5	0.119722165
39	0xbdbd9793	-0.09257426
40	0xbf06f905	-0.52723724
41	0x3ec2ca59	0.38045004
42	0x3bcc0a5e	0.006226822
43	0x3ec677ae	0.38763183
44	0x3ea1e13e	0.3161716
45	0x3dced975	0.101000704
46	0x3c40e83d	0.01177412
47	0x3e87e63e	0.26542848
48	0xbf266490	-0.64997196
49	0x3e2aa857	0.16665779
50	0x3e01c8d7	0.1267427
51	0x3e9bd840	0.30438423
52	0x3e341cf8	0.17589176
53	0xbc1ec0af	-0.009689494
54	0x3e0f38b5	0.13986476
55	0xbf48e54e	-0.7847489
56	0x3eb6b17d	0.35682288
57	0xbd34973d	-0.044089545
58	0x3e3f6926	0.18692455
59	0x3f1740ae	0.5908307
60	0x3d55cad4	0.052195385
61	0x3e9791e4	0.29603493
62	0xbf4569af	-0.77114385
63	0x3e5a3b9c	0.21311802
64	0xbd35cf44	-0.044387117
65	0xbcdbf213	-0.026848828
66	0xbee5af9c	-0.44860542
67	0x39df702e	0.00042617455
68	0x3bd886d2	0.0066078687
69	0x3ea4a195	0.32154527
70	0xbe47926e	-0.19489452
71	0xbd34dbc1	-0.044154886
72	0xbd845ace	-0.06462632
73	0x3da9a57d	0.082835175
74	0xbeba6a70	-0.3640933
75	0xbf4b289a	-0.7935883
76	0xbf18154e	-0.5940751
77	0x3ef61284	0.48061
78	0xbd6178ba	-0.055046774
79	0x3e998bb3	0.29989395
80	0xbf3191d8	-0.69363165
81	0xbe962030	-0.29321432
82	0x3d2958a6	0.041344307
83	0xbf1a4948	-0.6026807
84	0xbf1ea2ac	-0.6196697
85	0x3f12cfb7	0.573482
86	0xbd40dea4	-0.047087327
87	0xbe3f71bd	-0.18695731
88	0x3e01905b	0.12652723
89	0x3ee113de	0.4396047
90	0xbefd3e2a	-0.4946149
91	0x3e32c87e	0.17459294
92	0xbec0faed	-0.3769144
93	0x3de3f104	0.111299545
94	0xbe24bdf5	-0.16088088
95	0x3eef8bcf	0.46786353
96	0x3f2b4122	0.6689626
97	0xbdc7224b	-0.09723338
98	0xbe22879d	-0.15872045
99	0x3e0dfef2	0.13866785
100	0x3ef8b942	0.4857884
101	0x3d994472	0.07483758
102	0x3dac9470	0.0842675
103	0x3ec0fc88	0.37692666
104	0x3ec1ac11	0.3782659
105	0x3d0e0504	0.034672752
106	0x3eb86148	0.3601172
107	0x3e539bff	0.20664977
108	0x3e72c45c	0.23707718
109	0x3e993891	0.2992597
110	0xbf0ca632	-0.54941094
111	0x3de05e39	0.109554715
112	0x3e857e3b	0.2607287
113	0x3e00f35a	0.12592831
114	0x3e992292	0.29909188
115	0xbdbabbb2	-0.09117831
116	0xbf0dc208	-0.55374193
117	0xbeb41043	-0.35168657
118	0xbe9ddb02	-0.30831152
119	0xbd89ca30	-0.06728017
120	0xbea57276	-0.3231389
121	0x3eee0265	0.46486202
122	0xbebd2912	-0.36945397
123	0x3e4e5496	0.20149454
124	0x3e973b0a	0.2953723
125	0x3d5e36e0	0.05425155
126	0xbca5c0f5	-0.02023361
127	0x3e31840c	0.17335528
128	0x3de3f9fe	0.111316666
129	0xbe73b19c	-0.23798221
130	0xbe8f15ac	-0.27946222
131	0x3e868aeb	0.2627786
132	0xbea0f452	-0.31436402
133	0xbe92f19c	-0.28699958
134	0xbec3306f	-0.3812289
135	0x3e18a693	0.14907293
136	0xbef9f20b	-0.48817477
137	0x3efc351a	0.49259263
138	0x3c9eefbc	0.019401424
139	0xbe7c8cba	-0.24663058
140	0x3e39b6d3	0.18136148
141	0xbee42e06	-0.44566363
142	0x3e4be622	0.19912007
143	0x3f205aad	0.6263836
144	0x3f2ee2ff	0.6831512
145	0xbe841c5a	-0.2580288
146	0x3d7e06b6	0.06201812
147	0xbe8e03c3	-0.27737245
148	0xbf1fad4a	-0.62373793
149	0xbf09d833	-0.5384552
150	0x3dccb369	0.09995157
151	0x3e93bb88	0.28854012
152	0xbf316789	-0.6929861
153	0x3ed11f48	0.40844178
154	0x3f048e2f	0.51779455
155	0x3e5e5ee0	0.2171588
156	0x3ed3a12a	0.41333896
157	0x3e8afb16	0.27144688
158	0xbf1aaa53	-0.60416144
159	0x3eca5ec5	0.39525428
160	0xbe3e9b02	-0.18613818
161	0x3e7bf6a9	0.24605812
162	0xbf0cbcf7	-0.5497584
163	0x3e3608d7	0.1777681
164	0xbdb49bbb	-0.08818766
165	0x3d5cb342	0.05388189
166	0xbf204c86	-0.62616765
167	0xbded2485	-0.11579231
168	0xbf002ca7	-0.50068134
169	0xbd747a8c	-0.059687182
170	0x3e126364	0.14295727
171	0xbd3e1a77	-0.046411958
172	0xbd0e68ce	-0.03476792
173	0x3e6e0aab	0.23246257
174	0x3e351429	0.17683472
175	0x3f15ca54	0.58511853
176	0x3e83605f	0.25659463
177	0xbdae25e1	-0.085033186
178	0x3e28b0ca	0.1647369
179	0xbc18252b	-0.009286205
180	0x3e843562	0.25821978
181	0xbe604fba	-0.21905413
182	0x3f1bc8d5	0.6085332
183	0xbf40dc6e	-0.7533635
184	0x3ef2e716	0.4744193
185	0x3e9da331	0.30788568
186	0xbd134275	-0.03595205
187	0x3f0681dd	0.52541906
188	0x3e36b309	0.17841734
189	0xbe41b015	-0.18914826
190	0x3edcc88b	0.43121752
191	0x3d2fb52b	0.042897385
192	0x3ebd4357	0.3696544
193	0xbdc7d1a4	-0.09756783
194	0xbe44ae02	-0.19207004
195	0x3f022e77	0.5085215
196	0x3e3e9156	0.18610129
197	0x3f1a8603	0.60360736
198	0x3f062606	0.5240177
199	0x3eac76e7	0.33684465
200	0xbe05ba06	-0.13059244
201	0xbeba703c	-0.36413753
202	0xbeafe6db	-0.34355816
203	0xbdf1651a	-0.11786862
204	0xbf415802	-0.75524914
205	0xbda4a855	-0.08039919
206	0xbeec1471	-0.46109346
207	0x3c54f419	0.012997651
208	0xbf20b48c	-0.6277549
209	0xbef492ed	-0.47768345
210	0x3dff855c	0.12476608
211	0xbe08bdfe	-0.13353726
212	0xbe90d1bb	-0.28285012
213	0x3e6a159c	0.22859806
214	0xbee2a768	-0.44268346
215	0x3eeef705	0.46672836
216	0xbdd05028	-0.101715386
217	0xbf3a8130	-0.72853374
218	0xbe70af2f	-0.23504327
219	0xbf568add	-0.8380564
220	0x3f605918	0.87635946
221	0xbda777f9	-0.0817718
222	0xbd870bb7	-0.06594031
223	0x3f621f29	0.88328797
224	0xbeff1143	-0.49817857
225	0xbf01f9b9	-0.5077167
226	0x3ed58a5c	0.41707122
227	0xbe6d3e41	-0.23168279
228	0x3e99193c	0.29902065
229	0xbbd5c203	-0.006523372
230	0x3e876209	0.26441982
231	0xbc359c50	-0.011084631
232	0xbe4356ef	-0.19076131
233	0xbf1d9c27	-0.61566395
234	0xbee42e1f	-0.44566438
235	0xbeb5194c	-0.35370862
236	0xbdb686d2	-0.08912434
237	0x3eedce41	0.46446422
238	0x3dcb58c9	0.09929044
239	0x3ebda77d	0.37041846
240	0x3ed17670	0.40910673
241	0xbf8579ee	-1.0427835
242	0x3ea7fb8b	0.328091
243	0x3db0d459	0.08634252
244	0xbd358f7a	-0.044326283
245	0xbec36a6a	-0.38167125
246	0x3dec84be	0.11548756
247	0x3d9fb002	0.07797243
248	0xbdfe7d29	-0.12426216
249	0xbf620dc9	-0.88302284
250	0x3db50058	0.08837956
251	0xbdf107a7	-0.11769038
252	0x3e7c2de5	0.24626882
253	0x3cb0cb36	0.021581274
254	0xbd506ef7	-0.050887074
255	0xbddfc9f9	-0.10927195

fc3.bias f4 [4]
0	0xbd647936	-0.05577966
1	0xbd54e00c	-0.05197148
2	0x3db742c1	0.08948279
3	0x3d38eba7	0.04514661

bn1.weight f4 [256]
0	0x3ee1b0c4	0.44080174
1	0x3f52cfd7	0.8234839
2	0x3ee3137e	0.4435081
3	0x3f34d6ca	0.7064024
4	0x3f1839e3	0.5946333
5	0x3ec06094	0.37573683
6	0x3ec4c0e5	0.38428417
7	0x3ebac886	0.36481112
8	0x3f1f0b07	0.621262
9	0x3f2ae875	0.6676095
10	0x3ef85312	0.48500878
11	0x3f132d3a	0.57490885
12	0x3f08b33e	0.533985
13	0x3f30e9e4	0.6910689
14	0x3f1ec058	0.62012243
15	0xbe94d2b9	-0.2906702
16	0x3f34a27b	0.70560426
17	0x3eff8613	0.49906978
18	0x3f097d2a	0.5370661
19	0x3f15a64e	0.58456886
20	0x3f2185ef	0.6309499
21	0x3f25488d	0.6456383
22	0x3e99e56d	0.3005785
23	0x3f12e84f	0.57385725
24	0x3ecaed21	0.3963404
25	0x3efab88b	0.4896892
26	0x3eff33be	0.49844164
27	0x3f334202	0.70022595
28	0x3f0a9f4b	0.5414931
29	0x3f0dc553	0.5537922
30	0x3f010a47	0.50406307
31	0x3f6a1ea2	0.9145299
32	0x3f3a6839	0.7281528
33	0x3f2e68ee	0.6812886
34	0x3ec189b3	0.3780037
35	0x3edc3137	0.43006298
36	0x3f1efacf	0.62101454
37	0x3f2d0445	0.6758464
38	0x3f138371	0.5762244
39	0x3f25592a	0.6458918
40	0x3ecd7ab8	0.4013269
41	0x3f1a1d91	0.60201365
42	0x3f17aaba	0.59244883
43	0x3f1325ca	0.57479537
44	0x3f26cf7b	0.6516034
45	0x3f0ff51e	0.56233394
46	0x3f2e5481	0.6809769
47	0x3ee0c797	0.43902275
48	0x3ecf996c	0.4054674
49	0x3f0c5ad8	0.54826117
50	0x3f2d59e7	0.67715305
51	0x3f288e30	0.6584196
52	0x3f2944e8	0.6612077
53	0x3f2ac3d7	0.6670508
54	0x3eb612cf	0.35561225
55	0x3f2e17ed	0.6800526
56	0x3f07c3a3	0.5303289
57	0x3ef7aad4	0.4837252
58	0x3f1d99a3	0.61562556
59	0x3f41c664	0.75693345
60	0x3f072351	0.52788264
61	0x3f0a7690	0.5408716
62	0x3eca7b89	0.39547375
63	0x3f054376	0.5205606
64	0x3ee4d23f	0.44691655
65	0x3edf3d67	0.43601534
66	0x3eea039a	0.45705873
67	0x3f197c92	0.59955704
68	0x3ed65545	0.4186193
69	0x3eee1226	0.4649822
70	0x3f1f5645	0.6224101
71	0x3ec4591c	0.38349235
72	0x3f06b073	0.5261299
73	0x3f1fde0e	0.62448204
74	0x3ec94aa5	0.39314762
75	0x3f23d986	0.6400379
76	0x3f2944a5	0.6612037
77	0x3f4c3add	0.7977732
78	0x3f0d7d51	0.5526934
79	0x3f2aaed0	0.6667299
80	0x3f0a0349	0.5391126
81	0x3f339af7	0.7015833
82	0x3f40acac	0.75263476
83	0x3f247e79	0.6425548
84	0x3f147e2a	0.5800501
85	0x3f34cafb	0.70622224
86	0x3f20de6c	0.6283939
87	0x3f157554	0.58382154
88	0x3f0fb263	0.5613157
89	0x3ecec720	0.40386295
90	0x3edb7c93	0.4286848
91	0x3f0e2d1f	0.555376
92	0x3f3fad26	0.7487358
93	0x3f252201	0.6450501
94	0x3f223ae0	0.63371086
95	0x3f07423a	0.5283543
96	0x3f1ccf39	0.61253697
97	0x3e8a32ff	0.26992032
98	0x3f09c7c7	0.5382046
99	0x3f1507d9	0.582151
100	0x3ec735b7	0.3890817
101	0x3f44d039	0.7688022
102	0x3eda3f31	0.42626336
103	0x3f4889ff	0.78335565
104	0x3f468030	0.7753935
105	0x3f2b55e9	0.66927963
106	0x3f0255bb	0.50912064
107	0x3f3f2cfa	0.74678004
108	0x3f338ad2	0.701337
109	0x3f183834	0.5946076
110	0x3ee7e429	0.4529126
111	0x3ea88443	0.32913408
112	0x3eebcd4e	0.46055073
113	0x3f43b8b2	0.764537
114	0x3f17b51c	0.59260726
115	0x3f3c998f	0.7367181
116	0x3efd544e	0.49478382
117	0x3f261b4b	0.64885396
118	0x3f0b6cd6	0.54462945
119	0x3ed3a5e1	0.41337493
120	0x3f110509	0.5664831
121	0x3f1f2db7	0.6217913
122	0x3ee00af1	0.43758348
123	0x3f25f55a	0.648275
124	0x3f11c4c8	0.5694089
125	0x3f24c94b	0.6436965
126	0x3f03ad64	0.5143645
127	0x3f2f0247	0.6836285
128	0x3edd2a63	0.431964
129	0x3f3d7ca9	0.7401834
130	0x3f0e81c5	0.5566676
131	0x3eb5eab8	0.3553064
132	0x3f01ff06	0.5077976
133	0x3ec32bf8	0.38119483
134	0x3f195dff	0.5990905
135	0x3f012f97	0.5046324
136	0x3ef6e67f	0.4822273
137	0x3ecda295	0.40163103
138	0x3f066b67	0.5250763
139	0x3f0489e6	0.51772916
140	0x3f169f64	0.5883696
141	0x3f03ccd5	0.51484424
142	0x3f00b5fa	0.50277674
143	0x3f331cf7	0.6996607
144	0x3ef9d953	0.48798618
145	0x3f4c7119	0.79860073
146	0x3f06806e	0.5253972
147	0x3f0a1dc7	0.53951687
148	0x3f04431e	0.5166491
149	0x3f4f22db	0.8091256
150	0x3f38102b	0.7189967
151	0x3edee486	0.43533725
152	0x3f0b8d3f	0.545124
153	0x3f0887d9	0.5333229
154	0x3f30c005	0.69043
155	0x3ea91a7e	0.33028024
156	0x3f28a27e	0.65872943
157	0x3f2329c7	0.6373562
158	0x3f3b9c2a	0.7328516
159	0x3ed0a1e5	0.40748516
160	0x3f1de542	0.61677945
161	0x3f3d9164	0.74049973
162	0x3f138ed3	0.5763981
163	0x3f1722d6	0.5903753
164	0x3eae33b8	0.34023833
165	0x3f28a45d	0.658758
166	0x3f34ffa6	0.7070259
167	0x3effa5ed	0.4993128
168	0x3f0ce1dc	0.55032134
169	0x3eebca58	0.46052814
170	0x3f0c6586	0.5484241
171	0x3eea6402	0.45779425
172	0x3f0bf962	0.546774
173	0x3ed7c188	0.4213984
174	0x3ecbe336	0.39821786
175	0x3f22f27f	0.6365127
176	0x3f30febb	0.6913869
177	0x3f3ebf90	0.7451105
178	0x3ef83c08	0.484833
179	0x3f0c977b	0.5491864
180	0x3f286302	0.65776074
181	0x3f2b6ea5	0.66965705
182	0x3ecd04a4	0.40042603
183	0x3f23c6c3	0.6397516
184	0x3f13470e	0.57530296
185	0x3f203b16	0.6259016
186	0x3f29b70a	0.6629492
187	0x3ee5560a	0.44792205
188	0x3f063a6b	0.5243289
189	0x3f1c978d	0.6116875
190	0x3f06a4be	0.52595127
191	0x3f2f982a	0.6859156
192	0x3f31c410	0.6943979
193	0x3f1a56f3	0.60288924
194	0x3f2fec90	0.6872034
195	0x3f0837ac	0.5320995
196	0x3ec86351	0.39138272
197	0x3ef597c5	0.47967353
198	0x3f2ab222	0.6667806
199	0x3f004ce6	0.5011734
200	0x3efd2a15	0.4944617
201	0x3f0dfa59	0.55460125
202	0x3eba0b92	0.36336952
203	0x3ecedf81	0.40404895
204	0x3f10b88f	0.56531614
205	0x3f09618e	0.5366448
206	0x3f481228	0.78152704
207	0x3f15f848	0.5858197
208	0x3f2ab0f3	0.66676253
209	0x3f090d35	0.5353578
210	0x3f3403ba	0.70318186
211	0x3f16a908	0.5885167
212	0x3ea4ea2c	0.3220991
213	0x3f069bc5	0.52581435
214	0x3efc9717	0.49334022
215	0x3f0df1d6	0.5544714
216	0x3f02c2dd	0.5107859
217	0x3f4c6973	0.798484
218	0x3f2e0488	0.67975664
219	0x3f3a198d	0.7269524
220	0x3ef48611	0.47758535
221	0x3f2e7776	0.6815103
222	0x3f14cdcf	0.5812654
223	0x3f25ac29	0.6471582
224	0x3ef4b2da	0.47792703
225	0x3ece8d19	0.40342024
226	0x3f121caa	0.5707499
227	0x3f27bfcd	0.6552704
228	0x3f14145c	0.57843566
229	0x3f011257	0.5041861
230	0x3ef0d403	0.47036752
231	0x3f0351ea	0.51296866
232	0x3f37192a	0.7152277
233	0x3f0db0e0	0.55348015
234	0x3f2a972f	0.6663694
235	0x3f3e231b	0.74272317
236	0x3f1af9a2	0.6053716
237	0x3eca8004	0.39550793
238	0x3f213cc4	0.62983346
239	0x3eb24a3a	0.34822255
240	0x3f177d38	0.59175444
241	0x3f3a7b53	0.7284443
242	0x3ed2c96b	0.41169295
243	0x3f60e7e4	0.87853837
244	0x3f3b6f45	0.7321666
245	0x3f2a1d4c	0.66450953
246	0x3eec657f	0.46171185
247	0x3f216d30	0.6305723
248	0x3eb59b14	0.35469878
249	0x3f217e56	0.630834
250	0x3f1d25f7	0.61386055
251	0x3f18ab29	0.5963617
252	0x3f1e6e64	0.6188719
253	0x3f0626e0	0.5240307
254	0x3f3aba54	0.72940564
255	0x3f166b05	0.5875705

bn1.bias f4 [256]
0	0xbccafdd5	-0.02477924
1	0x3e6128cf	0.21988223
2	0x3db62fe4	0.08895853
3	0xbd556845	-0.052101392
4	0x3e01345b	0.12617628
5	0xbe944249	-0.28956822
6	0xbd5bf175	-0.05369707
7	0xbe0ea16e	-0.13928768
8	0x3e944850	0.2896142
9	0x3dfc6003	0.12323
10	0x3e37247c	0.17885011
11	0x3df6e9d9	0.12056322
12	0x3dfe7149	0.12423951
13	0x3e50ff39	0.2040986
14	0x3d6dd6ed	0.058066297
15	0x3ec38a78	0.3819158
16	0x3e75e953	0.24014787
17	0x3db22553	0.08698525
18	0x3e25f32b	0.16206042
19	0x3d893f57	0.06701534
20	0x3e43c6c4	0.19118792
21	0x3dd3ee95	0.1034824
22	0x3dbcbe45	0.092159785
23	0x3e0c6519	0.1371044
24	0x3e190432	0.14943007
25	0x3e2d71a0	0.16937876
26	0xbd977b5a	-0.07396574
27	0x3e54515e	0.20734164
28	0x3e4232ee	0.1896474
29	0x3d9caf4b	0.07650622
30	0x3e931d7b	0.2873343
31	0x3e10141a	0.14070168
32	0x3e468fed	0.19390841
33	0x3e80c9fd	0.25154105
34	0x3ddc7fd5	0.107665695
35	0x3e4e2a7d	0.20133395
36	0x3e445702	0.19173816
37	0x3e969df0	0.29417372
38	0x3e423df7	0.1896895
39	0x3de870ca	0.11349638
40	0xbe40c8a0	-0.18826532
41	0x3e846ee8	0.25865865
42	0x3db3ecd4	0.08785406
43	0x3e9cc409	0.30618313
44	0x3e59fc87	0.21287738
45	0x3d4367dc	0.04770647
46	0x3da133b1	0.078711875
47	0x3caaacee	0.020834412
48	0x3e5c6274	0.21521932
49	0x3d9adb1a	0.075613216
50	0x3d76b569	0.0602316
51	0x3d868d00	0.06569862
52	0x3e36f531	0.1786697
53	0x3e460360	0.19337225
54	0xbbb1c90c	-0.005425578
55	0x3dca83ec	0.09888443
56	0x3e58d10d	0.21173497
57	0x3cbc9f7a	0.023025263
58	0xb94573e5	-0.00018830558
59	0x3e2c247b	0.16810791
60	0xbc6f7ba9	-0.014616885
61	0x3d7866f5	0.060645062
62	0x3daa2025	0.08306912
63	0x3dc7a996	0.09749143
64	0x3e861c8e	0.2619366
65	0x3dcfb89d	0.10142634
66	0x3d7ce035	0.061737258
67	0x3e3a3363	0.18183665
68	0xbd6a8efc	-0.057265267
69	0x3e05c7ba	0.13064471
70	0x3db0c15b	0.0863063
71	0xbd19c90c	-0.03754525
72	0xbe2afa1d	-0.16696973
73	0x3e25484f	0.16140865
74	0x3daa645b	0.083199225
75	0x3e7fccba	0.2498044
76	0x3de242f7	0.11047929
77	0x3e2ac076	0.1667498
78	0x3d81a278	0.063298166
79	0x3e5bce54	0.21465427
80	0x3e86793f	0.26264378
81	0x3e6cd1f6	0.23126969
82	0x3e2abc0c	0.16673297
83	0x3d323553	0.043507885
84	0x3e0c611e	0.13708922
85	0x3e7b5b26	0.24546489
86	0x3e29c32c	0.16578358
87	0x3e32ae51	0.17449309
88	0x3e12b2f1	0.14326073
89	0x3dd49068	0.10379106
90	0x3e83092b	0.25592932
91	0x3d277ecd	0.04089241
92	0x3e249b59	0.16074885
93	0x3dd49c81	0.10381413
94	0x3e4f0764	0.20217663
95	0x3cff7e37	0.031188114
96	0xbc98bb4d	-0.018644
97	0xbeaa4694	-0.33256972
98	0xbd728cef	-0.059216436
99	0x3e0ae257	0.13562904
100	0xbe53d9a1	-0.20688488
101	0x3e2960b6	0.16540799
102	0x3ecd8bdc	0.40145767
103	0x3e6b0973	0.22952823
104	0x3eac8906	0.3369829
105	0xbda340ae	-0.07971321
106	0x3e26cc2c	0.16288823
107	0x3e7fc7c2	0.24978545
108	0x3e8ac42b	0.2710279
109	0x3df6209c	0.120179385
110	0x3ece1bf3	0.402557
111	0x3ec53dcc	0.3852371
112	0x3e34bdde	0.17650554
113	0x3e0bef7a	0.13665572
114	0x3e32b1a9	0.17450584
115	0x3deb388a	0.11485393
116	0xbbbd7930	-0.005782269
117	0xbd6112b6	-0.054949485
118	0xbcedb4ea	-0.02901693
119	0x3e5d8899	0.21634139
120	0x3e1804b7	0.14845549
121	0x3e190e19	0.14946784
122	0x3e5637aa	0.20919672
123	0x3e26bcb1	0.16282918
124	0x3d810e6a	0.063015774
125	0x3e30a1be	0.172492
126	0x3c822891	0.015888484
127	0x3e112553	0.14174394
128	0xbe26e901	-0.16299821
129	0x3e98476b	0.29741988
130	0xbd36e62c	-0.044653103
131	0xbd2f4523	-0.042790543
132	0x3e286876	0.16446099
133	0x3ea7735a	0.32705194
134	0x3e27af2d	0.16375418
135	0x3d0f9a94	0.035059527
136	0xbc91de93	-0.017806327
137	0xbe8d8957	-0.27643844
138	0x3c9d62ea	0.019212205
139	0xbbb60094	-0.005554268
140	0x3d4055c7	0.046956804
141	0x3e432798	0.19058073
142	0x3e88d6b7	0.26726314
143	0x3dad82c1	0.08472205
144	0xbd0747a3	-0.033027302
145	0x3e88aced	0.26694432
146	0x3ea195f4	0.31559718
147	0x3dffabda	0.1248395
148	0x3e566179	0.2093562
149	0x3e506893	0.20352392
150	0x3e57f2e8	0.21088755
151	0xbd920425	-0.07129697
152	0x3ccffade	0.025388177
153	0x3df06321	0.11737657
154	0x3e846156	0.2585551
155	0x3e783afb	0.2424125
156	0x3e12853d	0.14308639
157	0xbd33946c	-0.043842718
158	0x3e4f174a	0.20223728
159	0x3e14259d	0.14467473
160	0x3e487734	0.19576722
161	0x3e01e432	0.12684706
162	0x3e8cb014	0.27478087
163	0x3e1da8c0	0.15396404
164	0x3e8655c4	0.2623731
165	0x3e5fdec7	0.21862327
166	0x3d7f27dc	0.062293872
167	0x3d796122	0.06088365
168	0x3e666377	0.2249888
169	0x3d1cabb0	0.03824967
170	0x3d971fcf	0.07379114
171	0x3d3e4f16	0.04646214
172	0x3d112efb	0.035445195
173	0xbdd59f74	-0.10430804
174	0x3e2cbc66	0.16868743
175	0x3dad453d	0.08460472
176	0x3e179da1	0.14806224
177	0x3e7fff35	0.24999698
178	0x3e8d1257	0.27553055
179	0x3df6305c	0.120209426
180	0x3dc0b63f	0.09409761
181	0x3d2a2c03	0.04154588
182	0x3e181889	0.1485311
183	0x3e8940f6	0.26807374
184	0x3e10e7da	0.14150944
185	0x3e9f5cc0	0.3112545
186	0x3d61885c	0.055061683
187	0xbe568e93	-0.20952825
188	0x3ea99196	0.33118886
189	0xbc64434e	-0.013932062
190	0x3d25cbef	0.04047769
191	0x3e56efe1	0.20989944
192	0x3dfc98bd	0.1233382
193	0x3e0ca6d4	0.13735515
194	0x3db17974	0.086657435
195	0x3e15be54	0.14623386
196	0x3e972527	0.29520532
197	0x3e224ed1	0.15850379
198	0x3d434cc4	0.04768063
199	0x3da24497	0.07923239
200	0x3e423f9d	0.18969579
201	0x3e8d24b8	0.27567077
202	0x3e21be08	0.15795147
203	0x3ec7f7c2	0.39056212
204	0x3dde1419	0.10843677
205	0x3e8192ed	0.25307408
206	0x3e2279a4	0.15866715
207	0x3e490fe9	0.19634975
208	0x3e4d801e	0.20068404
209	0x3ca16c6c	0.01970502
210	0x3e5f83b3	0.21827583
211	0x3dbaee60	0.09127498
212	0x3d678ff3	0.056533765
213	0x3e8da762	0.27666765
214	0x3e920813	0.28521785
215	0x3e848b31	0.25887445
216	0x3d7c5c45	0.061611433
217	0x3e43b7a2	0.19113019
218	0x3e46433e	0.19361588
219	0x3d95e6e3	0.07319429
220	0x3e23bc05	0.15989693
221	0xbcee16b0	-0.029063553
222	0x3e7fd00d	0.24981709
223	0x3e2aa927	0.16666089
224	0xbb42a7e1	-0.0029702114
225	0x3e464f83	0.19366269
226	0x3df1d8a0	0.11808896
227	0x3e7431ec	0.23847169
228	0x3df6bc68	0.120476544
229	0x3e4e071e	0.20119902
230	0x3d59c8cb	0.053170007
231	0x3dda9f70	0.106749415
232	0x3e8a4d8e	0.27012295
233	0x3e1eddd1	0.15514304
234	0x3de6a40c	0.11261758
235	0x3e047996	0.12937006
236	0x3e550882	0.20804027
237	0x3e0d785d	0.13815446
238	0x3e5d6c13	0.21623258
239	0x3e0ad2f5	0.13557036
240	0x3d98807f	0.07446384
241	0x3dfecdfa	0.12441631
242	0x3dc73860	0.097275496
243	0x3e9c8cc6	0.30576152
244	0x3e847e50	0.2587762
245	0x3da08cdc	0.07839367
246	0xbd00fa01	-0.031488422
247	0x3e0526a3	0.1300302
248	0x3c358da4	0.011081133
249	0x3d68fd79	0.056882355
250	0xbcee7b8e	-0.02911165
251	0x3e43a633	0.19106369
252	0x3e0a9b46	0.13535795
253	0x3d34730a	0.044055022
254	0x3e8ad3b0	0.2711463
255	0x3e1a56b2	0.15072134
