checkpoint_actor.pth (torch_old, 161774 bytes, 14 tensors)

fc1.weight f4 [128, 33]
00000000: f25b 553e f1d9 fb3d 3201 2a3e a180 49bd
00000010: 3145 e9bd 8238 febd 5068 2a3e db15 8abd
00000020: 3550 2c3e 9f80 50be b34f 01bd 0011 103e
00000030: 9e85 ab3c 0c0d 33be 81a1 503e 1327 56be
00000040: 2345 0f3e 776e 11be b90c 8f3e bfd9 01be
00000050: 0a72 493c b473 67bd 79d6 923d b79a bdbd
00000060: 7ac8 ef3d 63a0 16bd 3a8a b33d 847c 993d
00000070: b604 d43d ae25 2e3d 8b74 c0bc 909c 88bd
00000080: b599 8f3f 6c57 8cbe 69a5 16be 3795 bb3e
00000090: 8818 43be 1e13 713e 33d4 d2be 245b c7bd
000000a0: 4f99 6ebd 7745 85be ea8a 0b3e 9ad8 00bc
000000b0: 2dd5 103d ea9e dbba c7a0 f33d e105 763e
000000c0: 3e1e bcbe 9ec0 1cbe 1b0a 38be 301b 943e
000000d0: f341 c8be ad67 04be 2eb6 ea3d 92fe c43d
000000e0: 949d f03b 186b 243c 40f2 bcbd 8b82 143d
000000f0: ad0c 833b 63e4 aab9 cad4 483d c3c0 2c3c
00000100: 0f08 5cbd 9254 f53e ccb6 80be 3e99 593e
00000110: a2ba e03e c751 dcbc ee59 d43d c44b b9bd
00000120: a991 583e c5b2 953c 4f8e 5abd adcb 08bd
00000130: 8ffb 693b 8fe2 813d e9ba 823d c3c6 6a3e
00000140: cd6f b1bd 3b18 85be f962 9dbd f43d 9f3d
00000150: 6d8f 3dbe db56 2a3e 9f83 40bc 642c 3a3e
00000160: d977 1dbe f2b9 8cbc 7107 a03c b412 dbbd
00000170: dd85 3b3e 8ceb b13e 963e 4f3d e8ea 46bc
00000180: d3e6 a4be 6abd 183d 9348 31bf 5239 38bc
00000190: 18c1 373e cc1c 3ebb 7448 61bf 765a 3dbe
000001a0: 462b 643e 6916 47be 3a89 47bc 536d 5bbe
000001b0: fefe 973e c5f6 b93d 6c25 53bd 3570 f4bd
000001c0: 9f41 1e3e 4006 32be 4b8c 013d 3584 d3be
000001d0: 6662 9d3e baa8 e5be 8e86 ebbe b483 24bd
000001e0: 9d0a 273d 71c5 adbd 24b3 863d e9e4 f13d
000001f0: 3be3 66bd 4e12 013d 72fd ba3d 5939 523c
00000200: 248f 95bd 5935 0abe b872 5fbc 1dfc 073f
00000210: 547a 43bd c4fb 21be 3f65 b1be ec58 8dbe
00000220: 086e 573e 5ab4 51bd e7d5 f23d e1d5 a53b
00000230: 25e5 b03b e4fb 4f3e 14ee a13c 0964 62bd
00000240: df99 36bd 8c36 db3e acf7 073e c549 e5bd
00000250: c490 a33d cb16 253e fd69 48bd 46a8 c0bc
00000260: cd5e 60bc 99c4 5c3d ba0d 323b 954c e83c
00000270: 7c27 d23d ed35 4bbd 9c80 f2bd 21f5 c03e
00000280: a6ec 083e 53c9 943d da58 fdbe 24e0 1abd
00000290: 7f21 093a 2dd0 923d 4406 81bc 51a8 b1bd
000002a0: a2b2 80be 5e71 813e 8ea4 9bbe efb8 30bd
000002b0: 78db ea3d 7386 7dbe 2229 37be 6326 c53c
000002c0: fa1d 063e 9bfb af3d 980a b8b9 3adc 843e
000002d0: e961 5e3e 1d7a 30bc ad59 993e 2bcd 8c3c
000002e0: 11bb 0e3f cf78 07be d6b1 f3bc 9a85 5f3c
000002f0: ec41 b8bd 89e5 a13d 06f0 8c3d 55f2 e8bd
00000300: e1cf 763e 56f8 093e f4db 99bc 30db 82be
00000310: 9cbf cd3c abb6 85bf f413 863d 4d44 34be
00000320: 69a0 123f dacd 03be f227 22be 891f 8fbe
00000330: 9b01 87bd 5fe5 41bd c487 f13c 8ff4 ecbd
00000340: e9f7 003d 4bd2 c8bb 5f48 e23d 3420 013e
00000350: 25fe 303e 40a0 a5be cc12 623d a879 b03d
00000360: 91f6 d5bd 32de a6bd d3e3 9c3c e89e fb3d
00000370: a6cf e43b a9e2 443d dd3a 49bb 8c0c 94bc
00000380: e399 f7bc a054 153e 6e11 0b3e cf32 80bd
00000390: cc07 e6bd 2843 e83c 16c9 b73d 38de f23e
000003a0: 3d51 463e 3fa3 bf3c e2e6 8b3e 0637 13be
000003b0: c236 f53d 2253 9a3e e485 44bd bccb d7bd
000003c0: 9ff5 513d 18c4 193e 4b9b c6bc 153a 533d
000003d0: 4cb9 013d 3fbb 7abe 2c9f 1ebd 19ba 20be
000003e0: fd3d 9fbe 210c 193d 7037 dabe e5d0 0b3d
000003f0: 7e6d bfbd e8b1 0d3e 522b 19be f853 07bd
0.20835856 0.122974284 0.16602018 -0.049194936 -0.1139015 -0.12413122 0.16641355 -0.0674245
0.16827472 -0.20361565 -0.031570148 0.14068985 0.020937737 -0.17485446 0.20374109 -0.20913343
0.13991217 -0.14202295 0.27939394 -0.1268072 0.012295255 -0.056506827 0.07169814 -0.09258025
0.1170816 -0.03677405 0.08766599 0.074944526 0.10352461 0.042516403 -0.023493072 -0.06670487
1.1218783 -0.27410448 -0.14711536 0.3663728 -0.19052327 0.23542449 -0.4117752 -0.097341806
-0.058251675 -0.2602956 0.1362721 -0.007864142 0.03535955 -0.0016755734 0.118959 0.2402568
-0.36741823 -0.15307853 -0.17972605 0.28926992 -0.39112815 -0.12930174 0.11460529 0.09618868
0.0073430035 0.010035299 -0.09225893 0.036257308 0.003999314 -0.00032595088 0.049031056 0.010544005
-0.053718623 0.47916085 -0.25139463 0.21249864 0.4389239 -0.026894463 0.10368715 -0.09047654
0.21149315 0.01827372 -0.053358372 -0.033397365 0.003570292 0.06342041 0.063833065 0.22927384
-0.086639024 -0.2599505 -0.07684893 0.077754885 -0.18511744 0.16634695 -0.011750131 0.18180996
-0.1537775 -0.01717851 0.019534798 -0.10696927 0.18312784 0.3475002 0.050596796 -0.012140967
-0.32207355 0.037290014 -0.69251364 -0.011244135 0.17944753 -0.0029008863 -0.8800118 -0.1849154
0.22282133 -0.19442143 -0.012178713 -0.21428423 0.2968673 0.09080271 -0.05154936 -0.11935464
0.1545472 -0.17385197 0.031627934 -0.41311803 0.30739135 -0.4485529 -0.46001095 -0.040164664
0.040781606 -0.084849246 0.06577137 0.11811239 -0.056369048 0.031511597 0.09130372 0.012831056
-0.073026925 -0.13496913 -0.013638191 0.5311907 -0.047724083 -0.15818697 -0.34647557 -0.27606905
0.21038067 -0.051197387 0.11857205 0.0050608967 0.00539841 0.20310932 0.019766845 -0.055271182
-0.044580337 0.42815053 0.13278073 -0.11195711 0.07986596 0.16121976 -0.048929203 -0.023517739
-0.013694477 0.053898428 0.0027168826 0.02835683 0.10261437 -0.049611975 -0.118409365 0.3768702
0.13371524 0.07264962 -0.4948185 -0.037811413 0.00052311266 0.07168613 -0.015750058 -0.08674682
-0.25136286 0.25281805 -0.30398983 -0.043145116 0.114676416 -0.2475832 -0.17886785 0.024066156
0.13097373 0.08592912 -0.00035103108 0.2594927 0.21717037 -0.010771302 0.2995123 0.017187675
0.5575419 -0.13229679 -0.029747885 0.013642693 -0.089969486 0.079051085 0.06881718 -0.11374346
0.24102737 0.13473639 -0.01878164 -0.25557852 0.02511578 -1.0446371 0.065467745 -0.1760418
0.57276016 -0.12871495 -0.1583555 -0.27953747 -0.06592103 -0.047337886 0.029483683 -0.11570083
0.031486426 -0.0061285845 0.1104896 0.12609941 0.17284448 -0.32348824 0.055193707 0.08616954
-0.104474194 -0.08147849 0.019151604 0.12286168 0.0069827614 0.048067722 -0.0030705251 -0.018072389
-0.030224746 0.14583063 0.13580868 -0.06259691 -0.11231956 0.028352335 0.08973901 0.47435164
0.19366927 0.023393271 0.27324587 -0.14376459 0.11973335 0.3014155 -0.04797925 -0.10536906
0.051259633 0.1501621 -0.024243971 0.051569063 0.031670853 -0.24485491 -0.038726017 -0.1569599
-0.3110198 0.037365083 -0.4262042 0.034134764 -0.09347056 0.13837397 -0.14957932 -0.033039063

fc1.bias f4 [128]
00000000: 253b 86bc ef15 d23d d7cb 60be 94b1 c5bc
00000010: acc4 09bf 14ec 13be cf57 3ebe 7a84 62be
00000020: 307e 2b3e b2fa 55bd 448f b5be dc54 39be
00000030: 6a5a 3fbd 17e4 5d3e 1bc9 a6bd b082 01bf
00000040: 47c7 80be 30b1 4dbe e58a 83be 3b81 b53d
00000050: e482 6f3e 91c1 2cbd b0b3 68be 3c48 cebd
00000060: 3ba7 3fbe 1478 23bc e7ca 9dbc f0e3 86be
00000070: aba8 28bf dfd9 84bd 7383 30be c40d 38be
00000080: c777 92bd 4f40 7ebe 8d57 e2bd 7481 f0bd
00000090: 5b66 7cbe fd21 e6be ea11 083c 0fb0 1c3e
000000a0: 8b94 8bbd 7e5a e13d a496 4fbe 3048 cebe
000000b0: 6a7f d6be f485 83be 86a0 4fbe 1b49 123e
000000c0: 0828 06be acae a1be 082a 3abe c6dc 45be
000000d0: 4240 59be 5179 403d 54f7 d83b a38d e4bd
000000e0: 1e1e ccbe 23e4 833d b2ac bebe b7a2 443e
000000f0: 6f4b e4bd 6e1b d3be 6cf5 68be 32d0 e1bd
00000100: e6c7 9ebe 4b4a 72be 8998 a33c 2529 bfbd
00000110: d688 94be 588d 18be 0d8a b6be 3d96 103e
00000120: 31e8 74be 94be 72be b034 353d 1fbc 1fbe
00000130: fa50 d3bd ec33 b1be 2a15 dabc 9c04 dfbd
00000140: c54e 04be a67c 76be 3ead 0ebe d3aa 41be
00000150: 5047 61bd c25c 9fbe d9a1 8fbe 0735 77be
00000160: 05a4 2bbf 7b3e c43d dc59 28bd a482 9abe
00000170: 2846 0bbe 3e67 c2bb 2dd8 c5bd 9a4e aebe
00000180: c3c9 95be cbd5 423e 9fe2 9dbd ec20 a8be
00000190: 4288 48be 9f9a 26bd ad13 8d3e 4bb0 f2be
000001a0: 4bb2 c2bd 03d8 973d 7be3 dcbd 6943 5f3e
000001b0: 9b25 f9be 47ea d2bd dd71 afbe 20a2 59be
000001c0: 2218 84bd 8a40 4dbe 61e7 a83e 12ce b9be
000001d0: b68f 00be ecbc 6a3e dcbe 8dbd e7e1 07be
000001e0: 8aaa dbbd 8184 3abe 580f 803d 3f88 d8be
000001f0: 2f88 3c3e c98f edbe 167e cd3d 6bdd 85be
-0.016385624 0.1025809 -0.21952759 -0.024132527 -0.5381572 -0.14445525 -0.18588184 -0.22120848
0.16747355 -0.052241035 -0.35460865 -0.18098778 -0.046717085 0.2166904 -0.081438266 -0.5059004
-0.25152037 -0.20087123 -0.25691906 0.088625394 0.23389775 -0.042176787 -0.22724795 -0.10072371
-0.18716137 -0.009977359 -0.01926179 -0.26345778 -0.65882367 -0.06486868 -0.17237644 -0.17974001
-0.07151752 -0.2482922 -0.11051855 -0.11743441 -0.2464842 -0.44947806 0.008305052 0.15301536
-0.06815442 0.11003588 -0.20272309 -0.4028945 -0.41894084 -0.25688136 -0.20276079 0.142857
-0.13101208 -0.31578577 -0.18180096 -0.193225 -0.21215919 0.046990696 0.0066212807 -0.111598276
-0.39866728 0.06439998 -0.3724113 0.19202696 -0.111472 -0.41231865 -0.22749871 -0.11026038
-0.31011885 -0.23661153 0.019970195 -0.093340196 -0.29010648 -0.14897668 -0.356522 0.14119811
-0.23916699 -0.23705512 0.0442397 -0.15599106 -0.103181794 -0.34609926 -0.02662142 -0.10889551
-0.12920673 -0.24070987 -0.13933274 -0.1891282 -0.05499965 -0.31125456 -0.28053167 -0.24141322
-0.6704715 0.0958223 -0.04110132 -0.30177796 -0.13600981 -0.0059327176 -0.09660373 -0.34044343
-0.29255494 0.19026868 -0.0770924 -0.32837617 -0.19583228 -0.040674802 0.27554074 -0.47400126
-0.09506663 0.07414248 -0.10785576 0.21803059 -0.48661503 -0.10298591 -0.34266558 -0.21253252
-0.064499155 -0.20044151 0.32989028 -0.36290032 -0.12554821 0.2292363 -0.06921169 -0.13269769
-0.10725887 -0.18214609 0.062529266 -0.42291448 0.18411325 -0.46398762 0.100338146 -0.2614549

fc2.weight f4 [256, 128]
00000000: 362e 2cbe 8ffa 583d 9a96 d9ba 94dc 593c
00000010: 3107 b63d 7b80 f4bd 634b fcbd 1fea 02be
00000020: 4368 53be 5f7f 81bd 6cd9 cebd f13f 91bd
00000030: 2f72 3bbd 20f7 03be c592 aabc 7eb5 75be
00000040: 68f6 d9bd 1a84 08be 9c65 583e 858f d6bc
00000050: 8f7e 1a3e 8973 bd3d b0a5 323e 59c3 6ebe
00000060: 977f 623d 1bfb a73d 580b d73c 7418 c83c
00000070: 317f a13e 0a74 33be 1912 0d3d e6cf a5bd
00000080: ccea ca3d e22e 953c 442c 51be 3ae7 63be
00000090: 216d 3f3d 0955 a93d 9e5d 2f3e b21a 9e3d
000000a0: b69e b1bd 0964 37be 96d4 023e 56f1 96bc
000000b0: 9c2d 3d3e add4 7e3e 1694 ce3d 83ab 1cbd
000000c0: 3a1e d43d a3e7 fc3d ab5b bfbe 3d3b 0e3d
000000d0: 9d65 f33b be31 38be 309e ecbd 0179 1ebe
000000e0: b1d5 adbd c98c b7be c0bc 9a3d a71d 5a3d
000000f0: b601 97bd c9af 0bbd c74c 5f3e 938a f5be
00000100: 6c68 a0be 6a2c 3cbe c6e7 10be de3b 06be
00000110: 4ed1 ba3d e86c d03d de1d a1be 7436 91bd
00000120: b1e7 1f3e 8eae ee3d b4a6 9bbd 517e 0e3e
00000130: 25d8 613d 535c e73c 2d28 bcbd 5811 b6bc
00000140: bbc7 b23b 8bc2 8b3d 1363 10be 21da 6a3d
00000150: 45ae a03b f308 6dbf 4c3f 4f3a 71e7 d83c
00000160: b0e8 9dbe a624 df3d 8f47 d8bc 18e6 5bbe
00000170: 3ae0 9f3c 7c14 97bd ff41 8abd 1d3f 21be
00000180: ad01 37be d33c c53d 23af 3abd 93c1 1abe
00000190: 9041 56bd 7025 bdbe 37d8 bcbd 7b65 5b3d
000001a0: 9573 b4be 7bab 1fbe 8d82 8f3c 0405 02bf
000001b0: ab80 a5bd 21a9 6bbe 9ba7 07bd 78cf 2ebe
000001c0: 934e d1bc 7cd8 ef3d c4e1 97bd 01fd 153e
000001d0: 2c08 05bd f232 263e a669 e53d e280 133e
000001e0: a2fc cfbd 28ee 85bd cc82 a4bd 517b b5be
000001f0: b286 b1bd 68a9 ebbe f76b 4cbe 14b9 1a3e
00000200: d4e3 8cbd f577 f73d 504b bbbe 1f5d b2bd
00000210: 498c 5cbe 64ab 903e f67c 60bc 5768 17be
00000220: 0be7 a7bc 7b12 063e 40d3 2f3e bb11 1fbe
00000230: 2af9 83bc 7092 94be 70b3 a03e ba5c 913e
00000240: b12b 0cbe 434c b03d 7dc2 5e3d 71cd fc3d
00000250: 1e59 3a3d d1bd 40be 9f88 413e 6973 88be
00000260: 6cd6 48b9 9fa4 b8be 17fc 2b3c 78d9 a83d
00000270: 7726 173e bb76 7ebe 0f24 e0bd ed5b fe3e
00000280: 4739 a33d b62d 88be 698a 193e 4f4a 6c3d
00000290: 9973 d9bd 9bd7 55bd 1f17 b33b 769a f5bd
000002a0: 7273 403e 9629 2ebf c168 44be a496 64bd
000002b0: 73a3 10be cd00 aa3d f73e dd3e 274f 973c
000002c0: 3c0e 543e 1187 823e 6798 5dbe d6dc d6bd
000002d0: aacd e6bc 13ce b73b eeda b1bd e473 6d3c
000002e0: 5b3c 75bd 9e15 85bd 8c96 f23d e036 62be
000002f0: 8a32 d3bd 5fd3 94bd 180d 513e f865 b9bd
00000300: 0b1f 5f3e eb1f 24bd 03f7 a9bd 8290 e83d
00000310: 922b 7b3d 1fff 85be e89f a33b 4c41 8ebb
00000320: 15b0 cf3d 07ff c7bd f207 87be b5ed 5cbe
00000330: 7dc0 723d f59e 77be d362 9ebe bcf9 32bd
00000340: 83db 56be 57c6 e4bc 9a6e 4cbf 7ea5 15be
00000350: ad75 43be 01da f03c fb81 f3bd 6ceb db3d
00000360: 05cf 443d 4342 bfbd 7bcf d1bc d117 07be
00000370: 88a2 d23d 5354 083e c158 583e e41f c83c
00000380: ed10 b2bb a670 c73c 7039 81be d6e7 f83d
00000390: 0102 3abd 91e8 b03d b19c 05be 64fc 83bc
000003a0: 6d89 05be 5fea c83e 3815 72be c913 ce3d
000003b0: f439 d33d e463 9a3d 30c4 3bbd 1d12 333d
000003c0: d66b 293c f338 9bbd fca3 a0be 2325 173d
000003d0: 378e b0bd 7263 53be 18fc 20bc e877 5d3e
000003e0: 8225 933e c0b7 6d3e f826 77be 3a46 08be
000003f0: 285c dbbe 0ac1 13be 27e7 32be de56 c13d
-0.16814503 0.052973326 -0.0016600669 0.013297219 0.088880904 -0.11938568 -0.123190664 -0.12784623
-0.20645241 -0.06323122 -0.10100064 -0.07092274 -0.04576319 -0.1288724 -0.020821938 -0.23995015
-0.106427014 -0.13331643 0.21132511 -0.026191482 0.15087341 0.09250552 0.17446017 -0.23316707
0.05529746 0.082021914 0.026250526 0.024425723 0.31542352 -0.17524734 0.034441087 -0.08096294
0.09908065 0.018210832 -0.20427042 -0.22256175 0.046734933 0.08268172 0.17125556 0.077199355
-0.0867285 -0.17909254 0.12776408 -0.018425625 0.1847443 0.24885817 0.10086839 -0.038249504
0.10357328 0.12348869 -0.37374625 0.034724463 0.0074278847 -0.17987725 -0.11553609 -0.15475847
-0.08488024 -0.35849598 0.075555325 0.053250935 -0.07373373 -0.03410319 0.21806632 -0.47957286
-0.31329668 -0.18376318 -0.14150915 -0.13108775 0.09121953 0.10177022 -0.314681 -0.07090464
0.15615727 0.116543874 -0.076001555 0.13915373 0.055137772 0.028242266 -0.091873504 -0.022225067
0.0054559386 0.068242155 -0.14100294 0.05733693 0.004903587 -0.9259178 0.00079058553 0.026477547
-0.3084159 0.10895662 -0.02640131 -0.21474493 0.0195161 -0.07376954 -0.06750869 -0.15746732
-0.17871733 0.09630742 -0.04557718 -0.15112905 -0.05230862 -0.36942625 -0.09220927 0.053563576
-0.35244432 -0.15592758 0.017518306 -0.50788903 -0.08081182 -0.23013736 -0.033118825 -0.1707133
-0.025550162 0.11711213 -0.07416108 0.14647295 -0.032478496 0.16230372 0.112017915 0.14404634
-0.10155608 -0.06539565 -0.0803276 -0.35445645 -0.08668269 -0.46027684 -0.1996306 0.15109664
-0.06879392 0.12083427 -0.36580896 -0.08709168 -0.2153789 0.2825576 -0.013701668 -0.14785896
-0.020495912 0.13092987 0.17170429 -0.15534107 -0.016110022 -0.29017973 0.313869 0.28391057
-0.13688542 0.08608296 0.054384697 0.12343872 0.045495145 -0.18822409 0.18899773 -0.2665055
-0.00019153365 -0.36063096 0.010497115 0.08244604 0.14760767 -0.2484998 -0.10944378 0.4967951
0.07969909 -0.26597375 0.14994206 0.057688054 -0.10617752 -0.05220757 0.0054654027 -0.11992352
0.18794039 -0.68032205 -0.19180585 -0.055807725 -0.14124851 0.08300934 0.432121 0.01847036
0.20708555 0.25493672 -0.21640168 -0.1049134 -0.02817424 0.0056092828 -0.08684336 0.0144929625
-0.059872013 -0.06498264 0.11845121 -0.22091246 -0.10312374 -0.07266878 0.20415151 -0.09052652
0.21789186 -0.0400695 -0.08299067 0.11355688 0.06132085 -0.26171204 0.0049934275 -0.00434128
0.10141007 -0.097654395 -0.2637325 -0.21575053 0.059265602 -0.24181731 -0.30934772 -0.043695197
-0.20982175 -0.027926607 -0.79856265 -0.14613912 -0.19087858 0.029400827 -0.11890026 0.107382625
0.04804899 -0.0933881 -0.02561163 -0.13192679 0.102849066 0.13313417 0.21127607 0.02442927
-0.0054341466 0.024345707 -0.25239134 0.12153594 -0.045412067 0.086381085 -0.13048054 -0.01611156
-0.13040705 0.3924131 -0.23640907 0.100623675 0.10313788 0.07538584 -0.045841396 0.043718446
0.0103406515 -0.075792216 -0.3137511 0.03690065 -0.08620875 -0.20643404 -0.009825729 0.21627772
0.28739554 0.23214626 -0.24135959 -0.1330804 -0.42843747 -0.14429107 -0.1747099 0.09440397

fc2.bias f4 [256]
00000000: a005 86be 0cb8 6abe 55d7 2fbd 6a40 833d
00000010: 6128 b1bd 935e 61be 3558 98bd 8366 ef3d
00000020: 4713 ffbb f44f 6bbe 14fc 7dbe daac 33be
00000030: e370 2bbe 5aa4 0cbe 5855 a9bc 895d 5ebe
00000040: e5ea 4bbe ffb7 f5bd 266f 13be 32ac b4be
00000050: 948e 77be 1457 1dbe 16ff 37be 9e30 6bbe
00000060: 41a7 c3be 40fa 0cbe 53fd 4bbe c995 b9bd
00000070: 5929 9dbd e0cf c3bd 8509 0abe f767 78be
00000080: 2abd 63be 16bd 72be 2446 9ebe 4bfc 7bbe
00000090: cf1c bf3e 8e8e 0ebe 5cd1 60be 97bb eabd
000000a0: 4ae3 6dbe 70ce 26be 192d 8dbd ae4c 83be
000000b0: e7f9 82be 8f64 efbc ffab fdbc 6b78 a6be
000000c0: 88d4 52be e6fb 14be da75 aebe 1f12 99be
000000d0: 7de3 8ebe 0d75 b4bd 6d42 43be f203 2dbe
000000e0: 9a94 1bbe cb78 84be 2091 f9bd 9c78 7ebe
000000f0: 9d0f 53bd 522c 2dbe 5203 76be 8f17 c7be
00000100: 0b9f 7a3c 3612 8cbd c9cf 643c 8aae 1c3d
00000110: 7585 ad3d f754 9bbe 291c 4dbe bd54 a0be
00000120: 80fb 35be 12da c5bd 018b 733d dcca 92be
00000130: 43d2 1ebd ba93 6ebe e4c3 0f3c bfc8 41be
00000140: f6f5 88bd c536 38be 8232 f4bd 2d61 87be
00000150: 37b2 6ebe 4668 57be c214 3f3f a9e1 70be
00000160: 488b fb3d 784d 1abe 269a 64be caf2 3dbd
00000170: 3f73 43be a9fc 91be b160 94bd 0c2a c0be
00000180: d7a8 b4be 4e99 b9be d3e8 bc3a efe5 72be
00000190: 6e59 71bd 59fe 5abe d5ee 71be 9931 84bd
000001a0: f8d2 8dbd f6e7 a8bd b70d 79be 18a3 53bd
000001b0: a9ce 1e3d e4b6 9dbe 0ed0 3dbe 3468 42be
000001c0: 6757 11be e533 10be cd95 993d df27 553a
000001d0: 01ba 78be d3ef 89bc 8ed0 6ebe 62ab 56be
000001e0: 700d 1bbe 4613 cdbe 0d6b d23d 4cb4 63be
000001f0: d3b5 1dbe 07cd 803e 9001 31be 32db 88be
00000200: 451a f7bd 3c06 60be 1f4a f6bd 14e5 ecbc
00000210: 133b 99be 8063 c6be d9ad 18be 6a19 72be
00000220: f845 98be bc71 76be 4830 9abe 055c 55be
00000230: d39e 523c 8410 5dbe b070 64bd 1ec2 74be
00000240: d80d 6abe b4f6 19bb 301a 92bd 3ab0 b2be
00000250: 14a0 403e 4864 38be 5fe8 e1bd 505a e33d
00000260: dc83 b8be 3913 90bd 1f7b c4be 5f97 cebd
00000270: c4a6 54be 1774 19be 4d3a 84be f37e 7fbe
00000280: 8d11 babd fe7d 12be f54b c83c fc75 b1be
00000290: 5785 8ebb 35e0 ccbe 7d0c 9abe c458 9bbc
000002a0: bd3a d8bd 0317 1bbe 78e5 b0bd e7d9 76be
000002b0: e730 c7bb 757e de3d a1c6 46bd af46 3dbe
000002c0: 8e9b c1bd d7b9 c3bc f53b 90bd 01a3 53bd
000002d0: 6b20 8fbe cb49 963d 1308 bebe 690d 35bd
000002e0: bbdf a23e 2040 31be c2cf 40be b2fc a7bd
000002f0: 6211 2dbe 1b38 4cbe cbbf eabe a0f2 56be
00000300: 97ca 8ebe 412e 6b3d 26bc 23be a823 dbbd
00000310: 3e32 09be 74ab f8bc 7326 d7be f893 4b3c
00000320: b0d9 58be b6ae 1fbe 18d6 60be 1476 7abe
00000330: 3241 76be ebdc 10bf a920 d1bd 38d1 3cbe
00000340: 9418 f6bd aa9f 41bd 6f03 21be 93bc 9fbd
00000350: aa50 f3bd 6dd3 4ebe 5d56 20be 994c 7cbe
00000360: d4bf 19be 0b6a 81be 870b fabe ed4a 5bbe
00000370: 3566 a9bd 04eb c5be 03f2 f3bd 48a7 d13c
00000380: 6759 0fbe e661 41be 95f0 94bd 5848 5cbd
00000390: b154 b6bd 8146 bebe a521 00be 81f9 3cbe
000003a0: 31a3 233e ade2 8cbe bfaa 88be 036f 6fbe
000003b0: 454a babe ed47 acbe c2fc 92be b72a 1bbe
000003c0: ae67 aebd 9caf 96be 6390 02bd b14f a43d
000003d0: 5b2a 9f3e 5d0b 67bd b7e5 80be 11ef b13c
000003e0: 0033 23bd 88d1 edbe 32a3 b5be 72d5 28bc
000003f0: ca83 91bd f864 9fbd 998e 80be 3397 9ebe
-0.26176167 -0.22921771 -0.042929966 0.064087704 -0.0865028 -0.22008733 -0.07438699 0.116894744
-0.0077842805 -0.22979718 -0.24803191 -0.17546406 -0.16742282 -0.1373457 -0.020670578 -0.21715368
-0.19913824 -0.11997985 -0.14397869 -0.35287625 -0.24175483 -0.15365249 -0.17968401 -0.22967765
-0.38213542 -0.13767338 -0.19920854 -0.090617724 -0.07673902 -0.095611334 -0.13480194 -0.2425841
-0.22240129 -0.23704943 -0.30912888 -0.24607961 0.37326667 -0.13921568 -0.21954864 -0.11461561
-0.23231235 -0.16289687 -0.06893367 -0.2564444 -0.25581285 -0.029222755 -0.030965803 -0.32513747
-0.20588887 -0.14549217 -0.3407429 -0.29896638 -0.27907935 -0.08811388 -0.19068308 -0.16896036
-0.15193406 -0.25873408 -0.121858835 -0.24850696 -0.05152856 -0.16911438 -0.24024704 -0.3888516
0.015296708 -0.06839411 0.0139655555 0.03825239 0.084727205 -0.3033826 -0.20030273 -0.3131465
-0.17771721 -0.09660734 0.059458736 -0.28670394 -0.03877474 -0.2329854 0.008774731 -0.18924235
-0.06687538 -0.17989643 -0.11923696 -0.26441327 -0.23310171 -0.21035871 0.7464105 -0.23523583
0.12282425 -0.15068614 -0.22324428 -0.04637412 -0.19086932 -0.28513077 -0.07245005 -0.3753208
-0.35285065 -0.36249775 0.0014412649 -0.23720525 -0.058923177 -0.21386088 -0.23626263 -0.064547725
-0.06925005 -0.08247368 -0.24321638 -0.05166921 0.038771305 -0.30803597 -0.18536398 -0.18985063
-0.14193498 -0.14082296 0.07499275 0.00081312464 -0.24289705 -0.01683799 -0.23321745 -0.20963815
-0.15141845 -0.40053767 0.102743246 -0.22236747 -0.15401392 0.25156423 -0.17285752 -0.26729733
-0.120655574 -0.21877378 -0.12025856 -0.028917827 -0.29927883 -0.38747787 -0.14910068 -0.23642507
-0.29740882 -0.24066824 -0.3011496 -0.20835884 0.012855249 -0.21588331 -0.05577153 -0.23902175
-0.22856843 -0.0023492994 -0.07133901 -0.34900075 0.18811065 -0.18007004 -0.110306494 0.1110121
-0.360381 -0.070349164 -0.38375184 -0.100874655 -0.20766741 -0.14985691 -0.2582573 -0.24950771
-0.09085379 -0.14305875 0.024450282 -0.34660327 -0.0043493914 -0.40014806 -0.30087653 -0.018963225
-0.105580784 -0.15145497 -0.08637518 -0.2410656 -0.0060788277 0.108639635 -0.04852927 -0.18483995
-0.09453498 -0.023892326 -0.07042686 -0.051669125 -0.2795442 0.07338294 -0.37115535 -0.044202242
0.31811318 -0.17309618 -0.18829253 -0.08202495 -0.16901162 -0.19943278 -0.4584945 -0.20990992
-0.2788894 0.057417158 -0.15989742 -0.1070016 -0.13398072 -0.030355193 -0.42021522 0.012425415
-0.21176791 -0.1559399 -0.2195667 -0.24459106 -0.24048308 -0.56587094 -0.102113076 -0.18439186
-0.12016407 -0.04727141 -0.15723966 -0.077996396 -0.1188062 -0.2019784 -0.15657945 -0.24638595
-0.15014583 -0.25276217 -0.4883692 -0.214153 -0.082714476 -0.38655865 -0.119113944 0.025592461
-0.13998948 -0.18885002 -0.0727245 -0.05377993 -0.08902872 -0.37163165 -0.12512834 -0.18454553
0.15980221 -0.2751669 -0.2669277 -0.23382191 -0.36384788 -0.33648625 -0.28708464 -0.15153013
-0.08515869 -0.29430854 -0.03187598 0.080230124 0.31087002 -0.05640732 -0.2517526 0.021720441
-0.03984356 -0.46448922 -0.3547607 -0.010304796 -0.07105215 -0.0778293 -0.25108793 -0.3097473

fc3.weight f4 [4, 256]
00000000: 802f 613d b384 89bd f623 8abd a987 0b3d
00000010: 7ba3 503d f82d 93be 2140 5c3e 9b06 24bf
00000020: 61b2 dfbd ac69 68be 4a6e 073f 1810 763f
00000030: c17e 8c3e e7d1 fdbe 1ec5 2ebf d046 193e
00000040: 0c10 093c 82d4 40bf 5ea0 363b c215 733e
00000050: 266b fc3e b187 35be 9961 583e aff4 39bd
00000060: 8b37 ca3e 34e8 af3e d122 93be 02a3 363f
00000070: 0716 1e3f a5a2 e83d 9195 15bf d0d6 293e
00000080: 98af 9d3e d52c 0f3f 8996 9e3d cafd a03d
00000090: 8bd4 5ebd 671c 3a3f 595e d33e 1489 e33e
000000a0: f126 3dbe eeb6 ebbe b67c 8cbe 87ec d83e
000000b0: 2a45 d5bd cc8c 1a3f cf55 24be 1f47 39bf
000000c0: 6c10 a5be a9a2 39bd bdb0 773e 819c bc3e
000000d0: 7649 4ebe b6ce e7be 887c 173f 198e 973e
000000e0: 6ba9 21be b0ac cf3d ddd2 0dbf 0257 003f
000000f0: cd9f 8e3d 0e06 fe3e 7381 8cbe 628c 153f
00000100: 6517 873e 0d5a 363f 7d4b 1cbf 9d56 533e
00000110: 5588 68bf 0ceb 47bf 572f e83e 636d 65bd
00000120: 8cac a2bd 8896 1abe 35a8 05bf 0dcc e33e
00000130: c743 97be aa5e ebbe fef0 e03e a920 9c3e
00000140: ce20 09bf d407 2fbf 3942 433f f95c 953d
00000150: 5eb0 9d3e c5be e03e 0f8d e63e cc9c 1abf
00000160: 0c77 16bf 6dc2 f6be d008 b63e 4e95 c33e
00000170: 42a7 f43e 1817 ca3e a20c d6be dd30 02be
00000180: 6c19 b8be 7c05 9f3e c3e7 fd3e a672 9f3e
00000190: a4f2 9bbe ea4f 20bf dc5c 213e 25c7 0c3f
000001a0: 4096 dfbe f6d7 21bf 5ad2 16bf 5501 473f
000001b0: dd73 ab3d 9644 dbbe 83b4 46be 9e85 433f
000001c0: f164 b3be db06 e03d d509 03bf cf14 e53e
000001d0: 14be fdbe 023b fe3d a55b 31be 253a 60be
000001e0: 6769 173e 56cf 3b3c bc8f d33d 3741 743f
000001f0: 469a 193e 0e05 e8bc 82c1 4cbe 1215 fa3e
00000200: 31da 043f e104 8e3d 3f49 d03d fd94 f13c
00000210: 1dae 8a3d b934 3e3e 5eac 49bf 1250 983d
00000220: b84a 5a3f 8a05 8cbe a3fd 5bbd 361e 1fbf
00000230: 482b 94be 8b2d 913e 985d 05be db4b d03d
00000240: b279 603f 9f9a 42bf e666 85be 8787 18bf
00000250: a61d 13be ac52 563e e9b4 6ebe 2632 083e
00000260: 7773 ab3e 2417 96be 2bb6 31bf 2c60 583c
00000270: d20f 933e 8193 63be 7b09 aebe accd 4fbd
00000280: 3945 483f 8a49 1abe 7a56 47bf 7c76 c2be
00000290: 93ca c43d 8ac1 583e b1d3 323f b084 6abe
000002a0: 0d12 1d3e 0a10 f73d 33ef debe 7422 3bbf
000002b0: 1b4c 06bf 6e47 46bd 653e eebe dbc8 bf3e
000002c0: 6030 24be 3694 a23d 03f9 9e3e 4046 8dbe
000002d0: 2ee3 193f b319 20bf ed1a 4c3a f0b9 273f
000002e0: 30e3 d63e fcef bfbe 9b20 3abf 1fa6 05bf
000002f0: 6b87 c53e 7984 4f3f 65a0 dd3b f3ef 383f
00000300: 115b 3e3f cf3a 25bf d2a1 13bf 179d 82be
00000310: a8a4 b8be 315b 463f 287d d83c 6890 42bf
00000320: f032 9e3e a0c6 583e c95b 99be 8269 b03a
00000330: 23aa 923d bd5b 643e d63f 003f 1502 4dbe
00000340: 6484 d6be de0e c2bd 8fd8 69be 28d9 253f
00000350: c7f2 343e c930 9cbe 3e22 f13e 4c38 5bbf
00000360: d00d 903c c4a6 70bf e117 87bd cfa8 f3be
00000370: 9345 83bf f08a 743e 20f2 1ebe 89af 1ebf
00000380: 1ff7 3e3f 5f6b 59bf 0409 37bd bd67 0b3e
00000390: 4393 1dbe fa2d 20bf 5100 203f 017e a6be
000003a0: 2938 ad3d ee4a fbbe eab2 a9b9 0239 4fbd
000003b0: 73d4 00bf 9281 373f 55da 163e 0a78 f7bc
000003c0: b69d 6a3d 6beb 0c3e 2e48 81be 895f bb3e
000003d0: 3468 393e cb16 41be 3524 623f 0684 213e
000003e0: 039d 443e aa70 ee3c a327 78be cd27 0abf
000003f0: 7afa 7b3f bc6d 9abd 3245 033e 2552 8f3e
0.05497694 -0.067147635 -0.0674514 0.034064922 0.050937157 -0.2874601 0.21508838 -0.6407258
-0.10922695 -0.2269656 0.5290266 0.9611831 0.27440456 -0.49574205 -0.68269527 0.14968419
0.008365642 -0.7532426 0.0027866582 0.23738769 0.49300498 -0.17727543 0.2113098 -0.045399364
0.394955 0.34356844 -0.287375 0.7134248 0.6175236 0.11359147 -0.58431345 0.1658585
0.3079803 0.55927783 0.07743556 0.078609064 -0.054401916 0.7269959 0.4128292 0.4444052
-0.18471886 -0.46038002 -0.27438897 0.42367956 -0.104135826 0.6037109 -0.16048358 -0.7237415
-0.3223909 -0.04532114 0.24188514 0.36838153 -0.2014521 -0.45274895 0.59174395 0.296006
-0.15787284 0.101403594 -0.55399877 0.50132763 0.06964073 0.49613994 -0.27442512 0.5841733
0.26385036 0.71231157 -0.61052686 0.20638509 -0.90833026 -0.7809303 0.45348617 -0.056012522
-0.07943067 -0.15096486 -0.5220979 0.44491616 -0.29543898 -0.4597066 0.43933862 0.30493668
-0.5356568 -0.6837132 0.7627292 0.07293124 0.3079862 0.43895546 0.45029494 -0.60395503
-0.587754 -0.4819521 0.35553598 0.38199848 0.47783858 0.39470744 -0.41806513 -0.12713952
-0.35956895 0.31058872 0.49590883 0.31142157 -0.30458558 -0.6262194 0.1575808 0.5499137
-0.4366932 -0.63220155 -0.5891472 0.7773641 0.083717085 -0.42825764 -0.19404797 0.7637576
-0.3503795 0.109388076 -0.5118688 0.44742438 -0.4955908 0.124135986 -0.17320116 -0.2189718
0.14786302 0.011463007 0.103301495 0.9541201 0.15000257 -0.028322723 -0.19995692 0.488442
0.51895434 0.06934524 0.101702206 0.029489988 0.06771491 0.185748 -0.78778636 0.07437147
0.8527026 -0.27347976 -0.053708684 -0.62155473 -0.2893927 0.2835506 -0.13023984 0.10170718
0.8768569 -0.76017183 -0.26055068 -0.595818 -0.14366779 0.20929974 -0.23311199 0.1330038
0.3348653 -0.2931453 -0.6941859 0.013206523 0.28723007 -0.22224237 -0.33991608 -0.050733253
0.78230625 -0.15067115 -0.7786633 -0.3798102 0.096089505 0.2116758 0.69854265 -0.22902179
0.15338917 0.12063606 -0.4354187 -0.73099446 -0.5245988 -0.048407964 -0.46531978 0.37457928
-0.16034079 0.07938425 0.31049356 -0.2759266 0.60112274 -0.62539214 0.00077859947 0.65518093
0.41970205 -0.3748778 -0.72706 -0.52206606 0.38579878 0.8106151 0.0067635053 0.72241133
0.74357706 -0.6454286 -0.57668793 -0.25510475 -0.36063123 0.774829 0.026426867 -0.76001596
0.30898237 0.2116952 -0.2995284 0.0013459178 0.07161357 0.2230062 0.50097406 -0.20020325
-0.4189788 -0.09475492 -0.22836517 0.6478448 0.17670737 -0.3050597 0.47096437 -0.8563278
0.017584711 -0.94004464 -0.065963514 -0.47589728 -1.0255607 0.23881125 -0.15522051 -0.61986595
0.74595827 -0.8492946 -0.044686332 0.13613792 -0.15388207 -0.62570155 0.6250048 -0.32518008
0.08457977 -0.49080604 -0.00032367493 -0.050591476 -0.5032417 0.71682084 0.14731725 -0.030208606
0.05727931 0.1376168 -0.2525038 0.36596325 0.18106157 -0.18856351 0.883365 0.15773019
0.1920052 0.029106457 -0.2423387 -0.5396698 0.9842907 -0.075404614 0.12819365 0.2799236

fc3.bias f4 [4]
00000000: 6bfc 763c 226c 5bbd 91a9 d03d 8fb2 c03c
0.01507483 -0.05356992 0.10188592 0.023522643

bn1.weight f4 [128]
00000000: 4ff7 243f 9137 173f 3f71 df3e 8f08 133f
00000010: d16f 073f f40a 0f3f 69eb 003f 47f6 003f
00000020: b142 2a3f e8d4 193f 5a24 043f 32e9 3e3f
00000030: 6281 113f bfaf e23e 622c 0d3f 97ef f03e
00000040: 7918 fe3e d4f0 4a3f 934a 0a3f 39b4 133f
00000050: da4c e93e 4b31 2a3f 135b 083f 342d 013f
00000060: f327 0b3f 0fe9 003f 5570 063f 73b0 e53e
00000070: 83b7 7dbe 01d5 163f f56f 173f b6f0 ce3e
00000080: b2c0 003f 4d98 003f 6902 1b3f 38d4 033f
00000090: cf3f 0e3f 5b65 163f 7d43 833f 4498 003f
000000a0: dd12 0d3f 1461 ff3e f425 1a3f 8de4 133f
000000b0: 3824 123f 856d 003f cb28 253f 656c 3b3f
000000c0: a4cb 183f 3e95 e63e c5cf 083f 348d 013f
000000d0: 4305 443f 2be7 e73e ff9d 203f a20a 2a3f
000000e0: 14cd 283f fb05 093f c244 443f cdad fa3e
000000f0: 6e60 573f 5702 103f b8a4 1a3f 9cfc 3a3f
00000100: f632 533f baa4 1b3f 617a 1e3f 238a f93e
00000110: 3021 d23e 788d 283f 31d1 143f 85fc 343f
00000120: fab6 003f 5ff3 e93e fbf5 073f 6d21 303f
00000130: 1fa5 da3e 8fc4 0d3f b767 273f 3dcc 203f
00000140: 3992 2a3f 7e6e 043f e1c9 153f 9e88 263f
00000150: 2b4e 003f bd33 2d3f defc fc3e 5cc0 f53e
00000160: ff3c eb3e 54b8 333f 731b 503f 080f 323f
00000170: e11c f13e 0858 cc3e 26f5 163f 7416 2b3f
00000180: 2231 ec3e b645 0d3f fd66 133f 05da 033f
00000190: b116 013f 2571 003f 0c49 293f 7cbc 0a3f
000001a0: 6015 113f 9e6d 1e3f 8654 ca3e b1be 1e3f
000001b0: c3b7 0a3f b0e4 0d3f 349b ab3e 3f3c f13e
000001c0: 76aa 783f efd1 393f f3d5 1b3f 6db4 423f
000001d0: 380c 213f 52e7 163f 0ac9 033f ceeb 1f3f
000001e0: 9c89 1b3f 17a8 043f 33eb 0e3f 94d8 ef3e
000001f0: 7363 1d3f 0751 203f 5560 253f a838 393f
0.6443986 0.5906916 0.43641087 0.57434934 0.52904993 0.5587609 0.5035921 0.5037579
0.66508013 0.60090494 0.5161797 0.7457458 0.5683805 0.4427471 0.5514585 0.47057793
0.49628046 0.79273725 0.5402004 0.5769687 0.45566446 0.66481465 0.5326397 0.504596
0.5435783 0.5035562 0.52515155 0.44861183 -0.24777035 0.5891877 0.5915521 0.40418023
0.5029403 0.5023239 0.6055055 0.51495695 0.55566114 0.58748406 1.0254971 0.5023234
0.5510691 0.49878752 0.6021416 0.57770616 0.57086515 0.50167114 0.6451537 0.7321227
0.5968573 0.45035738 0.5344203 0.50606084 0.7657053 0.45293555 0.6274108 0.66422474
0.65937924 0.5352475 0.76667416 0.48960724 0.84131515 0.5625357 0.6040759 0.730417
0.82499635 0.6079823 0.61905485 0.48738202 0.41040945 0.65840864 0.581317 0.70697814
0.502792 0.4569349 0.5310971 0.68801004 0.42704102 0.5537805 0.6539263 0.6281164
0.6662937 0.517311 0.5851117 0.6505221 0.50119275 0.6765707 0.49411672 0.4799832
0.45944974 0.7020314 0.81291884 0.69554186 0.47092345 0.39910913 0.58967817 0.66831136
0.46131235 0.55184495 0.5757902 0.51504546 0.5042525 0.50172645 0.66127086 0.54193854
0.5667324 0.6188601 0.3951761 0.6200972 0.5418665 0.55427074 0.33516848 0.47116277
0.971351 0.7258596 0.60873336 0.7605656 0.6290927 0.58946717 0.51478636 0.62469184
0.6075685 0.51818985 0.55827636 0.46844923 0.6147987 0.6262364 0.64600116 0.72352076

bn1.bias f4 [128]
00000000: f653 ce3d 39fc 463e 51b5 5dbd 64eb 193e
00000010: 700e 093d 9e39 563e cdc7 f03d 4500 9b3e
00000020: 1b4f 693e 8c96 6a3e 7b1f 2c3e d526 5f3e
00000030: 4d7f 063e 3ea0 903e 5e2a 7c3e 2f51 4d3d
00000040: aa42 4a3e a293 8d3e e009 8b3e 14b3 273d
00000050: 1bec 363d 71be 8f3e d829 203e 981b 5c3e
00000060: 98f8 533e 8276 913e e5a5 8d3e a793 293e
00000070: 1e50 3ebf dc13 8e3e aed8 043e f943 193e
00000080: 9775 6a3e 8abb 403e f544 803e 089a 7d3e
00000090: f493 903e e4c4 453e 2378 2f3e 9c49 2e3e
000000a0: 2cd1 fb3d 94c8 6a3e c8e4 8a3e d63a 923e
000000b0: c3e1 2a3e 3bfc 3c3e 4e38 a23d 55cf 683e
000000c0: 71e0 a53d 3df3 15be 0b50 3d3e 8a3c d13d
000000d0: 5848 913e b61d d63d 7804 173e ee7b bf3e
000000e0: 0986 4e3e 08a9 643e 1269 1a3e 0520 cd3d
000000f0: f1df 743e df96 a83e 5c00 733e e8c2 b83e
00000100: 2af0 723e c2c4 a33d d4a3 a53e f881 0e3e
00000110: f916 5b3e aad4 bb3e a945 7f3e 431d 863e
00000120: dc49 783e a24f 243e c314 d63d 0369 7e3e
00000130: ec72 b13e 80be 2b3e 6424 873e 8684 e23e
00000140: 6d56 f23e 4267 1b3e 5c9d b53e f95f 953e
00000150: ac11 2c3e ba98 f33d f295 993d 388d abbe
00000160: 5479 083e 75d1 f33d 9098 a73e 0f60 6b3e
00000170: a697 023e a9ba 2f3e 668f 6d3e d8af 123e
00000180: 6c51 d53d ccb3 5f3c 75b4 4d3e 8dc4 2f3e
00000190: 0e59 e43e d4fa 3e3e 9483 6c3e 5476 5d3e
000001a0: 2f26 9a3e 33ee 993e 36f4 e93d 819b 9f3e
000001b0: 42b8 7e3e 2829 2d3e f71a 92bd 525f fe3d
000001c0: 761a b83d 0e69 0f3e ae70 a23d d6c9 133e
000001d0: 06ce 7a3e c12d 703e a0ad 663e 5929 393e
000001e0: e604 003b 80c6 2f3d a881 b23e 755c 353e
000001f0: f693 0c3e eb2c 8b3e c857 203d 206a 363e
0.10074608 0.19432153 -0.054127995 0.150312 0.033461034 0.20920417 0.11756859 0.30273643
0.22784083 0.22908992 0.16808884 0.21792157 0.13134499 0.28247255 0.24625537 0.05012625
0.19751993 0.27651697 0.27155972 0.040942267 0.04465876 0.28074983 0.15640962 0.21494901
0.207003 0.28410727 0.2766563 0.16560231 -0.74341 0.27749527 0.12973282 0.14967336
0.2289642 0.1882154 0.2505261 0.2476579 0.2823788 0.19313389 0.17135672 0.17020267
0.12295756 0.22928077 0.2712767 0.28560513 0.16687684 0.18455593 0.079208955 0.22735341
0.080994494 -0.1464357 0.18487565 0.10216625 0.28375506 0.10454886 0.14747798 0.37399238
0.20168318 0.22330105 0.15079144 0.10015873 0.23913552 0.32927606 0.23730606 0.36086202
0.23724428 0.07996513 0.32351553 0.13916767 0.21395482 0.36685687 0.24928917 0.261942
0.24246925 0.16046003 0.10453179 0.24844746 0.3465799 0.16771889 0.2639495 0.44241732
0.47331563 0.15176108 0.35471618 0.29174784 0.16803616 0.11894365 0.07499303 -0.3350618
0.13327533 0.11905185 0.32733583 0.22985862 0.12753162 0.17161049 0.23199233 0.14324892
0.104159206 0.013653707 0.2008837 0.17164822 0.44599193 0.18650371 0.23097068 0.2162717
0.30107257 0.30064544 0.11423533 0.31173328 0.24874976 0.16910231 -0.071340494 0.12420525
0.08989422 0.14004919 0.07931648 0.14432463 0.24492654 0.23454954 0.2252717 0.18082179
0.001953417 0.042913914 0.34864545 0.17711051 0.13728318 0.27182707 0.039146215 0.17813921

bn1.running_mean f4 [128]
00000000: ce47 683e 70cf db3e 4e95 693e 721b dd3e
00000010: 9a97 793e 3490 d93e 8bfd 403e e876 093f
00000020: d095 cf3e 35d2 d73e 8cd3 df3e d305 153f
00000030: 49af 2c3f baa3 183f abbc b03e bdfb 003e
00000040: 7dd0 773e 622e 803e 0cb3 083f b3a6 ed3e
00000050: 97b9 ba3f cb6d b53e 3379 e53e bf2c 143f
00000060: 0216 873e 71c4 b03e c5ec 173f 69c3 903e
00000070: 24d9 133d 3aa5 b33f 3e06 013f de16 5e3e
00000080: 9726 a83e ad3d 443e 0875 033f 9444 453f
00000090: 3252 ba3e 3163 c23d eaa7 153e 96f9 803e
000000a0: 9ff4 0f3f 5ea3 943f c9d6 143f d427 593e
000000b0: 28d4 1a3f 6f80 003f 735f 713e bc97 603f
000000c0: 1a75 2c3e c237 ad3e c779 223f bd59 7c3f
000000d0: edca 143f 08e0 2d3f 63b8 173e ee9f 053f
000000e0: 34ff 913d fc02 f53e ccf3 2d3e 18a2 a63f
000000f0: c989 6c3e 5b50 323e 9bef 473e 6bd0 943e
00000100: 5558 363e cded 603e e772 0a3f 10a5 f73e
00000110: 0ffa 313f a8f6 e03e ac57 dd3e bab3 103f
00000120: 72fe de3e 7ce8 403f 4da7 b33e 01bc fb3e
00000130: e3b3 ed3e 0734 093e e5ed 803f 7eb3 0e3f
00000140: 68d9 213f 075d cc3e 4ea4 423f 70e7 653e
00000150: 6537 6d3f e0b1 e13d 7070 683e ce8e 883e
00000160: 7182 1a3e 3e51 333f fabf d03e 5485 a43e
00000170: 8e34 873e 7b3f 3e3e 6a54 c63e e061 243e
00000180: 8592 2b3e 5e9a 933e 338e 3d3e 14db 753e
00000190: b20e 213f f0a2 943e 254a 113f 9052 923e
000001a0: 2439 103f 856e 933e b93f df3e 123c 833f
000001b0: 2d8b 973e 0b34 263f 0246 503e 96cc 943e
000001c0: 5a20 ed3e e573 a83e 3c95 913f 42f1 243e
000001d0: 3e26 a03e f965 423f 0385 a53e 2900 ed3e
000001e0: f054 143f 3d33 ec3e 288b 093f ec55 803e
000001f0: 3641 273f 0ee2 5b3e 35f1 f93e d910 113f
0.22683641 0.429317 0.22810861 0.43185002 0.24374238 0.4249283 0.18846719 0.5369706
0.40543985 0.42152563 0.43716085 0.5821201 0.67454964 0.59624827 0.34518942 0.1259603
0.24200626 0.25035387 0.53398204 0.46416244 1.4587888 0.35435328 0.4481903 0.5788078
0.26383978 0.34524873 0.59345657 0.28274086 0.036095753 1.4034798 0.5040015 0.2168841
0.32841942 0.19164152 0.5135045 0.77057767 0.36390835 0.094915755 0.14614835 0.2519042
0.5623264 1.1612356 0.58140236 0.212066 0.60479975 0.50195974 0.23571567 0.8773153
0.16841546 0.33831602 0.6346707 0.9857443 0.5812214 0.6791997 0.14816432 0.5219716
0.07128754 0.4785384 0.16987532 1.3018217 0.23099436 0.17413466 0.19524996 0.2906526
0.17807133 0.21965714 0.5408158 0.4836812 0.69522184 0.43938184 0.4323095 0.5652424
0.435535 0.75354743 0.35088578 0.49166873 0.46426305 0.13398753 1.00726 0.55742633
0.6322236 0.39914724 0.7603196 0.22451568 0.9266265 0.11020255 0.22699142 0.2667145
0.15088822 0.7004584 0.40771466 0.3213297 0.26407284 0.18578903 0.38736278 0.16052961
0.16755112 0.2882871 0.18511276 0.24009353 0.6291305 0.2903056 0.5675376 0.28578615
0.5633719 0.28795257 0.43603304 1.0252707 0.2959837 0.6492316 0.20339206 0.29062337
0.46313745 0.3290092 1.1373668 0.16107658 0.31279176 0.7593685 0.32328042 0.46289185
0.57942104 0.46132842 0.5372796 0.25065553 0.6533388 0.21472952 0.4881684 0.5666633

bn1.running_var f4 [128]
00000000: 96f6 e83e 545c 003f 032e 6c3e ecda 333f
00000010: ae66 993e 793d 493f ef90 1d3e 38eb 373f
00000020: cf34 c23e ba71 3c3f 78bc 073f f422 6a3f
00000030: 6996 143f 1010 5b3f b5b1 093f ecf8 023e
00000040: ade0 0c3f 7a46 8e3e 3db2 343f e6a2 363f
00000050: 220b 4f3f ea78 e93e 3905 413f 7176 393f
00000060: 7fdf 903e 14c2 223f 704e 543f 9d6e c33e
00000070: b66e 2f3d 9541 0440 cc1e 583f bff0 bb3e
00000080: 28f7 d23e c069 6b3e ab42 2b3f 5e3a 333f
00000090: c904 cf3e 5706 2d3e a7f3 623e 33a4 0f3f
000000a0: 6932 0d3f b56c a03f c4b4 d33e 1ee6 873e
000000b0: c8e2 af3f e995 4a3f 9793 ac3e bc93 c83e
000000c0: 5029 5d3e f434 c53e 286c 2c3f 6aba 0240
000000d0: 5a45 553f 43ba 263f b5e2 233e 4bbe 103f
000000e0: 1c57 2c3e 90b6 063f 0ea4 863e 1f9e 0040
000000f0: 56f4 793f f4c3 893e e3b4 693e e7db 823e
00000100: ac5a da3e 8c5b 8f3e f685 553f d6ac 023f
00000110: 762b 823f f4ee 173f 28bf 4b3f ca2b 233f
00000120: a640 133f de70 843f 6ef8 393f d0ca 763f
00000130: e3e7 c63e ec87 963e 1230 b83f 663f fd3e
00000140: b462 5a3f 449b 553f 57f9 823f 85ee bc3e
00000150: 430d 923f be47 253e 9294 9d3e 3389 903e
00000160: b87c 5b3e db90 a53e 8c50 803f e48c 6f3f
00000170: 7939 8d3e b218 7c3e 8651 5a3f 4bcb bf3e
00000180: d024 793e ed4b 663f 67f0 7d3e 6201 983e
00000190: 0350 af3f df47 eb3e 57db 6e3f 7637 c03e
000001a0: c21f 9d3f 53a9 ac3e f3f7 153f 89b6 643f
000001b0: 872d fc3e 8427 263f cecd 893e 6d5b b93e
000001c0: 685d da3e 3455 ed3e 51b6 c63e 1824 1c3f
000001d0: 6af7 fb3e fe4b 933f 69bc d13e 52c7 763f
000001e0: 6209 4d3f 3090 4f3f b9b4 443f 807c c43e
000001f0: acad 113f 3161 a73e 78f9 1a3f caa3 593f
0.4550063 0.5014088 0.23064427 0.70255923 0.2996115 0.78609425 0.15387319 0.7184329
0.37930915 0.7361103 0.53021955 0.91459584 0.5804201 0.85571384 0.53786784 0.12790269
0.5503033 0.27788144 0.7058447 0.71342313 0.8087636 0.45600063 0.75398594 0.7244635
0.28295514 0.6357739 0.82932186 0.3817033 0.04283019 2.0665028 0.8442199 0.36707112
0.4120419 0.22989559 0.668986 0.70010936 0.40433338 0.1689695 0.22163258 0.56109923
0.55155045 1.2533175 0.4134885 0.26542753 1.3741083 0.79134995 0.33706352 0.39175212
0.2159779 0.38516963 0.67352533 2.0426278 0.8330895 0.6512796 0.1600445 0.56540364
0.16830105 0.5262232 0.2629704 2.009651 0.9763845 0.26907313 0.22822909 0.25558397
0.42647302 0.27999532 0.83407533 0.51044977 1.0169513 0.5934899 0.79588556 0.6373869
0.5752052 1.0346944 0.726447 0.9640322 0.3884879 0.29400575 1.438967 0.49462432
0.8530686 0.8344004 1.0232342 0.36900726 1.1410297 0.16140649 0.30777413 0.28229675
0.21434295 0.32337078 1.0024581 0.9357436 0.2758291 0.24618796 0.85280645 0.37459788
0.24330449 0.89959604 0.24798737 0.29688555 1.3696293 0.4595327 0.93303436 0.37542313
1.2275317 0.33722934 0.58581465 0.89341027 0.49253485 0.64904046 0.2691483 0.36202565
0.42649388 0.46354067 0.3881097 0.60992575 0.492122 1.1507566 0.40964058 0.9639789
0.8009244 0.8107939 0.7683826 0.38376236 0.5690563 0.3269134 0.6053691 0.8501555

bn2.weight f4 [256]
00000000: 5fb2 8d3f 36c1 4a3f 857f 8f3f 5373 803f
00000010: 0638 623f 17d8 9d3f 0865 5f3f 06e6 ba3f
00000020: dc8b 783f 7d7b 863f 9601 953f ec6a 3e3f
00000030: d108 b63f 5c89 6d3f 42e4 ba3f d890 cb3f
00000040: ee10 a13f cc80 cd3f dabd 443f 61fc d33f
00000050: 929c a73f 6555 733f e05c ab3f 5c59 803f
00000060: cdc1 a93f 7f10 9c3f ad72 c53f 8d84 943f
00000070: a6e6 bb3f 01be 9e3f 6192 a33f 8c2c 903f
00000080: 6b84 9d3f 3b27 903f 29b4 8c3f 5b05 a63f
00000090: 3f9e 9a3f b46a d03f 5cb2 893f 86a8 b73f
000000a0: f1c4 db3f b961 c73f f1dd 723f d50c 7b3f
000000b0: 310c d33f ec87 9c3f 21cf a63f ca51 913f
000000c0: 14b0 893f b890 503f 7f8a 5e3f 6e23 993f
000000d0: 3a99 9a3f 97de c83f 5cbb c83f 5884 ad3f
000000e0: 8adb ad3f af89 433f 4d01 0640 7e15 4a3f
000000f0: d8ba 833f 7505 913f 2528 833f 8397 f73f
00000100: 3af1 a13f fadf a63f 4c1d 4f3f bbcf 703f
00000110: bbea b83f 712c c13f 6b75 9e3f f6ae a33f
00000120: 667d a53f a6cd 913f 5989 cc3f 2266 353f
00000130: 10ae b23f 42bf 643f 7fdb c83f 5d2d 9c3f
00000140: dd98 c73f 132f 7a3f e460 6c3f 887d b33f
00000150: 25bb 533f 2de1 763f 7414 d13f d796 643f
00000160: ad5b bd3f 78cf 8e3f 0e83 283f 3cb7 823f
00000170: 3f59 8d3f df83 bb3f c80a a13f 5494 c13f
00000180: 936e 863f ac7a 9e3f f329 a73f 76f7 c03f
00000190: e093 813f 1250 813f 3d97 533f 124c a53f
000001a0: 2f08 a23f c3f9 843f 024c 973f 65c9 c13f
000001b0: e9ea 973f f654 823f dfee af3f 6a56 393f
000001c0: 0ce4 3f3f 27b3 483f ff2a ae3f 6bd9 c23f
000001d0: 386a af3f 0f29 b53f 2f9f 7f3f 67ea 8c3f
000001e0: 4b7d b13f 2be9 793f 7ea8 7b3f ddaf 8b3f
000001f0: b62d 923f 688a a63f 4dc7 413f 0df7 713f
00000200: 8f43 c43f 0c3a 8c3f 9e43 983f 111d 9f3f
00000210: 25a0 a63f fab8 a83f dde1 b33f af9a 8e3f
00000220: 33cc c03f fa2a 463f 4c92 753f 6ceb ae3f
00000230: 326a c23f 3d0d 9e3f 8ee0 973f a418 673f
00000240: 675f c73f 7b6e d03f 6f3d 513f 3872 b13f
00000250: af31 d03f 8e44 8e3f 8771 a23f 596b 833f
00000260: 445d 4c3f 300c 8f3f f92f 8d3f 626d 823f
00000270: 77fa 933f 9e98 4d3f 1642 d13f 3576 cd3f
00000280: b4d7 e63f b45e 5e3f ea9a 4f3f 5950 823f
00000290: c008 9d3f d636 aa3f 89cb ca3f c529 dd3f
000002a0: 1b94 8f3f 88c6 953f 71b3 343f 143a c93f
000002b0: 6ae0 933f 5f60 ae3f 2c42 ad3f d94d 993f
000002c0: 61c0 323f f1b5 d33f f7e2 9e3f 7c65 a33f
000002d0: 0a8e f33f f245 823f a977 7b3f ddb8 693f
000002e0: c68a 833f 70f9 b13f ac15 a93f 606b bf3f
000002f0: f27d 823f 7520 863f 4f70 703f ef79 dc3f
00000300: 0612 a93f bc64 b73f fa24 743f 5af6 743f
00000310: 9ede ab3f 81c5 a93f eb40 b93f 6126 ad3f
00000320: d0be 423f 711c a13f 0e23 2e3f c08f a53f
00000330: 41f9 ab3f d52c b43f 26cb 953f b10f 533f
00000340: 2917 cc3f 36d7 ad3f d9ef a03f d068 b13f
00000350: f490 c43f df82 a63f 8dec 983f a919 ff3f
00000360: 3c15 873f 1034 b83f a96f d03f 0d27 903f
00000370: 0b72 9b3f 8dbd 923f 5a36 7d3f 37c4 b63f
00000380: b537 cc3f 1957 b23f dc6d a43f 5e46 9b3f
00000390: 92c0 c53f 71fc 893f 0b41 7f3f 03c6 9f3f
000003a0: 3c5f a83f 834f c63f 76b3 c43f 74b5 803f
000003b0: 2bb2 d83f 2ef5 d83f 94d8 a93f a647 a53f
000003c0: efd8 8e3f 6821 553f 04c3 a83f c22d a23f
000003d0: 16f0 f13f 5709 8a3f afb8 b33f 6b2f 853f
000003e0: 5511 b43f 6cb9 b83f 8a2f b73f 770d b53f
000003f0: d2f3 bc3f d95d 9a3f 608f 9d3f 74fb e13f
1.107006 0.79201066 1.1210791 1.0035194 0.88366735 1.233157 0.87263536 1.4601448
0.9708841 1.0506436 1.1641109 0.743819 1.422144 0.9278772 1.4600909 1.5903578
1.2583292 1.6054931 0.7685219 1.6561395 1.3094656 0.95052177 1.3387718 1.002727
1.3262268 1.2192534 1.5425621 1.1602951 1.4679763 1.2401735 1.2779046 1.1263595
1.2306036 1.1261972 1.099248 1.2970384 1.2079543 1.6282563 1.0757556 1.4348304
1.7169477 1.5576698 0.94869906 0.98066455 1.6488096 1.222898 1.3031961 1.1353085
1.075686 0.81470823 0.8693008 1.1963937 1.2078011 1.5692929 1.5682178 1.3556013
1.3582623 0.76381963 2.0938294 0.78939044 1.0291395 1.132979 1.0246626 1.9343113
1.2651742 1.3037102 0.8090408 0.9406697 1.4446634 1.5091687 1.2379583 1.2787769
1.2928894 1.1390884 1.5979415 0.7085897 1.395937 0.89354336 1.5691985 1.2201344
1.5593525 0.9772808 0.92335343 1.4022684 0.82707435 0.9643734 1.6334367 0.89292663
1.4793602 1.1157064 0.65824974 1.0212169 1.1042861 1.4649619 1.2581415 1.5123391
1.0502495 1.2381186 1.3059677 1.5075519 1.0123253 1.010256 0.82652646 1.291384
1.2658747 1.0388721 1.1820071 1.5139586 1.1868564 1.0182178 1.3744773 0.7239748
0.74957347 0.78398365 1.3606871 1.5222601 1.370429 1.4153155 0.9985227 1.1009034
1.3866361 0.9762141 0.98303974 1.0913044 1.14202 1.3010988 0.75694734 0.94517595
1.5333117 1.0955215 1.1895635 1.2430745 1.3017622 1.318145 1.4053303 1.1140956
1.5062317 0.7740933 0.95926356 1.3665595 1.5188658 1.234779 1.1865404 0.90271974
1.557599 1.6283716 0.81734365 1.3862982 1.6265162 1.1114671 1.2690896 1.0267135
0.7982981 1.1175594 1.1030265 1.0189631 1.1560811 0.80311 1.6348293 1.6051699
1.8034577 0.86863256 0.81095755 1.018077 1.2268295 1.3297985 1.5843364 1.7278372
1.1217073 1.1701212 0.70586306 1.5720849 1.1552861 1.362316 1.3535819 1.1976882
0.69824797 1.6539899 1.2413014 1.2765346 1.9027722 1.0177596 0.9822946 0.91297704
1.0276725 1.3904247 1.3209739 1.4954643 1.0194685 1.0478655 0.9392137 1.7224711
1.3208625 1.4327617 0.9536892 0.956884 1.3427312 1.3263398 1.4472936 1.3527337
0.76072407 1.2586805 0.6802224 1.2934494 1.3435441 1.4076182 1.1702621 0.8244582
1.5944568 1.3581302 1.2573196 1.3860111 1.5356736 1.3008689 1.194719 1.9929706
1.0553355 1.4390888 1.6284076 1.1261917 1.2144178 1.1464096 0.9891106 1.427863
1.59545 1.393283 1.2846026 1.2130849 1.5449393 1.0780164 0.9970862 1.2482303
1.3154063 1.5493015 1.5367267 1.0055375 1.6929373 1.6949823 1.3269219 1.291249
1.1159953 0.832541 1.3184514 1.2670214 1.8901393 1.07841 1.4040736 1.0405096
1.4067789 1.4431586 1.4311383 1.4144734 1.4761908 1.205989 1.230938 1.7654862
