checkpoint_actor.pth (torch_old, 161989 bytes, 14 tensors)

fc1.weight f4 [128, 33]
0.045354903 -0.12376554 -0.0962091 -0.13792418 0.4207042 0.37764597 -0.10579953 0.13754685
-0.58504134 0.110616244 -0.020958785 -0.04672986 -0.0076591126 -0.024995305 0.055030946 0.031804018
-0.24271779 0.41469762 -0.3301637 0.6631362 0.05178207 -0.15333816 -0.0075389184 -0.277106
-0.03866569 -0.16405742 -0.2481783 0.42431977 -0.06530945 0.06092482 -0.35464647 -0.030621592
0.24459465 -0.1293191 -0.42280218 -0.048780266 0.13914692 -0.24114132 0.098113015 -0.19456169
-0.023909105 0.13557719 0.14647335 0.13275331 -0.033799887 0.08276953 0.38292128 0.069789045
0.093402915 -0.114450395 -0.17399615 0.21618135 0.07019806 0.18632872 0.22814697 -0.0859058
0.058678333 -0.048193123 -0.004401682 -0.28215373 0.07055655 -0.080396235 0.07438495 -0.07904822
0.08521833 0.5256426 0.12346511 0.030441808 0.11062189 0.0014478869 -0.2055255 0.19672251
0.020844001 0.06995456 -0.050720245 0.1670558 -0.053288348 0.048587907 0.020075314 -0.03144813
0.14059101 -0.25736064 -0.25001603 -0.20931913 -0.06973356 -0.14054424 0.011255299 -0.014899412
0.030322695 0.004399483 0.062436067 -0.009546127 -0.044932563 0.08501588 0.25546786 0.076451056
-0.16775288 -0.059041582 -1.3280714 -0.6928956 0.035720445 0.1435851 -0.037544537 -0.47329956
-0.19174647 0.046039682 0.11050956 0.107404895 0.20203649 -0.07968946 0.010799457 0.027120942
0.16879727 0.06693157 -0.1021608 -0.16239615 0.052711803 0.20653932 0.17678078 -0.045133337
-0.041761156 -0.06856238 -0.117433704 0.032110132 0.040245123 0.2942208 0.08700608 -0.0051452187
0.0100428015 -0.15420838 0.0014616325 -0.048507333 -0.25758925 0.34209397 -0.11199647 -0.12096332
0.13548511 0.012922359 -0.38616765 -0.0038500607 0.2963377 0.068725124 -0.17208475 0.08269544
0.04081121 -0.07666888 -0.41875598 -0.024179924 0.02337416 -0.014259517 0.37160873 -0.03388199
0.04188859 -0.06580113 0.1297418 -0.08710261 -0.05688349 0.007878384 0.14473814 -0.0063585183
0.22625923 -0.06463621 -0.056851655 0.023426585 -0.6950383 0.15231204 -0.42415306 0.018556083
0.013199937 0.16019459 -0.24558479 -0.007745058 0.23814656 0.24017583 0.20197974 -0.019040402
-0.09503085 -0.022853531 -0.32657 0.13919675 0.03252985 0.23715395 -0.1417308 0.11216748
0.12051645 -0.09395626 -0.04459039 0.098149285 -0.20649238 -0.03826858 -0.046346083 0.16248482
0.18702075 -0.09323184 -0.07674189 -0.23764703 0.0065761283 -0.78247356 -0.20705852 -0.012802888
-0.016152818 -0.033919122 0.36349264 -0.25201654 -0.017409662 0.11229365 0.011316409 0.14951785
0.018284446 -0.03767475 -0.013616686 0.23266129 0.007953155 -0.10201075 0.20524451 0.248487
0.18287453 0.54149073 -0.04366165 0.18252924 -0.023212302 0.14403978 0.06789233 -0.034921132
-0.082865 0.05851165 0.23408031 0.07048982 -0.06798868 -0.039458763 -1.1613207 0.46932402
0.23356026 0.26380327 -0.27191755 0.1448369 -0.17350638 -0.15595408 0.102907665 -0.12083012
0.062566504 -0.025959894 -0.02721282 -0.079357825 0.17367473 -0.11073393 -0.22483638 0.008370697
-0.008651235 -0.09036673 -0.4390962 -0.00073951 -0.099698424 -0.049277604 0.18600081 0.056226887
00000000: 10c6 393d ca78 fdbd 4709 c5bd ff3b 0dbe
00000010: 8a66 d73e d05a c13e 6dad d8bd 15d9 0c3e
00000020: 45c5 15bf c58a e23d c2b1 abbc cf67 3fbd
00000030: 4bf9 fabb f4c2 ccbc 2168 613d ee44 023d
00000040: 038b 78be 3f53 d43e 370b a9be 4bc3 293f
00000050: 7019 543d ae04 1dbe 0809 f7bb d6e0 8dbe
00000060: ea5f 1ebd abfe 27be 7422 7ebe 7140 d93e
00000070: f6c0 85bd 4e8c 793d 3994 b5be 22da fabc
00000080: 0577 7a3e 3a6c 04be 8779 d8be d1cd 47bd
00000090: 887c 0e3e c0ed 76be 7aef c83d 2e3b 47be
000000a0: 07dd c3bc bfd4 0a3e 1cfd 153e 7cf0 073e
000000b0: c071 0abd 1283 a93d 420e c43e 8fed 8e3d
000000c0: 074a bf3d f864 eabd 0c2c 32be a55e 5d3e
000000d0: 00c4 8f3d f5cc 3e3e 5c9f 693e 61ef afbd
000000e0: b158 703d 2766 45bd fc3b 90bb 7476 90be
000000f0: f47f 903d c8a6 a4bd 2357 983d 08e4 a1bd
00000100: f386 ae3d 8390 063f 47db fc3d 1961 f93c
00000110: bb8d e23d 06c7 bd3a 4775 52be a071 493e
00000120: 0ac1 aa3c 5644 8f3d 08c0 4fbd ad10 2b3e
00000130: e244 5abd 1d04 473d fc74 a43c c1cf 00bd
00000140: 17f7 0f3e c6c4 83be 1a02 80be c157 56be
00000150: 78d0 8ebd d4ea 0fbe 2568 383c aa1c 74bc
00000160: 4d67 f83c 8a29 903b f6bc 7f3d 5c67 1cbc
00000170: 350b 38bd ce1c ae3d afcc 823e 5f92 9c3d
00000180: 69c7 2bbe 96d5 71bd 3efe a9bf 9b61 31bf
00000190: 9a4f 123d f907 133e 4dc8 19bd 5254 f2be
000001a0: 3059 44be 1b94 3c3d d652 e23d 19f7 db3d
000001b0: a7e2 4e3e 3a34 a3bd 35f0 303c bd2c de3c
000001c0: 31d9 2c3e 6b13 893d ae39 d1bd 2d4b 26be
000001d0: 55e8 573d 0b7f 533e 0506 353e bcdd 38bd
000001e0: bf0d 2bbd 6f6a 8cbd 1581 f0bd ea85 033d
000001f0: 12d8 243d 1ca4 963e 3e30 b23d 3999 a8bb
00000200: 908a 243c cde8 1dbe 4094 bf3a a0af 46bd
00000210: bde2 83be f126 af3e 685e e5bd 9ebb f7bd
00000220: 9cbc 0a3e 4db8 533c c4b7 c5be 4d51 7cbb
00000230: 93b9 973e c2bf 8c3d fc36 30be 3a5c a93d
00000240: a829 273d 9304 9dbd 2f67 d6be fa14 c6bc
00000250: 2b7b bf3c c0a0 69bc 8043 be3e d7c7 0abd
00000260: 5f93 2b3d bec2 86bd 09db 043e da62 b2bd
00000270: aafe 68bd 5614 013c 3c36 143e 1e5b d0bb
00000280: 80b0 673e fd5f 84bd 48dd 68bd 1ce9 bf3c
00000290: 08ee 31bf b0f7 1b3e 972a d9be ed02 983c
000002a0: 8c44 583c 0d0a 243e 947a 7bbe 41ca fdbb
000002b0: b1dc 733e a7f0 753e c7d3 4e3e 9efa 9bbc
000002c0: 899f c2bd 5437 bbbc 2f34 a7be 9889 0e3e
000002d0: 053e 053d 7cd8 723e e121 11be 10b8 e53d
000002e0: 54d1 f63d 246c c0bd 6aa4 36bd 7e02 c93d
000002f0: bd72 53be 84bf 1cbd 64d5 3dbd 6c62 263e
00000300: 5e82 3f3e 56f0 bebd da2a 9dbd be59 73be
00000310: 907c d73b 3050 48bf 2607 54be 34c3 51bc
00000320: ea52 84bc c7ee 0abd b51b ba3e 5008 81be
00000330: b59e 8ebc 37fa e53d 7668 393c 351b 193e
00000340: 43c9 953c d750 1abd 8518 5fbc c33e 6e3e
00000350: f34d 023c 03eb d0bd 9e2b 523e 6073 7e3e
00000360: 7643 3b3e 239f 0a3f 8fd6 32bd f2e8 3a3e
00000370: ba27 bebc 2a7f 133e 220b 8b3d 7609 0fbd
00000380: 20b5 a9bd e9a9 6f3d c0b2 6f3e f75c 903d
00000390: a63d 8bbd 839f 21bd 28a6 94bf 3d4b f03e
000003a0: 6c2a 6f3e 3911 873e c738 8bbe 2050 143e
000003b0: a8ab 31be 6db2 1fbe 41c1 d23d c875 f7bd
000003c0: de22 803d d8a9 d4bc 6bed debc 5b86 a2bd
000003d0: cad7 313e 78c8 e2bd 823b 66be 3f25 093c
000003e0: e9bd 0dbc 3112 b9bd 38d1 e0be addb 41ba
000003f0: b02e ccbd 50d7 49bd ff76 3e3e 2a4e 663d

fc1.bias f4 [128]
-0.3234161 0.066308856 0.0666221 0.07263526 -0.11628127 -0.13333867 -0.14918399 -0.037334077
0.07529596 -0.083953984 -0.3113346 0.49778458 -0.21930736 0.09964603 -0.20629677 0.16739757
0.0060467697 -0.050238665 -0.037485424 0.20326066 -0.042667888 -0.099848546 -0.23761849 0.0062851515
0.12895715 -0.05595583 -0.026175333 -0.16167954 -0.17051455 0.1304534 -0.2738476 -0.10413712
0.14936349 -0.12249126 0.16160685 -0.26518884 -0.311559 -0.34504905 -0.068298526 0.1586168
-0.031687185 -0.27910304 -0.21302594 -0.06691949 -0.12719084 0.07672071 -0.14629951 -0.16763046
-0.35552853 -0.05881859 -0.22296113 -0.28865704 -0.12262289 0.00889812 -0.114086 0.108784966
-0.32893378 -0.05149061 -0.15116408 -0.09941013 -0.092356846 -0.19578533 -0.2979423 -0.027203383
-0.12537748 -0.16295743 -0.40559444 -0.09977969 -0.13163142 -0.3928111 0.08967174 -0.094645925
-0.34893888 0.23092382 -0.026445678 0.22829826 -0.24678287 -0.38411647 0.02299164 -0.0911339
-0.0033320442 -0.47430828 0.062383637 -0.1441764 0.008872089 -0.13439126 -0.38134363 0.35279775
0.18828276 0.053266104 0.067204155 -0.10088055 -0.26723388 0.39324436 -0.3878445 0.11038026
0.0042935587 0.13778356 -0.3761101 0.13932678 0.14140232 0.07018902 -0.13613626 -0.43053573
-0.11717599 0.05313058 -0.21517824 -0.048524402 -0.075171724 -0.116274714 0.23786359 0.06763579
-0.06424631 -0.018969595 -0.15056252 -0.30997953 0.05087121 -0.04854672 0.35697657 0.34525806
-0.104867786 -0.37416127 0.080834724 -0.03805287 -0.10347744 0.07874193 0.27017707 -0.18568964
00000000: cc96 a5be f0cc 873d 2b71 883d ccc1 943d
00000010: e024 eebd ef89 08be b0c3 18be 9eeb 18bd
00000020: c534 9a3d 11f0 abbd 4067 9fbe 9fdd fe3e
00000030: 1c92 60be 3813 cc3d 763f 53be 456a 2b3e
00000040: fb23 c63b 0fc7 4dbd 518a 19bd 9023 503e
00000050: 86c4 2ebd 657d ccbd 4352 73be acf3 cd3b
00000060: 580d 043e f131 65bd a76d d6bc 528f 25be
00000070: 5e9b 2ebe 9395 053e c135 8cbe d845 d5bd
00000080: bef2 183e b3dc fabd 447c 253e d5c6 87be
00000090: a984 9fbe 45aa b0be 19e0 8bbd 716c 223e
000000a0: 6cca 01bd 98e6 8ebe 7923 5abe 160d 89bd
000000b0: 513e 02be bf1f 9d3d 8acf 15be 52a7 2bbe
000000c0: d607 b6be c3eb 70bd ec4f 64be dbca 93be
000000d0: b621 fbbd 6cc9 113c eca5 e9bd a7ca de3d
000000e0: 026a a8be d1e7 52bd c2ca 1abe 8a97 cbbd
000000f0: 9625 bdbd f37b 48be e58b 98be a1d9 debc
00000100: f462 00be 50de 26be 13aa cfbe 4b59 ccbd
00000110: 63ca 06be 891e c9be d1a5 b73d b9d5 c1bd
00000120: 1ea8 b2be 4b77 6c3e 9ba4 d8bc 05c7 693e
00000130: a6b4 7cbe eaaa c4be f758 bc3c 69a4 babd
00000140: 6d5e 5abb 89d8 f2be fc85 7f3d faa2 13be
00000150: 3d5c 113c dd9d 09be 793f c3be e8a1 b43e
00000160: 32cd 403e 8f2d 5a3d 55a2 893d 769a cebd
00000170: e1d2 88be 5357 c93e 8e93 c6be 0c0f e23d
00000180: fbb0 8c3b 2217 0d3e 8191 c0be aeab 0e3e
00000190: c5cb 103e 43bf 8f3d 4e67 0bbe 2e6f dcbe
000001a0: f7f9 efbd 739f 593d af57 5cbe 86c1 46bd
000001b0: a2f3 99bd 7021 eebd 8392 733e a284 8a3d
000001c0: 9293 83bd 2066 9bbc 102d 1abe a3b5 9ebe
000001d0: 545e 503d edd8 46bd a2c5 b63e aac5 b03e
000001e0: ecc4 d6bd 1192 bfbe ad8c a53d 54dd 1bbd
000001f0: fbeb d3bd 7343 a13d a654 8a3e 6d25 3ebe

fc2.weight f4 [256, 128]
-0.11380807 -0.19133528 0.04198656 -0.17781658 -0.15090367 -0.06927684 0.104016274 -0.09800142
0.18580356 0.1417302 -0.08338786 -0.03959 -0.38945973 0.1284627 -0.09793709 -0.10203715
-0.15675268 -0.91892785 0.18116172 0.021739436 -0.10141925 -0.12825872 -0.1553465 -0.008485448
-0.05735511 0.07419385 -0.25257584 -0.11639413 -0.1456571 -0.074276395 0.07580628 -0.26341787
0.06028004 -0.053875685 -0.22007507 0.02396898 0.05903097 -0.90737045 -0.12538609 -0.42821568
-0.030320534 -0.21829395 0.3896035 0.16198364 0.06700768 0.0130801285 -0.41934022 0.10681773
-0.04909783 0.16056126 -0.1101118 -0.16565 0.19447528 0.062269203 -0.12132656 0.011613718
0.5730889 -0.056623347 -0.09610792 -0.26071355 0.11080293 -0.08385911 0.21003346 -0.16811104
-0.17539553 -0.4800743 -0.41751847 0.11563206 -0.0038960415 0.06225965 0.19233061 0.042723972
-0.13297209 -0.17167805 0.12149739 0.587055 0.21007873 -0.19118042 0.281155 -0.3579023
0.19896102 0.10449878 -0.30822974 -0.08246647 -0.03259796 -0.23675026 -0.10399032 0.12960131
-0.26317394 0.0069940416 -0.17149475 -0.24345674 -0.2638541 0.024923237 -0.1437546 0.11544221
0.13022973 -0.99858296 -0.10868893 -0.16912682 0.06950654 -0.022877062 0.19846983 0.23515932
-0.19667663 -0.2552338 -0.28284815 0.06817567 0.17983724 -0.0004039733 0.23164165 -0.22682904
-0.0653362 -0.100501046 -0.113342725 -0.23175839 0.107921645 -0.189728 -0.08210202 0.082528114
-0.05059989 0.09475557 -0.14784609 -0.09470015 0.17900068 -0.06256602 0.16503255 -0.37327126
0.45148167 -0.26184556 -0.09454823 -0.01819966 -0.101532064 0.09036081 -0.07439619 -0.07182057
0.049635556 0.04470792 -0.100487895 0.070927545 0.10215255 0.090486065 -0.17206189 -0.0035592597
0.020663744 0.1552269 0.065772176 -0.21953014 -0.063172765 0.1260452 0.14358154 0.07474381
-0.046766154 -0.0807589 -0.22944003 -0.13044365 -0.16457863 -0.18799533 -0.048700787 -0.2541162
0.04078817 0.1514373 -0.105580546 -0.10431981 0.16009167 0.10779664 -0.06333207 0.050493106
0.010878765 0.030014873 0.01779219 -0.011569143 0.16548793 -0.07240693 -0.15752386 0.12770297
-0.112830065 -0.29858795 0.036824748 0.25004855 -0.22084685 0.29727554 0.1828012 0.06161401
-0.23725262 -0.18457752 0.010015412 -0.22791964 0.24333218 -0.06816887 -0.07671318 -0.020445382
0.38479057 0.07640186 -0.12946029 -0.09099411 0.17471275 0.02158481 -0.22727154 -0.06720374
0.004505143 -0.091346316 -0.29899618 -0.26093763 -0.30957916 -0.39265838 0.026254244 -0.13270356
0.06147622 0.030354049 0.05046017 0.025889432 0.07136919 -0.062091496 -0.42523265 0.07871429
-0.062258862 0.03571944 -0.21981539 0.076379806 -0.16171272 -0.47802484 -0.056122325 -0.18897334
0.09119476 0.09253313 -0.35098425 -0.028596168 0.1922611 -0.045627102 0.19655299 0.32430926
0.1164403 -0.08454785 -0.076807044 -0.033119023 0.14369051 0.1086763 0.15138279 0.23057847
-0.11181054 0.045684036 -0.36657688 -0.31271857 -0.1379091 -0.15001115 -0.13116598 -0.16858472
-0.35131374 0.0603363 0.1579837 -0.25259164 -0.1061961 0.12888484 -0.009548855 -0.1536693
00000000: 3514 e9bd 65ed 43be 19fa 2b3d 8d15 36be
00000010: 7e86 1abe 04e1 8dbd 7c06 d53d f8b4 c8bd
00000020: 4a43 3e3e b921 113e 41c7 aabd 2029 22bd
00000030: 4467 c7be ba8b 033e 3e93 c8bd daf8 d0bd
00000040: c683 20be db3e 6bbf 7582 393e e716 b23c
00000050: e5b4 cfbd 4156 03be 2713 1fbe 8c06 0bbc
00000060: 31ed 6abd f2f2 973d 9f51 81be 0c60 eebd
00000070: 2327 15be 391e 98bd 5340 9b3d b5de 86be
00000080: 34e8 763d c0ac 5cbd 5c5b 61be 985a c43c
00000090: 75ca 713d 6e49 68bf 3665 00be 163f dbbe
000000a0: c562 f8bc 7388 5fbe 1c7a c73e 0adf 253e
000000b0: 533b 893d 094e 563c c3b3 d6be 41c3 da3d
000000c0: ce1a 49bd 2c6a 243e 4c82 e1bd 27a0 29be
000000d0: 8724 473e fe0d 7f3d 0f7a f8bd 7747 3e3c
000000e0: f4b5 123f e2ed 67bd 3bd4 c4bd 3f7c 85be
000000f0: a6ec e23d 53be abbd 0313 573e 4d25 2cbe
00000100: e39a 33be 4ccc f5be fbc4 d5be 80d0 ec3d
00000110: bb54 7fbb fa03 7f3d 51f2 443e 55ff 2e3d
00000120: d629 08be 5fcc 2fbe a0d3 f83d 3d49 163f
00000130: e11e 573e cdc4 43be 8cf3 8f3e f83e b7be
00000140: 70bc 4b3e 7503 d63d 4ad0 9dbe 2ee4 a8bd
00000150: 7085 05bd a96e 72be e0f8 d4bd 35b6 043e
00000160: bcbe 86be 462e e53b 529c 2fbe b94c 79be
00000170: e217 87be d12b cc3c 6834 13be f76c ec3d
00000180: f15a 053e 22a3 7fbf 4d98 debd 952f 2dbe
00000190: 7259 8e3d ad68 bbbc ad3b 4b3e 9bcd 703e
000001a0: 9965 49be 01ae 82be 79d1 90be b09f 8b3d
000001b0: 4127 383e 61cc d3b9 7833 6d3e df45 68be
000001c0: fcce 85bd 7ed3 cdbd 3b20 e8bd 1252 6dbe
000001d0: 0606 dd3d 0f48 42be 1b25 a8bd 8004 a93d
000001e0: d541 4fbd 350f c23d f764 17be 27f2 c1bd
000001f0: f44b 373e 9d22 80bd 4bfe 283e 691d bfbe
00000200: 9b28 e73e 9f10 86be 81a2 c1bd 7417 95bc
00000210: 0bf0 cfbd 170f b93d 085d 98bd aa16 93bd
00000220: a74e 4b3d a71f 373d 99cc cdbd 7642 913d
00000230: 5b35 d13d c250 b93d fe30 30be 7842 69bb
00000240: 0347 a93c cdf3 1e3e 90b3 863d 82cc 60be
00000250: b960 81bd fe11 013e 0a07 133e 4813 993d
00000260: de8d 3fbd ec64 a5bd 54f2 6abe 0593 05be
00000270: 4d87 28be d981 40be 7a7a 47bd 851b 82be
00000280: 7f11 273d 6112 1b3e 9d3a d8bd a0a5 d5bd
00000290: 12ef 233e 7cc4 dc3d 3fb4 81bd dcd1 4e3d
000002a0: d93c 323c c0e1 f53c edc0 913c 818c 3dbc
000002b0: ab75 293e 164a 94bd ef4d 21be 91c4 023e
000002c0: 7313 e7bd 85e0 98be 8cd5 163d 5d06 803e
000002d0: ad25 62be 8034 983e 3d30 3b3e f95e 7c3d
000002e0: 5af2 72be e401 3dbe af17 243c c463 69be
000002f0: 122c 793e 1f9c 8bbd cd1b 9dbd 137d a7bc
00000300: 4503 c53e 9478 9c3d 3d91 04be 1f5b babd
00000310: e6e7 323e a1d2 b03c dfb9 68be 1da2 89bd
00000320: e19f 933b c713 bbbd 0716 99be 9e99 85be
00000330: 2981 9ebe 850a c9be 2413 d73c 71e3 07be
00000340: 7dce 7b3d 0ea9 f83c 53af 4e3d 1316 d43c
00000350: 032a 923d a753 7ebd 18b8 d9be f534 a13d
00000360: 2603 7fbd 8c4e 123d 4917 61be 046d 9c3d
00000370: 0598 25be acbf f4be 86e0 65bd 3a82 41be
00000380: 51c4 ba3d 0282 bd3d 35b4 b3be 8342 eabc
00000390: 18e0 443e 7ce3 3abd 3045 493e dd0b a63e
000003a0: 4178 ee3d 6c27 adbd 034d 9dbd d0a7 07bd
000003b0: 9b23 133e ae91 de3d 1704 1b3e c31c 6c3e
000003c0: edfc e4bd 2f1f 3b3d f7af bbbe a61c a0be
000003d0: 0b38 0dbe 869c 19be 6050 06be 79a1 2cbe
000003e0: 65df b3be 3223 773d 7bc6 213e b153 81be
000003f0: 577d d9bd 63fa 033e cd72 1cbc 7c5b 1dbe

fc2.bias f4 [256]
-0.009483767 -0.32210562 -0.29214206 -0.18786573 -0.28024372 -0.10072396 -0.1291632 -0.054060567
-0.21233386 -0.25978675 0.053357672 -0.39705762 -0.2072832 -0.27340287 -0.24979219 -0.30148
-0.27736387 -0.14657333 -0.16226694 -0.34790516 -0.29132757 -0.5073195 0.032673992 -0.32053652
-0.4038024 -0.2834029 -0.5766325 -0.065642655 -0.20004287 -0.21076159 -0.3435435 -0.29821068
-0.023140801 -0.0744351 -0.36658627 -0.16127789 -0.32891378 -0.29009134 -0.21787038 -0.15617408
-0.17149515 -0.065380864 -0.24168904 -0.28553736 -0.32523552 -0.19279784 -0.31399158 -0.14115445
-0.14489242 -0.08015569 0.13661458 -0.055468015 -0.19505109 -0.20881392 -0.10189139 -0.23985647
-0.07464013 -0.42534754 -0.36777607 -0.258574 -0.3424666 -0.4149827 -0.16921814 -0.2825307
-0.32834548 -0.42757517 -0.4242693 -0.043865707 -0.26810795 -0.29005602 -0.120542355 -0.3975804
-0.1775905 -0.19430391 -0.30581275 -0.26086253 0.010676387 -0.11833582 -0.02773338 -0.32693252
-0.30197707 -0.19752201 -0.070853814 -0.19928566 -0.18350697 -0.12988861 -0.28240865 -0.27691025
-0.18755779 -0.14337465 -0.39337516 -0.2672893 -0.31740114 -0.5138869 -0.35677922 -0.22114225
-0.17385314 -0.31163645 -0.299379 -0.39356062 -0.30321172 -0.110486776 -0.040339794 -0.41557312
-0.08251892 -0.2211236 0.030494278 -0.18782848 0.005768325 -0.28826606 -0.107751615 -0.28456417
-0.28956026 -0.25793734 -0.18585932 -0.25348857 -0.19740857 -0.27611208 -0.035645124 -0.3750374
-0.25675124 -0.07914874 -0.20460652 -0.15006183 -0.2072495 -0.29836637 0.07626518 -0.063223705
-0.31633317 -0.2062302 -0.26185998 -0.19737516 -0.25234103 -0.33201978 -0.34346637 -0.066911384
-0.18948425 -0.27336663 -0.25115862 -0.21925043 -0.16884343 0.14287837 -0.1519813 -0.18135168
-0.21469317 -0.14995207 -0.42302516 -0.11278671 -0.3160837 -0.31735635 -0.04610083 -0.37231785
-0.10417854 -0.11340836 -0.2114057 -0.34300286 -0.20340706 -0.23508509 0.07894837 -0.2818777
-0.360096 -0.28459093 0.30812535 -0.27207065 0.01313094 -0.29958975 -0.27954382 -0.23654121
-0.3292475 -0.21119963 -0.07643748 -0.25435314 -0.43652633 -0.30777088 -0.26563972 -0.24555588
-0.36082155 -0.23904236 -0.24588966 -0.04151916 -0.18003936 -0.2626143 -0.2608998 -0.35759127
-0.284813 -0.4505237 -0.26198077 -0.20981173 -0.20798495 -0.2538489 -0.21774335 -0.14066486
-0.37353078 -0.40157166 0.0006093096 -0.104076065 -0.22821692 -0.178806 -0.23333009 -0.09897007
-0.48721865 0.027497275 -0.27048808 0.10735805 -0.31320024 -0.2888245 -0.27988434 -0.21158522
-0.104945175 -0.17039861 -0.24765097 -0.120571665 -0.40008375 -0.23464267 -0.076305635 -0.0792882
-0.15838611 -0.011984751 -0.11641445 -0.32433322 -0.4000201 -0.08295818 -0.23767832 -0.21565367
-0.100287095 -0.20512444 -0.042677645 -0.49972665 -0.2993092 -0.2562031 0.06477403 -0.31382748
-0.32072604 -0.26781678 -0.34870857 -0.24870332 -0.55157536 -0.25313234 -0.28200334 -0.015811112
-0.18897554 -0.22336717 -0.09572127 -0.28913206 -0.31515744 -0.2229488 -0.28584343 -0.10208659
-0.163537 -0.11621469 0.0475293 -0.49608845 -0.22065397 -0.043010965 -0.3251017 -0.113968685
00000000: cd61 1bbc 07eb a4be a593 95be e05f 40be
00000010: 1b7c 8fbe 5d48 cebd 5c43 04be 9d6e 5dbd
00000020: 0c6e 59be c502 85be 938d 5a3d 234b cbbe
00000030: 0c42 54be 76fb 8bbe 86c9 7fbe 965b 9abe
00000040: a302 8ebe 5217 16be 4e29 26be a020 b2be
00000050: e328 95be b1df 01bf 2ad5 053d 5d1d a4be
00000060: 30bf cebe 2f1a 91be 309e 13bf a86f 86bd
00000070: 0ad8 4cbe e3d1 57be efe4 afbe 12af 98be
00000080: c791 bdbc 6e71 98bd 32b1 bbbe 0826 25be
00000090: 6367 a8be da86 94be 6a19 5fbe 19ec 1fbe
000000a0: 6d9c 2fbe 67e6 85bd 557d 77be f431 92be
000000b0: 4585 a6be cc6c 45be 81c3 a0be cb8a 10be
000000c0: ae5e 14be ab28 a4bd b1e4 0b3e 6e32 63bd
000000d0: 79bb 47be 51d3 55be 6fac d0bd ef9c 75be
000000e0: eddc 98bd 27c7 d9be 254d bcbe d063 84be
000000f0: c857 afbe 9d78 d4be 8547 2dbe dda7 90be
00000100: e61c a8be 22eb dabe d339 d9be 87ac 33bd
00000110: 7245 89be 3982 94be e9de f6bd a88f cbbe
00000120: 49da 35be 9bf7 46be 7d93 9cbe c68f 85be
00000130: 03ec 2e3c 0d5a f2bd 1d31 e3bc b363 a7be
00000140: bd9c 9abe 3643 4abe ce1b 91bd 8a11 4cbe
00000150: 40e9 3bbe 8501 05be de97 90be 2ec7 8dbe
00000160: 260f 40be ced0 12be 7868 c9be 25da 88be
00000170: 6782 a2be 188e 03bf c4ab b6be 1d73 62be
00000180: 8f06 32be d08e 9fbe 3448 99be c780 c9be
00000190: 913e 9bbe e446 e2bd 573b 25bd 00c6 d4be
000001a0: aeff a8bd 3a6e 62be 23cf f93c 1c56 40be
000001b0: 3804 bd3b 9c97 93be e1ac dcbd 65b2 91be
000001c0: 3e41 94be 5d10 84be e851 3ebe 41c9 81be
000001d0: 7925 4abe 905e 8dbe 9f00 12bd e704 c0be
000001e0: e674 83be bc18 a2bd 5f84 51be cfa9 19be
000001f0: 3739 54be 7ac3 98be eb30 9c3d 6e7b 81bd
00000200: 6cf6 a1be 022e 53be 8312 86be b71c 4abe
00000210: d832 81be 7ffe a9be d3da afbe d608 89bd
00000220: 2908 42be b6f6 8bbe dd97 80be 2f83 60be
00000230: 4be5 2cbe b54e 123e fca0 1bbe 41b4 39be
00000240: 87d8 5bbe 098d 19be c196 d8be b8fc e6bd
00000250: b9d5 a1be 887c a2be 39d4 3cbd 72a0 bebe
00000260: 8f5b d5bd a442 e8bd bc7a 58be 129e afbe
00000270: f149 50be 25ba 70be afaf a13d 4652 90be
00000280: 815e b8be e7b5 91be 9bc2 9d3e d84c 8bbe
00000290: 2723 573c d463 99be 5e20 8fbe dc37 72be
000002a0: 2193 a8be b744 58be 418b 9cbd 933a 82be
000002b0: 6180 dfbe 2594 9dbe ee01 88be 0073 7bbe
000002c0: 9abd b8be 85c7 74be 80ca 7bbe ff0f 2abd
000002d0: 3d5c 38be 6275 86be a994 85be 3416 b7be
000002e0: 02d3 91be 0bab e6be 5822 86be e3d8 56be
000002f0: 02fa 54be 7cf8 81be 1df8 5ebe 730a 10be
00000300: 6d3f bfbe cd9a cdbe 13ba 1f3a d525 d5bd
00000310: b2b1 69be ec18 37be 15ee 6ebe d2b0 cabd
00000320: b974 f9be f741 e13c 6a7d 8abe 8ade db3d
00000330: c85b a0be cee0 93be 004d 8fbe cca9 58be
00000340: 7fed d6bd f97c 2ebe 3798 7dbe 47ee f6bd
00000350: c7d7 ccbe 2b46 70be 2146 9cbd da61 a2bd
00000360: f82f 22be b05b 44bc b36a eebd 010f a6be
00000370: 6fcf ccbe fae5 a9bd f261 73be 51d4 5cbe
00000380: 5263 cdbd 240c 52be c1ce 2ebd 2cdc ffbe
00000390: 0e3f 99be 0d2d 83be 3fa8 843d ffad a0be
000003a0: 3436 a4be 481f 89be ee89 b2be 15ac 7ebe
000003b0: 0b34 0dbf 909a 81be be62 90be 4e86 81bc
000003c0: ce82 41be 5dba 64be 8309 c4bd 1e09 94be
000003d0: 515c a1be b14c 64be 125a 92be c612 d1bd
000003e0: 3e76 27be f801 eebd 15ae 423d 4eff fdbe
000003f0: 1df3 61be 442c 30bd bb73 a6be 6a68 e9bd

fc3.weight f4 [4, 256]
-0.40147144 -0.06829158 0.045266878 0.39530516 -0.4771968 0.1668485 -0.5026892 -0.35429624
0.21365252 0.20352243 -0.4813775 -0.007966454 -0.5108245 -0.014916865 -0.060977954 0.06549031
-0.14527898 -0.19694908 0.27988315 -0.055101577 0.7864187 -0.047133986 0.019822653 0.08869119
0.12989683 -0.19821444 0.36712927 -0.2660859 -0.12634793 -0.13742733 -0.26432633 -0.059083972
-0.52145165 0.7056903 0.06810088 0.35567436 0.024106223 0.09953773 0.033069666 -0.5425293
-0.24910335 -0.18968765 0.19529164 -0.25248715 0.25852123 -0.31795776 -0.40940967 -0.40260732
0.63591903 -0.44026148 -0.635912 -0.652853 0.3804233 0.2975127 -1.0947701 0.6071463
0.5762388 -0.021409623 -0.2933025 0.08200925 0.376579 0.49677718 -0.25517753 -0.104591005
0.1113162 0.51365906 -0.30556333 0.004658283 0.24335884 0.30180618 -0.78486806 -0.4787346
0.6622194 -0.57509947 -0.3879925 -0.42673755 -0.10829551 0.57250506 0.44237837 -0.6046792
-0.15225172 0.11351801 0.7433825 -0.7516781 -0.3692057 -0.07326089 -0.24537678 -0.060022738
0.8542538 0.5118243 -0.01911209 -0.39369175 0.3666039 0.33613214 -0.4182053 0.05041086
0.8874425 0.30047572 0.5262791 0.07855439 -0.124159954 -0.78665894 -0.11184511 0.0020229034
0.2923598 0.14275505 -0.05036106 0.09464864 -0.37543127 -0.7552359 -0.8041617 0.39630178
-0.315861 0.74218637 0.6751834 -0.81001157 0.4338842 0.29902387 0.07331815 -0.00010286708
-0.23382814 -0.36734363 -0.024749964 0.5293877 0.9504602 0.07963871 0.24172007 0.58292335
-0.70132357 0.6288018 -0.005504454 0.15871194 -0.29339996 -0.20124015 0.6310543 0.93817616
-0.3651635 0.760507 -0.44849035 0.97877765 0.50530475 -0.5803682 0.40424046 -0.124518365
0.32948253 -0.025871994 -0.01142386 0.17053735 -0.043565474 -0.3592708 -0.04113211 0.15740523
0.4233062 -0.6130183 0.0009603576 0.06469645 0.2517205 -0.28356755 0.16756174 1.2268505
0.41795757 0.19149396 -0.3015165 0.21580493 -0.51724035 -0.15959147 -0.028895231 -0.64396375
-0.8444169 -0.05180722 -0.07261984 -0.52486545 -0.51100534 -0.07173975 0.6764365 0.001570001
0.48933852 0.10046893 0.3227438 -0.57488286 -0.20100097 -0.0053291107 -0.050573148 -0.25457302
0.0043091117 -0.02279273 0.26180306 -0.24931023 0.38376278 -0.68018115 0.11251738 -0.64209574
0.19691208 0.059445407 0.432786 0.34059846 -0.05699302 0.14461066 0.13743764 0.567812
0.38894257 -0.25671968 -0.3602412 0.2848247 0.016339248 0.03147227 -0.8262918 -0.23126015
0.53029937 0.406822 0.9469561 -0.5043706 -0.3528691 0.37722158 0.04939257 0.1457126
-0.6496401 0.6861212 0.12873372 -0.06550974 0.9295494 -0.25348133 -0.6274007 0.45791522
-0.021805735 -0.35857156 -0.598762 0.040585585 -0.0428978 0.46594244 -0.83487034 -0.22201477
-0.3156925 0.0013339025 0.050297223 -0.6126229 -0.16718845 0.1959151 0.4461502 -0.023000192
0.15869421 0.37588722 -0.28526756 1.0110154 -0.48973122 -0.13383119 0.03840583 0.7769447
-0.36589822 -0.5059382 0.18471393 0.028399644 -0.31135735 -0.38671446 0.32056177 -0.6410832
00000000: aa8d cdbe 75dc 8bbd c369 393d 7065 ca3e
00000010: 2453 f4be 55da 2a3e 3db0 00bf 5166 b5be
00000020: bac7 5a3e 2f68 503e 1d77 f6be bb85 02bc
00000030: 65c5 02bf de65 74bc 05c4 79bd c91f 863d
00000040: 03c4 14be 05ad 49be d84c 8f3e 31b2 61bd
00000050: bc52 493f 910f 41bd 1e63 a23c baa3 b53d
00000060: ad03 053e baf8 4abe 5ef8 bb3e 693c 88be
00000070: 5a61 01be c0b9 0cbe c855 87be 0902 72bd
00000080: db7d 05bf 1fa8 343f 7978 8b3d f31a b63e
00000090: 6a7a c53c 70da cb3d 0f74 073d 33e3 0abf
000000a0: f314 7fbe 7b3d 42be 88fa 473e ff45 81be
000000b0: e55c 843e 5ccb a2be 259e d1be 8c22 cebe
000000c0: 97cb 223f f469 e1be 21cb 22bf 6021 27bf
000000d0: d8c6 c23e 9653 983e 6d21 8cbf f16d 1b3f
000000e0: 6384 133f 3c63 afbc bf2b 96be 77f4 a73d
000000f0: f6ce c03e 9459 fe3e a1a6 82be cf33 d6bd
00000100: bff9 e33d 297f 033f cc72 9cbe 83a4 983b
00000110: 0f33 793e 5786 9a3e 1ded 48bf b41c f5be
00000120: 3687 293f b839 13bf f4a6 c6be 587d dabe
00000130: 09ca ddbd b18f 123f 6b7f e23e 42cc 1abf
00000140: e0e7 1bbe 217c e83d 514e 3e3f fa6d 40bf
00000150: 8808 bdbe ce09 96bd 0d44 7bbe 67da 75bd
00000160: 61b0 5a3f eb06 033f f590 9cbc f791 c9be
00000170: 82b3 bb3e 8319 ac3e 011f d6be 9e7b 4e3d
00000180: 6f2f 633f f4d7 993e 3aba 063f 20e1 a03d
00000190: 9347 febd 7b62 49bf 0d0f e5bd b092 043b
000001a0: 2fb0 953e 612e 123e 6647 4ebd 25d7 c13d
000001b0: 8738 c0be 2457 41bf 8bdd 4dbf 11e8 ca3e
000001c0: 88b8 a1be edff 3d3f d2d8 2c3f eb5c 4fbf
000001d0: 1226 de3e a819 993e d427 963d 58ba d7b8
000001e0: a570 6fbe 7714 bcbe 70c0 cabc f485 073f
000001f0: 5c51 733f 9f19 a33d 7785 773e 773a 153f
00000200: f189 33bf 28f9 203f b55e b4bb 6285 223e
00000210: 8538 96be e611 4ebe c68c 213f 502c 703f
00000220: b6f6 babe 96b0 423f 87a0 e5be 2c91 7a3f
00000230: a75b 013f 0393 14bf 9bf8 ce3e 7c03 ffbd
00000240: efb1 a83e 81f1 d3bc 242b 3bbc 58a1 2e3e
00000250: b671 32bd 58f2 b7be 257a 28bd d62e 213e
00000260: 97bb d83e c4ee 1cbf 82c0 7b3a 937f 843d
00000270: 82e1 803e c42f 91be 4e95 2b3e 7009 9d3f
00000280: 89fe d53e fe16 443e 5f60 9abe f8fb 5c3e
00000290: dd69 04bf f26b 23be b1b5 ecbc cfda 24bf
000002a0: b52b 58bf cf33 54bd b6b9 94bd 955d 06bf
000002b0: 3fd1 02bf 4aec 92bd f12a 2d3f 7ec8 cd3a
000002c0: 948a fa3e a8c2 cd3d ad3e a53e 862b 13bf
000002d0: 33d3 4dbe d29f aebb ca25 4fbd 6557 82be
000002e0: 7333 8d3b d2b7 babc 0d0b 863e 2e4b 7fbe
000002f0: 8e7c c43e 5a20 2ebf 836f e63d 6360 24bf
00000300: 52a3 493e 077d 733d 2096 dd3e ec62 ae3e
00000310: 8371 69bd d114 143e 74bc 0c3e 215c 113f
00000320: 7b23 c73e c370 83be 8971 b8be 8bd4 913e
00000330: e3d9 853c 11e9 003d dc87 53bf 76cf 6cbe
00000340: b3c1 073f f94a d03e b76b 723f 6f1e 01bf
00000350: 42ab b4be 3023 c13e dd4f 4a3d af35 153e
00000360: d04e 26bf a4a5 2f3f c6d2 033e f829 86bd
00000370: f3f6 6d3f 4ec8 81be 559d 20bf dd73 ea3e
00000380: f1a1 b2bc b196 b7be 7748 19bf 123d 263d
00000390: 9bb5 2fbd 0290 ee3e 10ba 55bf d757 63be
000003a0: 73a2 a1be 57d6 ae3a 7604 4e3d dbd4 1cbf
000003b0: 7333 2bbe f89d 483e cd6d e43e e66a bcbc
000003c0: bc80 223e 4a74 c03e 970e 92be f468 813f
000003d0: 0dbe fabe 0b0b 09be 6e4f 1d3d d9e5 463f
000003e0: 0357 bbbe 2a85 01bf a625 3d3e 5fa6 e83c
000003f0: 3b6a 9fbe 70ff c5be ac20 a43e 071e 24bf

fc3.bias f4 [4]
0.19359471 0.20558468 0.192239 0.15444998
00000000: b13d 463e ca84 523e 4dda 443e 2328 1e3e

bn1.weight f4 [128]
0.72902083 0.86602163 1.0086836 1.0597746 0.9320339 0.73054737 0.89911044 1.0390266
0.86678994 0.7391333 0.8404459 0.7440454 0.8931328 0.7546407 0.74733734 0.9607818
1.2736251 0.74255395 0.97330093 0.8887131 0.9700307 0.65517503 0.8646975 0.7466608
0.9632166 0.7663154 0.9839366 0.829625 1.3017933 1.1279844 1.0597442 1.0058349
0.6292527 0.6347186 0.92691165 0.8835055 0.70572704 1.36037 0.7500441 1.1497895
1.0925108 1.1147827 0.8491624 0.79777217 0.8554823 0.952242 1.1337987 0.70332074
0.7864145 0.9757627 0.98337454 1.0535909 0.9935602 0.9919796 0.9506905 1.1276586
1.1620653 1.314095 0.88775915 0.86834913 0.9199309 0.89075327 0.67732406 0.5403895
1.1413738 0.8914346 1.044047 0.9080537 0.98624295 0.9459123 1.0812684 1.0520064
0.725415 0.8626877 0.81488 0.80620486 0.83891237 0.9388924 0.97335654 0.9923079
1.1255804 0.7881195 1.1577706 1.166994 0.8367682 1.000617 1.0467943 0.77940667
0.8598949 0.8690046 1.0532876 1.0551238 1.0108548 0.9015865 1.2474724 1.365794
1.1353027 0.9220719 0.82599527 0.92480725 0.9026319 0.8649041 0.6947807 1.0367503
1.0120624 0.61495787 0.7887387 1.0562384 0.944332 1.0296667 0.66355246 0.81046265
0.7903628 0.965926 0.9301621 0.8496907 0.77352905 1.2686101 0.777462 0.86950004
0.90166324 0.8024839 0.81456196 0.7691625 0.7254742 0.74713415 1.0600557 1.0423993
00000000: 1ca1 3a3f 98b3 5d3f 8b1c 813f b2a6 873f
00000010: c699 6e3f 2705 3b3f 1a2c 663f d3fe 843f
00000020: f2e5 5d3f d737 3d3f 7627 573f c279 3e3f
00000030: 5aa4 643f 2230 413f 8051 3f3f ccf5 753f
00000040: 2606 a33f 0418 3e3f 402a 793f b482 633f
00000050: ef53 783f 8db9 273f d15c 5d3f 2a25 3f3f
00000060: 5d95 763f 3f2d 443f 45e3 7b3f 4e62 543f
00000070: 2aa1 a63f cb61 903f b3a5 873f 33bf 803f
00000080: b416 213f eb7c 223f 154a 6d3f 6b2d 623f
00000090: 87aa 343f 9b20 ae3f e402 403f 4d2c 933f
000000a0: 65d7 8b3f 33b1 8e3f b562 593f cc3a 4c3f
000000b0: e300 5b3f 22c6 733f 5120 913f d40c 343f
000000c0: 7652 493f 96cb 793f 6fbe 7b3f 11dc 863f
000000d0: f659 7e3f 60f2 7d3f 7460 733f 1e57 903f
000000e0: 8ebe 943f 4434 a83f 2f44 633f 214c 5e3f
000000f0: 9780 6b3f 6808 643f 1c65 2d3f f756 0a3f
00000100: 8918 923f 0f35 643f 55a3 853f 3576 683f
00000110: 6b7a 7c3f 4f27 723f 0167 8a3f 25a8 863f
00000120: ccb4 393f 1ad9 5c3f fa9b 503f 7163 4e3f
00000130: f6c2 563f 415b 703f e52d 793f e407 7e3f
00000140: 0513 903f 33c2 493f d431 943f 0f60 953f
00000150: 7136 563f 3814 803f 5bfd 853f 3287 473f
00000160: 1222 5c3f 1677 5e3f 21d2 863f 4c0e 873f
00000170: b163 813f 5fce 663f 2dad 9f3f 56d2 ae3f
00000180: 9951 913f e70c 6c3f 6d74 533f 2bc0 6c3f
00000190: e212 673f 5b6a 5d3f 26dd 313f 3cb4 843f
000001a0: 438b 813f e16d 1d3f c8ea 493f d232 873f
000001b0: bebf 713f 1ecc 833f 93de 293f 7b7a 4f3f
000001c0: 3755 4a3f ed46 773f 1a1f 6e3f 5485 593f
000001d0: 0006 463f d161 a23f c007 473f 8e97 5e3f
000001e0: 67d3 663f 966f 4d3f 2287 503f d5e7 443f
000001f0: adb8 393f 2f44 3f3f e8af 873f 576d 853f

bn1.bias f4 [128]
-0.12077126 0.1383021 0.39807305 0.58182067 0.4896488 0.1379094 0.4532058 0.42595232
0.23075797 -0.18246849 0.22869995 0.06963564 0.18247508 0.05077277 -0.009840378 0.24453329
0.43733302 0.32416627 0.29443464 0.054332968 0.46876603 -0.33039796 0.41674182 0.3874489
0.352376 0.24155127 0.481843 0.36931667 0.452849 0.07087202 0.42390597 0.58762956
-0.046533596 0.0351943 0.38024902 0.3007993 0.07223531 0.44384092 0.057928782 0.38488945
0.52087003 0.5045616 0.4034447 0.298486 0.29671085 0.24052958 0.49569935 0.29171863
0.5776097 0.32132226 0.39273354 0.42614737 0.5057878 0.27153307 0.44797978 0.31526363
0.37200776 0.42332673 0.3611824 0.2950342 0.42684156 0.3339125 0.10194003 -0.13046554
0.4016368 0.24480832 0.5448108 0.3409091 0.35238415 0.48436385 0.5915316 0.44620228
-0.01881186 0.15895505 0.45596796 0.13954575 0.053925592 0.14697638 0.22962047 0.45217344
0.45894018 0.2874549 0.30426806 0.5173422 0.23437378 0.4494961 0.4094425 -0.025140435
0.24832204 0.20484696 0.3418712 0.3052231 0.47190094 0.16059434 0.48229727 0.39025056
0.575524 0.45510703 0.49021986 0.31493902 0.21165098 0.3671872 -0.1913709 0.49311754
0.26848423 0.07562294 0.38417023 0.17030957 0.5586561 0.60193646 -0.010046372 0.3919442
0.28213975 0.4039172 0.48087865 0.037964385 0.33009356 0.4427321 0.24166705 0.3542479
0.5811531 0.25021014 0.26310697 0.15277235 0.18903401 0.17460905 0.37235284 0.5209372
00000000: ec56 f7bd 119f 0d3e 3bd0 cb3e 33f2 143f
00000010: 3fb3 fa3e 1f38 0d3e 970a e83e 6c16 da3e
00000020: d14b 6c3e 05d9 3abe 5230 6a3e 219d 8e3d
00000030: bfda 3a3e 1cf7 4f3d 8939 21bc ef66 7a3e
00000040: 1dea df3e 1ff9 a53e 23c0 963e 3f8c 5e3d
00000050: 1a02 f03e ec29 a9be 2f5f d53e b45f c63e
00000060: a16a b43e 3759 773e 20b4 f63e 1317 bd3e
00000070: d3db e73e 5a25 913d 340a d93e e46e 163f
00000080: 039a 3ebd e627 103d 00b0 c23e 5e02 9a3e
00000090: 1bf0 933d 1e3f e33e bb46 6d3d 3b10 c53e
000000a0: bd57 053f f32a 013f 4e90 ce3e 28d3 983e
000000b0: 7cea 973e 634d 763e 4ecc fd3e 255c 953e
000000c0: 3bde 133f 5a84 a43e 5f14 c93e fd2f da3e
000000d0: 4f7b 013f 6206 8b3e 9b5d e53e 3c6a a13e
000000e0: cd77 be3e 48be d83e e6ec b83e b90e 973e
000000f0: fa8a da3e 94f6 aa3e efc5 d03d c298 05be
00000100: 57a3 cd3e 08af 7a3e b878 0b3f a38b ae3e
00000110: b26b b43e 8afe f73e 9d6e 173f a074 e43e
00000120: 541b 9abc 1dc5 223e a274 e93e 15e5 0e3e
00000130: 15e1 5c3d fa80 163e a121 6b3e 4783 e73e
00000140: 35fa ea3e 4a2d 933e 06c9 9b3e 8a70 043f
00000150: aeff 6f3e 5a24 e63e 73a2 d13e 50f3 cdbc
00000160: 2248 7e3e 67c3 513e be09 af3e 3446 9c3e
00000170: 009d f13e d872 243e abef f63e ecce c73e
00000180: 8a55 133f ca03 e93e 19fe fa3e b03f a13e
00000190: 09bb 583e f6ff bb3e bcf6 43be e779 fc3e
000001a0: c476 893e 33e0 9a3d f6b1 c43e a265 2e3e
000001b0: 1604 0f3f 8218 1a3f 8a99 24bc e9ac c83e
000001c0: 9f74 903e 3cce ce3e ba35 f63e 8b80 1b3d
000001d0: 0602 a93e c8ad e23e 9177 773e fb5f b53e
000001e0: 73c6 143f 8b1b 803e f5b5 863e 5b70 1c3e
000001f0: 2292 413e b7cc 323e 08a5 be3e 245c 053f

bn1.running_mean f4 [128]
0.41037244 1.0471148 0.24147496 0.4718032 0.5817363 0.49129707 0.5471255 0.7263421
0.7010437 1.2416719 0.31632128 2.5029352 0.4433668 0.3274535 0.40502036 0.6926894
0.27332264 0.49984795 0.4675268 0.4929424 0.8889544 1.2693621 0.54967153 0.7616827
1.3416897 0.20617224 0.5447299 0.5442595 0.46566966 1.3742014 0.6121494 0.5263661
0.25973234 0.7996032 0.1218859 0.33073214 0.3316722 0.42596453 0.2251735 0.61161053
0.7137529 0.22269553 0.36369464 0.14750412 0.34010562 0.6329032 0.22983189 0.17697579
0.85655934 0.3351958 0.34905514 0.26920465 0.53242886 0.3907516 0.40500656 0.676703
0.3516406 0.32453775 0.21800521 0.24908468 0.53476477 0.4816897 0.3113464 0.30076012
0.37702546 0.27464738 0.42451978 0.35331786 0.36534157 0.37605324 1.3506489 0.6319882
0.40947184 0.69344115 0.2701014 0.74152017 0.2422586 0.3758781 0.34928483 0.5762109
0.81238633 0.4139221 0.7195643 0.39667186 0.8874922 0.81899035 0.7860426 1.3018185
1.4922632 0.48597264 0.81228083 0.37751356 0.6532523 0.5983844 0.58943284 0.5239766
0.37729257 1.3342805 0.6876516 0.49150127 0.445973 0.47374195 0.5330402 0.727495
0.56897545 0.6754004 0.5496774 0.59995574 0.7791407 1.0128974 0.31102642 0.6283784
0.9537618 0.45083547 0.84653896 0.25415722 0.62474227 0.46142536 1.5391607 1.5949434
1.1894362 0.37226346 0.47464785 0.29809123 0.17291878 0.51232207 1.1336284 0.8409818
00000000: 561c d23e dc07 863f 3645 773e 3090 f13e
00000010: acec 143f 4a8b fb3e 6b10 0c3f 8ef1 393f
00000020: 9a77 333f 1bef 9e3f ddf4 a13e 1730 2040
00000030: f900 e33e fca7 a73e d45e cf3e 1854 313f
00000040: f2f0 8b3e 12ec ff3e ac5f ef3e f262 fc3e
00000050: 8492 633f 757a a23f 46b7 0c3f a3fd 423f
00000060: 7dbc ab3f d11e 533e 6b73 0b3f 9754 0b3f
00000070: 416c ee3e d5e5 af3f d3b5 1c3f eebf 063f
00000080: a3fb 843e ccb2 4c3f 519f f93d b955 a93e
00000090: f0d0 a93e 0618 da3e e293 663e 8292 1c3f
000000a0: 83b8 363f 4c0a 643e 2f36 ba3e 520b 173e
000000b0: 5322 ae3e f205 223f 0d59 6b3e 2439 353e
000000c0: 7947 5b3f c99e ab3e 5bb7 b23e 31d5 893e
000000d0: 424d 083f 9810 c83e 055d cf3e 683c 2d3f
000000e0: 3d0a b43e d029 a63e c23c 5f3e 0e10 7f3e
000000f0: 58e6 083f 08a0 f63e cc68 9f3e 3bfd 993e
00000100: 7b09 c13e 959e 8c3e a85a d93e 14e6 b43e
00000110: 0d0e bb3e 0d8a c03e 10e2 ac3f fbc9 213f
00000120: 4ba6 d13e 5c85 313f bb4a 8a3e 44d4 3d3f
00000130: a312 783e 1873 c03e 76d5 b23e 8f82 133f
00000140: 8df8 4f3f 99ed d33e 5e35 383f 9318 cb3e
00000150: b032 633f 5aa9 513f 163a 493f fda1 a63f
00000160: 7b02 bf3f 68d1 f83e a3f1 4f3f 7549 c13e
00000170: 8b3b 273f b82f 193f 12e5 163f 5523 063f
00000180: 7e2c c13e b4c9 aa3f ef09 303f 0ea6 fb3e
00000190: 9356 e43e 4e8e f23e 5375 083f 1d3d 3a3f
000001a0: 60a8 113f 0ae7 2c3f a8b7 0c3f b396 193f
000001b0: c475 473f 9fa6 813f db3e 9f3e 68dd 203f
000001c0: bc29 743f e8d3 e63e c7b6 583f e520 823e
000001d0: 1cef 1f3f f23f ec3e 3803 c53f 1b27 cc3f
000001e0: 723f 983f 5199 be3e 0b05 f33e 6a9f 983e
000001f0: 9f11 313e 8a27 033f bc1a 913f 954a 573f

bn1.running_var f4 [128]
0.58965397 0.9139739 0.324568 0.9314987 1.4707522 0.48396802 0.925932 2.3434734
1.2327807 4.3723764 0.6196961 2.2525966 0.5873598 0.27282053 0.40950572 0.82400656
1.015 0.68330544 0.51790494 0.5421239 3.1972868 2.320413 1.0028018 1.2743853
1.7633705 0.28654367 1.0135274 1.0644661 1.8930421 0.9502366 1.584107 1.2503148
0.27721658 0.72439384 0.16912949 0.37741533 0.28506604 1.6435632 0.55163836 1.6539521
2.8209984 0.6495147 0.58259654 0.21739909 0.48189902 2.3117385 0.47373354 0.18878777
1.3677095 0.61961514 1.0040474 0.63452786 1.703053 0.5224893 0.5178819 0.7452127
1.284051 1.1048487 0.41286278 0.35621917 0.880037 1.3325955 0.29747632 0.36450237
1.4964336 0.3937266 1.1302644 0.6120072 0.39294055 0.5569099 1.4040765 1.329911
0.53214973 1.6205786 0.4838183 0.7500041 0.33882865 0.54000723 1.3130885 1.4674245
2.8872404 0.59168094 0.9612694 0.806116 1.5928037 3.6785538 5.3857126 1.1500472
1.3258301 0.81894064 2.4607263 1.282989 3.0622551 1.3457192 3.5532823 3.04487
0.8224645 5.4764943 1.6136106 0.81977576 0.6596065 0.72027075 0.749388 1.975586
1.0714021 0.34506264 1.0139179 2.0437748 1.36702 3.736927 0.2682453 0.8132247
1.894896 1.0361835 1.2598181 0.30094492 0.9735394 1.9525965 1.2552949 1.6088802
4.2275586 0.93094 0.7463054 0.35534075 0.21189345 0.8751912 1.0301386 2.0764003
00000000: 90f3 163f 32fa 693f c72d a63e b376 6e3f
00000010: 9c41 bc3f a8ca f73e e109 6d3f 78fb 1540
00000020: c2cb 9d3f 82ea 8b40 67a4 1e3f 8b2a 1040
00000030: 365d 163f 22af 8b3e bcaa d13e 18f2 523f
00000040: 85eb 813f 1bed 2e3f 6b95 043f a2c8 0a3f
00000050: 59a0 4c40 a681 1440 cf5b 803f 0f1f a33f
00000060: 20b6 e13f dab5 923e 44bb 813f 6d40 883f
00000070: 344f f23f b542 733f 05c4 ca3f 510a a03f
00000080: 55ef 8d3e e071 393f 4830 2d3e 953c c13e
00000090: 2df4 913e 4760 d23f 2c38 0d3f b4b4 d33f
000000a0: 3d8b 3440 9846 263f 0c25 153f de9d 5e3e
000000b0: 78bb f63e 86f3 1340 348d f23e 9551 413e
000000c0: 1b11 af3f 199f 1e3f a084 803f 6b70 223f
000000d0: a4fd d93f dcc1 053f e893 043f 42c6 3e3f
000000e0: c85b a43f af6b 8d3f c062 d33e 5c62 b63e
000000f0: 1b4a 613f 7d92 aa3f d14e 983e 0ea0 ba3e
00000100: 238b bf3f 8896 c93e 81ac 903f 81ac 1c3f
00000110: 812f c93e a691 0e3f c7b8 b33f 863a aa3f
00000120: f73a 083f 1f6f cf3f 08b7 f73e 4500 403f
00000130: f37a ad3e ea3d 0a3f 4913 a83f 91d4 bb3f
00000140: 8cc8 3840 6778 173f c015 763f 9e5d 4e3f
00000150: fee0 cb3f 6d6d 6b40 c257 ac40 bf34 933f
00000160: cdb4 a93f 18a6 513f 8a7c 1d40 fc38 a43f
00000170: fdfb 4340 8740 ac3f fa68 6340 26df 4240
00000180: 098d 523f 713f af40 cb8a ce3f d3dc 513f
00000190: f9db 283f aa63 383f e4d7 3f3f 01e0 fc3f
000001a0: b423 893f 0dac b03e 10c8 813f 35cd 0240
000001b0: 83fa ae3f d029 6f40 7357 893e 7e2f 503f
000001c0: f48b f23f a9a1 843f b841 a13f 7415 9a3e
000001d0: e139 793f afee f93f 81ad a03f c9ef cd3f
000001e0: 2948 8740 1552 6e3f df0d 3f3f 39ef b53e
000001f0: 99fa 583e 880c 603f 95db 833f bee3 0440

bn2.weight f4 [256]
1.6341506 1.5492685 1.5451591 1.6449116 1.4574624 1.4979281 1.8170366 1.5537591
1.9077536 1.5604773 1.523983 1.651018 1.4040296 1.4421169 1.2128421 1.7483656
1.5456328 1.6676538 1.6492944 1.4302527 1.6933475 1.7776936 1.5528362 1.3448933
1.6263819 1.6402826 1.9520419 1.6596968 1.6072501 1.008335 1.1997163 1.4112135
1.3744267 1.5823162 1.57694 1.7938461 1.1880785 1.3752863 1.3695002 1.5644213
1.3426334 1.5083041 1.5468512 1.5566727 1.6714803 1.6689705 1.3915538 1.737518
1.6663017 1.5286236 1.6062853 1.5934199 1.5989468 1.4754175 1.8070836 1.6105523
1.7394936 1.6519736 1.6786011 1.6548984 1.7746953 2.0144982 1.5066832 1.3373874
1.3408395 1.557995 1.756566 1.5690565 1.5543073 1.6066632 1.7821032 1.6759548
1.6358877 1.5910846 1.3950816 1.4717252 1.3902779 1.6580495 1.4777122 1.6455399
1.4145104 1.3339962 1.6129587 1.6334287 1.5305617 1.5906316 1.4856374 1.3498532
1.7744856 1.542645 1.7837472 1.6220531 1.4210294 1.8646863 1.7304195 1.3697277
1.9069109 1.4999467 1.5915366 1.5322644 1.332775 1.4340119 1.3938438 1.4505342
1.8566736 1.6082968 1.4016057 1.3979267 1.4357929 1.7772238 1.5694631 1.71124
1.9903849 1.7211045 1.7818376 1.8073893 1.8374856 1.6025363 1.7826412 1.4609762
1.3012984 1.4824461 1.3940359 1.5527668 1.8523153 1.5938927 1.517328 1.6673788
1.750916 1.6181743 1.3249027 1.2696257 1.4897 1.3832781 1.5727103 1.5871099
1.7603717 1.6441257 1.244001 2.1197202 1.4610131 1.6525747 1.920453 1.360277
1.5761671 1.6087874 1.7115223 1.4383698 1.5035563 1.4761095 1.5466437 1.7565763
1.6912254 1.8296969 1.479495 1.4467653 1.5366187 1.5659181 1.544429 2.3448288
1.4661454 1.5722542 1.7165599 1.5836319 2.098862 1.7242864 1.4614973 1.6266519
1.7787614 1.4435604 1.6526518 1.5469586 1.5301193 1.7964475 1.5765611 1.312914
1.5361392 1.7123368 1.5662372 1.635324 1.263927 1.6098977 1.5295734 1.3429074
1.2139692 1.5229583 1.4375429 1.682637 1.4535732 1.7249143 1.456177 1.5243547
1.6786306 1.6216868 1.7167 1.3867091 1.6656485 1.490269 1.3184503 1.4664992
1.6592574 1.4602411 1.6352454 1.4586587 1.4607614 1.4149243 1.7275375 1.403353
1.4772018 1.703942 1.6773347 1.449445 1.9339176 1.7396723 1.5851141 1.6128693
1.6494313 1.461416 1.4212941 1.8000929 2.0102122 1.44844 1.757997 1.588169
1.740587 1.6084331 1.7661587 1.4682434 1.4895798 1.6148872 1.8096225 1.4478735
1.4762518 1.3205591 1.5204204 1.7869517 1.4160283 1.519481 1.5046042 1.321546
1.4189065 1.555776 1.5190332 1.7228744 1.6234627 1.4689542 1.3807532 1.7613026
1.4599004 1.3351268 1.524082 1.5288113 1.4159853 1.4025971 1.4449939 1.6969314
00000000: d92b d13f 6e4e c63f c6c7 c53f 778c d23f
00000010: 218e ba3f 1cbc bf3f a894 e83f 94e1 c63f
00000020: 4531 f43f b8bd c73f e011 c33f 8f54 d33f
00000030: 3eb7 b33f 4997 b83f 693e 9b3f 72ca df3f
00000040: 4cd7 c53f ae75 d53f 141c d33f 8512 b73f
00000050: 9cbf d83f 778b e33f 56c3 c63f 7725 ac3f
00000060: 482d d03f c8f4 d13f 82dc f93f f270 d43f
00000070: 5fba cd3f 1f11 813f 4e90 993f a5a2 b43f
00000080: 37ed af3f 5689 ca3f 2bd9 c93f c09c e53f
00000090: f512 983f 6209 b03f c84b af3f f53e c83f
000000a0: 69db ab3f 1c10 c13f 38ff c53f 0d41 c73f
000000b0: 11f3 d53f d3a0 d53f 6f1e b23f fd66 de3f
000000c0: 6049 d53f f0a9 c33f c29a cd3f 2ff5 cb3f
000000d0: 4aaa cc3f 7bda bc3f 844e e73f 9426 ce3f
000000e0: baa7 de3f df73 d33f 67dc d63f b6d3 d33f
000000f0: 3729 e33f 8aed 0040 ffda c03f 832f ab3f
00000100: a1a0 ab3f 616c c73f 28d7 e03f d8d6 c83f
00000110: 8bf3 c63f 24a7 cd3f f51b e43f b085 d63f
00000120: c564 d13f a9a8 cb3f 0992 b23f 7e61 bc3f
00000130: a0f4 b13f f73a d43f ac25 bd3f 0da1 d23f
00000140: ad0e b53f 63c0 aa3f 6e75 ce3f 3114 d13f
00000150: 72e9 c33f d199 cb3f 5e29 be3f fdc7 ac3f
00000160: 5822 e33f 6475 c53f d451 e43f 709f cf3f
00000170: 4be4 b53f 0aae ee3f 637e dd3f 3d53 af3f
00000180: a815 f43f 41fe bf3f 79b7 cb3f 3d21 c43f
00000190: 5f98 aa3f b48d b73f 7969 b23f 1bab b93f
000001a0: 7ba7 ed3f abdc cd3f d167 b33f 43ef b23f
000001b0: 10c8 b73f 127c e33f 2be4 c83f ea09 db3f
000001c0: efc4 fe3f 274d dc3f 4113 e43f 8858 e73f
000001d0: ba32 eb3f e91f cd3f 962d e43f 4501 bb3f
000001e0: f290 a63f cbc0 bd3f c56f b23f 10c1 c63f
000001f0: ab18 ed3f ad04 cc3f ce37 c23f ab6c d53f
00000200: 041e e03f 5620 cf3f 6996 a93f 1883 a23f
00000210: 7dae be3f 420f b13f 924e c93f 6b26 cb3f
00000220: dc53 e13f b672 d23f 6d3b 9f3f 7fa9 0740
00000230: 7a02 bb3f 9187 d33f 67d1 f53f 8f1d ae3f
00000240: d8bf c93f bfec cd3f 2a13 db3f 801c b83f
00000250: 8874 c03f 28f1 bc3f 6cf8 c53f 7ed7 e03f
00000260: 137a d83f 8233 ea3f 1860 bd3f 9b2f b93f
00000270: ecaf c43f 0170 c83f d9af c53f ad11 1640
00000280: a7aa bb3f a03f c93f 3cb8 db3f 73b4 ca3f
00000290: c153 0640 6bb5 dc3f 5812 bb3f 2136 d03f
000002a0: 74ae e33f 96c6 b83f 188a d33f bd02 c63f
000002b0: f3da c33f fef1 e53f c1cc c93f 910d a83f
000002c0: 36a0 c43f da2d db3f 767a c83f 4c52 d13f
000002d0: 5cc8 a13f 2111 ce3f 10c9 c33f 64e4 ab3f
000002e0: 5863 9b3f 4cf0 c23f 6801 b83f a660 d73f
000002f0: b00e ba3f fec9 dc3f 0264 ba3f 0e1e c33f
00000300: 5edd d63f 6f93 cf3f d3bc db3f af7f b13f
00000310: f833 d53f 22c1 be3f fbc2 a83f 3fb6 bb3f
00000320: 8c62 d43f 2ee9 ba3f b94f d13f 54b5 ba3f
00000330: 3bfa ba3f 3d1c b53f f31f dd3f 12a1 b33f
00000340: f314 bd3f c51a da3f e7b2 d63f 6a87 b93f
00000350: 9d8a f73f 95ad de3f 05e5 ca3f 8072 ce3f
00000360: 9120 d33f ae0f bb3f f7ec b53f 7269 e63f
00000370: 51a7 0040 7b66 b93f 0c06 e13f 1f49 cb3f
00000380: 8ecb de3f 23e1 cd3f 7d11 e23f 66ef bb3f
00000390: 8daa be3f a0b4 ce3f b6a1 e73f eb53 b93f
000003a0: d2f5 bc3f 1508 a93f 239d c23f d5ba e43f
000003b0: 6a40 b53f 5a7e c23f df96 c03f 6b28 a93f
000003c0: ba9e b53f ab23 c73f ae6f c23f 2687 dc3f
000003d0: a0cd cf3f b106 bc3f 85bc b03f 5d72 e13f
000003e0: 04de ba3f 6fe5 aa3f 1e15 c33f 17b0 c33f
000003f0: 023f b53f 4d88 b33f 8ff5 b83f 0c35 d93f
