checkpoint_critic.pth (torch_old, 601126 bytes, 5 tensors)

fcs1.weight f4 [512, 33]
0	0x3df19f8d	0.1179801
1	0x3e0f363b	0.13985531
2	0xbd45ecfc	-0.04832171
3	0xbe695c63	-0.22789149
4	0xbe855fee	-0.2604975
5	0xbee27fca	-0.4423812
6	0xbcb4c38a	-0.022065897
7	0xbdb97526	-0.090555474
8	0x3d4e67a1	0.050391797
9	0xbd9bae3d	-0.07601593
10	0x3da8bb77	0.08238881
11	0x3ce8db86	0.02842499
12	0xbccf15ab	-0.025278887
13	0xbcbe9ace	-0.023267176
14	0x3d960241	0.07324649
15	0x3c9ced18	0.019156024
16	0x3e805b79	0.25069788
17	0x3e46781c	0.19381756
18	0x3e47a0c0	0.19494915
19	0xbf3ad793	-0.7298519
20	0x3d002239	0.031282637
21	0x3d0212f9	0.031756375
22	0xbd0af5e3	-0.033925902
23	0x3de89b4b	0.11357745
24	0xbd847d7f	-0.06469249
25	0x3c91ce0e	0.01779845
26	0xbda338b7	-0.07969802
27	0x3e29f5c6	0.16597661
28	0xbe03e791	-0.12881304
29	0x3ca77a5a	0.020444084
30	0xbe0199f5	-0.12656386
31	0x3c9483c8	0.018129244
32	0x3f17ef5b	0.593496
33	0x3dcda6b6	0.10041563
34	0x3c854d5f	0.016272245
35	0xbc390c1f	-0.011294394
36	0xbe0f0c05	-0.13969429
37	0xbdb9e27d	-0.09076402
38	0xbd8d8192	-0.06909479
39	0x3e6277e8	0.22116053
40	0xbcc79abd	-0.024365777
41	0x3e8ef7fd	0.27923575
42	0xbe008018	-0.12548864
43	0x3dad7aa8	0.084706604
44	0x3d813ae9	0.06310064
45	0x3d03e2a6	0.03219857
46	0x3dadb727	0.08482199
47	0x3d5af326	0.05345454
48	0xbe16cc56	-0.14726385
49	0xbe342dd3	-0.17595606
50	0xbcda09ad	-0.026615942
51	0x3e1028fa	0.14078131
52	0x3c9dbc31	0.019254776
53	0xb9b87ffe	-0.00035190576
54	0x3d01d039	0.031692717
55	0x3c5503fa	0.013001436
56	0x3e104f29	0.14092697
57	0x3d2602ef	0.04053014
58	0xbce9c3de	-0.02853578
59	0xbe073349	-0.13203157
60	0x3ea67bf5	0.32516447
61	0x3cbfc762	0.023410503
62	0xbc7b294e	-0.015329672
63	0xbea88edc	-0.32921493
64	0xbd01eb06	-0.031718276
65	0x3f3caddd	0.73702794
66	0xbc889aca	-0.016675372
67	0xbd2b8c1e	-0.041881673
68	0xbe0969b4	-0.13419229
69	0xbef832b4	-0.48476183
70	0x3e95733d	0.29189482
71	0xbd911082	-0.07083227
72	0x3edc35b0	0.4300971
73	0x3dccf112	0.10006918
74	0xbe12b0c9	-0.1432525
75	0xbd83d26c	-0.06436619
76	0xbd19722b	-0.037462395
77	0x3c493659	0.012281024
78	0x3e29a560	0.16566992
79	0x3d924ee5	0.07143954
80	0x3dea2852	0.11433472
81	0xbd9ee0e7	-0.077577405
82	0x3bb40b2b	0.0054944954
83	0xbea006d9	-0.31255224
84	0x3e6dd923	0.23227362
85	0xbe689aec	-0.22715348
86	0xbd3ac329	-0.045596275
87	0xbe16a7e8	-0.14712489
88	0x3d4f9a2b	0.050684135
89	0x3d934579	0.07190985
90	0x3d50fc0d	0.051021624
91	0x3ddb903d	0.10720871
92	0xbd26e6ff	-0.04074764
93	0x3dd77d8a	0.105219916
94	0x3e20d1b7	0.15705
95	0xbcf5fa7d	-0.030026669
96	0xbdb7e0dc	-0.089784354
97	0x3d063a07	0.032770183
98	0xbe837e8b	-0.25682482
99	0x3d62f53a	0.055409648
100	0x3d9e2fa1	0.07723928
101	0x3d3665de	0.044530742
102	0x3d838796	0.06422345
103	0x3f24d4ea	0.6438738
104	0x3e35ef7a	0.17767134
105	0xbe4512d3	-0.19245462
106	0xbe458967	-0.19290696
107	0xbed03c14	-0.40670836
108	0x3d30861a	0.04309664
109	0x3d788151	0.0606702
110	0x3d1d4a84	0.03840114
111	0xbda13237	-0.07870906
112	0xbe0e03a7	-0.13868581
113	0xbdb6a50f	-0.08918201
114	0xbe04520a	-0.1292192
115	0xbe1a86f4	-0.15090543
116	0xbe9f5f98	-0.3112762
117	0x3d0d499d	0.03449403
118	0xbc0641ee	-0.00819443
119	0xbd4219c8	-0.04738787
120	0xbc170264	-0.009216879
121	0xbd6723bd	-0.056430567
122	0xbcb16d19	-0.021658467
123	0x3c72e11f	0.014824181
124	0x3d3241af	0.043519672
125	0x3d5a79f9	0.05333898
126	0x3ddb66f0	0.10712993
127	0x3dec5227	0.11539107
128	0x3b150d70	0.0022743605
129	0xbdd7f734	-0.10545197
130	0xbc316030	-0.010826156
131	0x3ddd2094	0.107972294
132	0xbca99a59	-0.020703482
133	0x3be9ba03	0.00713277
134	0x3de0fac7	0.10985332
135	0x3e219679	0.15780057
136	0x3e03ef3b	0.12884228
137	0x3e528e34	0.20562059
138	0x3e59936e	0.21247646
139	0x3cf27c03	0.029600149
140	0x3e0894cc	0.13338012
141	0x3e3af493	0.1825736
142	0xbccfe292	-0.025376592
143	0xbcf68148	-0.030090943
144	0x3d0d1c8a	0.034451045
145	0x3d5dcc21	0.05414975
146	0x3d98c906	0.07460217
147	0xbcb5ea10	-0.022206336
148	0x3d7714e6	0.060322665
149	0xbecf1931	-0.40448907
150	0xbe1ce5a2	-0.15321973
151	0xbe2f51a7	-0.17120992
152	0x3d8caa57	0.06868427
153	0xbd82eeae	-0.06393181
154	0x3d435899	0.047691915
155	0xbcf5ad4a	-0.029989857
156	0xbcd29db2	-0.02570996
157	0x3d276919	0.040871713
158	0x3ba379ca	0.0049888836
159	0x3c4e71da	0.0126003865
160	0xbe00bf3c	-0.1257295
161	0xbc0559a8	-0.0081390515
162	0xbd9dbaf7	-0.07701676
163	0xbbe49ce0	-0.006976709
164	0xbe63d838	-0.2225045
165	0xbdd2fd7a	-0.10302253
166	0x3d303b2a	0.043025173
167	0xbdb13eb6	-0.08654539
168	0x3cb8985f	0.022533594
169	0x3ce3cb16	0.0278068
170	0xb9bf2a1a	-0.00036461727
171	0x3cde27ad	0.027118528
172	0x3c22e456	0.009942135
173	0xbe0f6ce3	-0.1400638
174	0xbdc9f946	-0.09861998
175	0xbd47b1e3	-0.04875363
176	0xbca47cbc	-0.02007901
177	0xbd9a4a9d	-0.075337626
178	0x3c56befa	0.013107056
179	0x3cf870fc	0.030327313
180	0xbd2cd945	-0.042199392
181	0xbd09cdf9	-0.033643696
182	0xbdb87dff	-0.09008407
183	0x3ea8ca26	0.32966727
184	0xbd7b828e	-0.061403804
185	0x3c8a5717	0.01688723
186	0xbb1b6f8c	-0.002371761
187	0xbcb8b873	-0.02254889
188	0x3d4ed494	0.0504957
189	0x3caf26a0	0.021380723
190	0xbd9ea5f8	-0.077465
191	0x3d7467cf	0.059669312
192	0xbd401f3f	-0.0469048
193	0xbd3c7aae	-0.046015434
194	0x3ba0a808	0.0049028434
195	0x3d4ba178	0.049714535
196	0xbc59da9e	-0.013296751
197	0x3f1a63e4	0.6030867
198	0x3e116e09	0.14202131
199	0xbd0ade09	-0.033903155
200	0xbd9a8f7a	-0.07546897
201	0xbe17ab3b	-0.14811413
202	0xbe907409	-0.28213528
203	0xbea3323a	-0.31874257
204	0x3e8741d0	0.26417398
205	0x3e131d73	0.14366703
206	0x3e0317f2	0.12802103
207	0x3da3e306	0.08002286
208	0x3d6ce792	0.05783803
209	0xbd5dde48	-0.054167062
210	0xbcab7ca1	-0.020933451
211	0xbdba32dc	-0.09091732
212	0x3d68a570	0.0567984
213	0x3d1deb51	0.038554493
214	0x3d2c6b90	0.042094767
215	0x3cc6a1b6	0.024247032
216	0x3ec304fa	0.38089734
217	0xbec46f19	-0.3836601
218	0x3d1307bb	0.035896044
219	0xbc856168	-0.016281798
220	0x3d2f2230	0.042757213
221	0xbca05598	-0.019572064
222	0x3c7f648e	0.015587939
223	0xbb94cad7	-0.004540782
224	0x3cdda752	0.027057324
225	0x3d62cda2	0.055371888
226	0xbcdf5c3b	-0.027265659
227	0x3c7c556c	0.015401226
228	0xbd160d72	-0.036633916
229	0x3bf386e0	0.00743185
230	0xbe286ab2	-0.16446951
231	0xbdfa8d31	-0.122339614
232	0x3df8194e	0.121142015
233	0x3d2ed85b	0.0426868
234	0x3e531772	0.20614412
235	0xbec4a129	-0.38404205
236	0x3e72b220	0.23700762
237	0xbd25a3dd	-0.040439475
238	0xbd837dd0	-0.06420481
239	0xbd2676d6	-0.040640675
240	0xbd1d47f2	-0.03839869
241	0x3d5bcf45	0.053664465
242	0x3b9d586e	0.0048018014
243	0x3d07f5b9	0.033193324
244	0x3dd6b062	0.10482861
245	0x3b3bc317	0.0028650218
246	0x3c809b56	0.01569907
247	0xbe0d27ae	-0.13784668
248	0xbe5fd952	-0.21860245
249	0xbd43223b	-0.047640067
250	0xbe8b4de8	-0.27207875
251	0xbb90c051	-0.004417457
252	0xbb123b69	-0.0022313243
253	0xbd855c59	-0.065117545
254	0x3d8654a1	0.065591104
255	0xbbabde6b	-0.00524502

fcs1.bias f4 [512]
0	0xbe60ddae	-0.21959564
1	0xbedde014	-0.4333502
2	0xbe7bba11	-0.24582697
3	0xbe00b302	-0.12568286
4	0xbe18ccb5	-0.1492184
5	0xbdd3a3c9	-0.10333974
6	0x3de5c5d0	0.1121937
7	0xbe5d3f1c	-0.21606106
8	0xbe6b11b2	-0.22955969
9	0x3d7f3a4a	0.06231145
10	0xbee230b2	-0.44177777
11	0x3d2387c2	0.03992439
12	0xbe2428db	-0.1603121
13	0xbdbec001	-0.093139656
14	0xbdd74837	-0.10511821
15	0xbe029133	-0.12750702
16	0xbe2e1c5a	-0.17003003
17	0xbdf5c2cf	-0.120000474
18	0xbdf9667e	-0.12177752
19	0xbe18e0c4	-0.14929491
20	0xbc229864	-0.009924028
21	0x3c65afbe	0.014018951
22	0xbec9c563	-0.39408407
23	0xbea7dbda	-0.3278492
24	0xbd234102	-0.03985692
25	0x3e187c1e	0.14891097
26	0x3dc686fc	0.09693715
27	0xbcb1d4a6	-0.021707844
28	0xbdc77226	-0.09738569
29	0xbc4e08c4	-0.012575332
30	0x3cde290a	0.027119178
31	0x3b360638	0.0027774703
32	0xbcab4eae	-0.02091154
33	0xbdde6482	-0.10859014
34	0xbdd23f6b	-0.10266002
35	0x3d8622e0	0.06549621
36	0xbcff556d	-0.031168664
37	0xbec12196	-0.37720937
38	0x3e0883db	0.13331549
39	0xbe245f9b	-0.16052096
40	0xbe3c718c	-0.1840269
41	0xbe58f203	-0.2118607
42	0xbd912ba4	-0.07088402
43	0xbe6b3f6b	-0.22973411
44	0xbeb158c9	-0.3463805
45	0xbeac97bd	-0.33709517
46	0xbd999df4	-0.0750083
47	0xbc1fed54	-0.009761173
48	0xbbaa733e	-0.005201726
49	0xbea6d977	-0.32587788
50	0x3dc4df88	0.09612948
51	0xbe8892a0	-0.26674366
52	0x3da13259	0.07870931
53	0xbe75b153	-0.23993425
54	0xbe833583	-0.25626764
55	0xbc2c3b44	-0.010512177
56	0x3d0ae3ad	0.033908535
57	0xbe9f25e2	-0.3108359
58	0x3d88e995	0.06685177
59	0xbe84d77a	-0.25945646
60	0xbe98a6d6	-0.29814786
61	0xbe127ac5	-0.14304645
62	0xbe6cbb44	-0.23118311
63	0xbd1e5df6	-0.038663827
64	0xbd9854fc	-0.074380845
65	0x3bacbade	0.0052712997
66	0xbe3a59cd	-0.18198319
67	0xbe8682c2	-0.26271635
68	0xbc47a530	-0.01218538
69	0x3d1b9e51	0.03799278
70	0xbef33743	-0.475031
71	0xbe767f6a	-0.24072042
72	0xbd2e34a9	-0.04253069
73	0xbd53a86d	-0.051674295
74	0x3c11884b	0.008882592
75	0xbd91cc6a	-0.07119067
76	0xbdc6d246	-0.09708075
77	0xbd73ea06	-0.059549354
78	0x3e11466e	0.14187023
79	0xbdc93bf5	-0.09825889
80	0x3d945e3c	0.07244536
81	0xbdf5fb2f	-0.120108
82	0xbe4a6fa8	-0.19769156
83	0xbdfab907	-0.122423224
84	0x3d141c46	0.036159776
85	0xbe8ea499	-0.27859953
86	0xbe1744c5	-0.14772327
87	0xbe881591	-0.26578954
88	0xbe2ce142	-0.16882804
89	0x3daaa036	0.08331339
90	0xbe867eac	-0.26268518
91	0xbc6251d9	-0.013813459
92	0xbe92cb8a	-0.28670913
93	0xbbcfae34	-0.0063379053
94	0x3d6ea754	0.058265045
95	0xbe19affd	-0.1500854
96	0xbe404f67	-0.1878029
97	0xbe7c7628	-0.24654448
98	0x3e47c0a4	0.1950708
99	0xbe14907a	-0.14508238
100	0xbd1ff59b	-0.039052587
101	0xbe07e02a	-0.13269106
102	0xbdead36e	-0.11466108
103	0xbf0b2417	-0.54351944
104	0xbe171494	-0.14753944
105	0xbe6543b7	-0.22389112
106	0xbcb128f9	-0.021625983
107	0xbda8377a	-0.08213706
108	0xbeba85fd	-0.3643035
109	0xbe8e0ed5	-0.2774569
110	0xbdb617c4	-0.08891252
111	0xbea5256f	-0.32255122
112	0xbe20c52c	-0.15700215
113	0xbe03d25c	-0.12873214
114	0xbe98a040	-0.2980976
115	0xbd9f1004	-0.077667266
116	0xbe14ca59	-0.14530315
117	0xbe07f5c9	-0.13277353
118	0xbe90b875	-0.2826573
119	0xbd8949f6	-0.0670356
120	0xbeafe3c6	-0.34353465
121	0xbe41bd5f	-0.18919896
122	0xbe024a67	-0.12723695
123	0xbeb3722c	-0.35048044
124	0xbda6165e	-0.08109735
125	0x3dc39136	0.09549181
126	0x3da5afd2	0.08090176
127	0xbde68cf7	-0.11257356
128	0xbe82ac90	-0.2552228
129	0x3c810e9f	0.015754042
130	0xbe411446	-0.1885539
131	0x3d1e9188	0.03871301
132	0x3c574f48	0.013141461
133	0xbe89ab8e	-0.26888698
134	0x3d23d59c	0.039998636
135	0xbe2ffe91	-0.17186953
136	0xbccee1c1	-0.025254132
137	0x3ddad06a	0.10684283
138	0x3d683d3d	0.056699026
139	0xbe661de7	-0.22472344
140	0x3e063d2f	0.13109277
141	0xbe340b17	-0.17582355
142	0xbda38d12	-0.079858914
143	0xbe381afd	-0.17979045
144	0xbd851d10	-0.06499684
145	0xbe8d399a	-0.2758301
146	0xbeacb9f6	-0.33735627
147	0xbe88a3b1	-0.26687387
148	0xbe0954e7	-0.13411294
149	0xbe1a69b4	-0.15079385
150	0xbe30e082	-0.17273143
151	0xbe6ebdeb	-0.23314635
152	0x3d1ddea4	0.038542405
153	0x3d4e533b	0.050372344
154	0xbea6c7f3	-0.32574424
155	0x3de102da	0.10986872
156	0xbc96b43f	-0.018396495
157	0xbe144e32	-0.14482954
158	0xbde099c3	-0.10966828
159	0x3cebb0f4	0.028770901
160	0xbe59e51d	-0.21278806
161	0xbdd8a73c	-0.105787724
162	0xbe35ab77	-0.1774119
163	0xbe15debe	-0.1463575
164	0xbe854428	-0.26028562
165	0xbe60fc16	-0.21971163
166	0xbea5c333	-0.32375488
167	0xbe13551f	-0.1438794
168	0xbe3fe4e9	-0.18739666
169	0xbe995005	-0.29943863
170	0xbe633411	-0.2218783
171	0xbdab05c8	-0.08350712
172	0xbd43465d	-0.047674526
173	0xbd571e28	-0.052518994
174	0xbf12d2e9	-0.57353073
175	0xbe256ab6	-0.16153988
176	0xbeb8972e	-0.3605284
177	0xbe899dd3	-0.26878223
178	0xbcbfa253	-0.023392832
179	0xbe4fcdd3	-0.2029336
180	0xbe183505	-0.14863975
181	0x3c552a56	0.013010582
182	0x3e437fbe	0.19091699
183	0xbd4f22c5	-0.05057027
184	0xbeda7f6d	-0.42675343
185	0x3d6d2f8c	0.057906672
186	0xbeaff004	-0.34362805
187	0xbd9b6728	-0.07588035
188	0xbea5684e	-0.3230614
189	0xbc7bf795	-0.015378852
190	0x3c28c204	0.010300163
191	0xbe3e622b	-0.18592136
192	0xbe520659	-0.20510234
193	0x3d217765	0.039420504
194	0xbeb95313	-0.36196193
195	0xbda8911d	-0.08230803
196	0xbe47b6cf	-0.1950333
197	0x3cc04fd4	0.023475565
198	0xbe373617	-0.17891727
199	0xbdaac2b5	-0.08337919
200	0xbdd94296	-0.106084034
201	0x3d2d3d7c	0.042294964
202	0xbeb7e3f5	-0.35916105
203	0xbddf005e	-0.10888742
204	0x3c9964c2	0.018724803
205	0xbd648abf	-0.05579638
206	0x3cad9942	0.021191243
207	0xbe6409f9	-0.2226943
208	0xbea143a6	-0.31496924
209	0x3d743119	0.059617136
210	0xbe3581f8	-0.1772536
211	0xbf36b102	-0.7136384
212	0xbe8f0067	-0.27929994
213	0xbd93d078	-0.07217497
214	0xbee5b0f5	-0.4486157
215	0xbea60010	-0.32421923
216	0xbe02bb14	-0.12766677
217	0xbe132847	-0.14370833
218	0xbe80436c	-0.2505144
219	0xbe9281ea	-0.28614742
220	0xbe8fe301	-0.28102878
221	0x3dcb2135	0.09918443
222	0xbe76e433	-0.24110489
223	0xbce8ebab	-0.028432688
224	0xbdd7fbd3	-0.105460785
225	0xbd68df9a	-0.056853868
226	0xbe51d58f	-0.20491622
227	0xbe1cd74b	-0.15316503
228	0xbde0d646	-0.109783694
229	0xbdb630f3	-0.08896055
230	0xbefecd14	-0.49765837
231	0xbd602d1e	-0.054730527
232	0xbf26c107	-0.65138286
233	0x3d81440c	0.06311807
234	0xbf1045dd	-0.563566
235	0x3d615af8	0.055018395
236	0xbf10f329	-0.5662103
237	0xbd87dd54	-0.06634012
238	0xbe979b65	-0.29610744
239	0xbebc5ea9	-0.3679097
240	0xbeda9dc6	-0.42698497
241	0xbee05446	-0.43814296
242	0xbd287ba3	-0.041133534
243	0xbdf458b5	-0.11930982
244	0x3b0bd646	0.0021337434
245	0xbec21355	-0.37905374
246	0xbd98885d	-0.07447884
247	0xbd63c649	-0.05560902
248	0xbe1e1a27	-0.15439664
249	0x3ca07a5e	0.0195896
250	0xbe8c08a7	-0.2735035
251	0xbe2ee388	-0.17078984
252	0xbe0abfb4	-0.13549691
253	0xbe2ca685	-0.16860397
254	0xbe02968a	-0.12752739
255	0xbe6b2557	-0.22963463

fc2.weight f4 [256, 516]
0	0x3d402a01	0.046915058
1	0xbe1be8ac	-0.15225476
2	0xbcf4e6bd	-0.02989518
3	0xbcf3c681	-0.02975774
4	0x3ce83c74	0.028349139
5	0x3d8f4c3d	0.06996963
6	0xbdb3bfd4	-0.08776823
7	0xbdc9738c	-0.09836492
8	0xbd2f6532	-0.042821117
9	0xbd632bce	-0.055461697
10	0x3bda0d29	0.006654401
11	0x3cfcf4fd	0.030878538
12	0x3d680c4e	0.05665236
13	0x3d1dec3a	0.03855536
14	0x3bae70b1	0.0053234925
15	0xbd7c50b8	-0.061600417
16	0x3d8e7642	0.0695615
17	0xbc04b8f3	-0.008100736
18	0x3b3c68a6	0.0028748899
19	0x3c2145a6	0.009843266
20	0x3da779d9	0.081775375
21	0x3cfb49cf	0.030674843
22	0xbcfc403f	-0.030792354
23	0x3b19c620	0.002346404
24	0xbd8e6f88	-0.06954867
25	0x3e1b9dca	0.1519691
26	0x3d5b4c4a	0.05353955
27	0x3d4eeb82	0.050517567
28	0x3d509a33	0.050928306
29	0xbda44e2e	-0.08022724
30	0xbd103450	-0.03520614
31	0xbbe236ec	-0.00690352
32	0x3e0b1004	0.13580328
33	0xbd9abaeb	-0.07555183
34	0xbd538473	-0.051639985
35	0x3d867617	0.065654926
36	0x3e01172b	0.12606494
37	0x3c9e2544	0.019304879
38	0x3d6b5ae7	0.057459738
39	0xbd392ef0	-0.04521078
40	0xbd4fbae5	-0.050715346
41	0x3d7b5252	0.061357804
42	0x3df42edb	0.119229995
43	0x3c8c5c03	0.017133718
44	0xbd50b92c	-0.050957844
45	0xbcb3801c	-0.021911673
46	0xbd7a4223	-0.06109823
47	0x3e227cc8	0.15867913
48	0x3cc2066d	0.023684705
49	0xbe1d736c	-0.15376061
50	0xbcb071b3	-0.021538591
51	0xbb416079	-0.0029506965
52	0x3e091537	0.13386999
53	0x3ba7e962	0.005124257
54	0x3c0d4951	0.008623437
55	0xbc896a42	-0.0167743
56	0x3d3c1988	0.045922786
57	0xbdb4bee0	-0.08825469
58	0x3dd5d662	0.10441281
59	0xbdff2c3e	-0.124596104
60	0xbdf2ec6f	-0.118615024
61	0xbd407d0e	-0.04699426
62	0xbd841c0e	-0.064506635
63	0x3dfd5895	0.12370411
64	0xbdcd3220	-0.10019326
65	0x3c997bb0	0.018735737
66	0xbd16b3f7	-0.03679272
67	0xbde9b15e	-0.11410783
68	0xbd4084ce	-0.047001652
69	0x3cc9769a	0.024592686
70	0xbe004a92	-0.12528446
71	0xbd54f54c	-0.051991746
72	0x3d28bf52	0.041198082
73	0xbd82ee09	-0.06393058
74	0xbccac46b	-0.024751863
75	0x3e384d2b	0.17998187
76	0xbc156ecc	-0.009120654
77	0x3c6a3c10	0.014296547
78	0x3d8a601b	0.06756612
79	0xbcb74561	-0.02237195
80	0x3c3ab8a0	0.011396557
81	0xbbb942ed	-0.00565373
82	0xbc313aa2	-0.010817202
83	0x3d492f67	0.049117472
84	0x3da5203e	0.0806279
85	0x3caf1602	0.021372799
86	0xbe16fbd7	-0.14744507
87	0xbe46c70c	-0.19411868
88	0x3da9770f	0.08274662
89	0x3c87609d	0.016525561
90	0x3c7f10c9	0.015567967
91	0xbcfcebc8	-0.030874148
92	0x3e195e36	0.14977345
93	0x3dd998d3	0.10624852
94	0x3dc7aa3c	0.097492665
95	0x3d1bfe82	0.038084514
96	0x3de03259	0.10947103
97	0xbdf7f136	-0.12106554
98	0x3d00d014	0.03144844
99	0x3cf7754a	0.030207295
100	0x395e8411	0.00021220768
101	0x3d118314	0.035525396
102	0x3e0d4b35	0.1379822
103	0xbdb50b90	-0.08840096
104	0xbce39100	-0.027779102
105	0xbdf2e2d4	-0.1185967
106	0xbd865b36	-0.06560366
107	0x3d906e30	0.070522666
108	0x3c86a1f3	0.016434645
109	0xbb14e32f	-0.002271842
110	0xbd65c003	-0.05609132
111	0x3d887fd1	0.06665004
112	0xbd4b3710	-0.04961306
113	0xbcc0f021	-0.023552002
114	0xbd91769e	-0.071027026
115	0x3d1cea87	0.0383096
116	0xbc7a46dc	-0.015275683
117	0x3dcff718	0.10154551
118	0x3d0c4f5b	0.034255367
119	0x3d74b83e	0.05974602
120	0x3dfbea41	0.1230054
121	0xbd9f8d67	-0.07790642
122	0x3c7f3915	0.015577574
123	0xbe182158	-0.1485647
124	0xbe273d3c	-0.16331953
125	0x3e08672c	0.13320607
126	0xbd255136	-0.040360652
127	0x3d21b47a	0.039478756
128	0x3d78a5a0	0.060704827
129	0xbcdbf1f6	-0.026848774
130	0x3c794b1e	0.015215663
131	0x3d3e8d7f	0.04652166
132	0x3d851033	0.064972304
133	0x3d589ffc	0.052886948
134	0xbc0ff118	-0.008785509
135	0x3d9713a3	0.07376792
136	0x3d0ed02b	0.034866493
137	0x3d70e19c	0.058808908
138	0x3db7ce44	0.08974889
139	0xbcfa02ca	-0.030518908
140	0xbc803ea2	-0.015654866
141	0xbddc744a	-0.10764368
142	0x3d053e17	0.032529917
143	0x3dc4eef6	0.09615891
144	0x3dea1951	0.1143061
145	0xbd843a62	-0.06456448
146	0x3c9a3eb0	0.01882872
147	0x3ccd248d	0.025041843
148	0xbc708e78	-0.014682405
149	0x3d44a567	0.048009302
150	0x3c85d154	0.016335167
151	0xbd363dc6	-0.044492505
152	0x3b9758a7	0.0046187225
153	0xbc3600e8	-0.0111086145
154	0xbd34d557	-0.04414877
155	0xbca378e6	-0.01995511
156	0x3ccf0132	0.025269125
157	0x3d2757af	0.040855106
158	0x3d137690	0.036001742
159	0xbd333cd1	-0.04375917
160	0x3d30e709	0.043189082
161	0xbda076c1	-0.078351505
162	0xbd70f2b7	-0.05882522
163	0x3d05fe7c	0.0327134
164	0x3d0e075d	0.03467499
165	0xbd62294c	-0.055215165
166	0xbdae70d5	-0.08517615
167	0xbd906abb	-0.07051607
168	0xbc91201e	-0.01771551
169	0xbdb0c50f	-0.08631336
170	0x3e35b30f	0.17744087
171	0x3d213fd0	0.039367497
172	0x3d877812	0.066146985
173	0xbd4fab1e	-0.0507003
174	0x3e060f5b	0.13091795
175	0x3bbe5493	0.005808422
176	0xbdf87d10	-0.12133229
177	0xbdf7f5e0	-0.12107444
178	0xbd6af529	-0.05736271
179	0xbc8a25fe	-0.01686382
180	0xbd722834	-0.059120372
181	0xbd7a00ce	-0.061035924
182	0x3e15e5df	0.1463847
183	0xbd16d50a	-0.036824264
184	0x3cab6ba1	0.020925345
185	0x3d9ec401	0.077522285
186	0x3db57ab2	0.08861293
187	0x3c43b882	0.011945846
188	0xbd863067	-0.06552201
189	0xbd863b47	-0.06554275
190	0x3d391554	0.045186356
191	0x3ca2b7d8	0.019863054
192	0xbcf19d3b	-0.029493919
193	0xbd254184	-0.040345684
194	0x3cc93144	0.024559624
195	0x3c4ffbc0	0.012694299
196	0xbd87dd59	-0.066340156
197	0x3dd8f4ce	0.10593568
198	0xbe045a96	-0.12925181
199	0x3d84bfd7	0.06481903
200	0xbdc9f00d	-0.09860239
201	0x3d899af1	0.06719006
202	0xbd7b1dac	-0.061307594
203	0x3d72ba62	0.05925978
204	0xbc56c6b2	-0.013108896
205	0x3d1bf2a2	0.03807319
206	0xbc48619c	-0.012230303
207	0xbdebe6ab	-0.11518606
208	0x3c0fd93f	0.008779823
209	0xbc25706d	-0.010097605
210	0x3dada902	0.08479501
211	0xbc280d24	-0.010257039
212	0x3d4444dd	0.047917236
213	0xbcf46d9f	-0.029837428
214	0xbcf65b1e	-0.030072745
215	0xbd66d099	-0.056351278
216	0x3df261e2	0.11835076
217	0x3d66fd48	0.05639389
218	0xbdfb195e	-0.12260698
219	0xbe96f196	-0.2948119
220	0xbdb9b619	-0.090679355
221	0xbd2b928a	-0.041887797
222	0x3e2376cc	0.15963286
223	0xbda7e0f0	-0.081972
224	0xbd03e613	-0.032201838
225	0x3c497a77	0.012297264
226	0x3df815d3	0.12113538
227	0xbdf4eabf	-0.11958837
228	0xbcbc0b7b	-0.022954693
229	0x3c37f3f5	0.0112275975
230	0xbe0fd013	-0.14044218
231	0xbd8bcd3a	-0.06826253
232	0x3d959689	0.07304103
233	0x3c140719	0.009034895
234	0x3db65747	0.089033656
235	0x3cea351b	0.028589776
236	0x3dc3a7b4	0.09553471
237	0x3cb4b6b2	0.022059772
238	0xbc97eaf4	-0.018544652
239	0x3d33a3c2	0.043857343
240	0x3b22320c	0.0024749069
241	0xbd33b15f	-0.043870326
242	0xbd05df79	-0.032683823
243	0xbaf97912	-0.0019033274
244	0xbbd1377e	-0.006384789
245	0xbdec3ef7	-0.11535447
246	0x3ba57e86	0.005050483
247	0xbb362478	-0.0027792733
248	0x3cfa9f0f	0.030593423
249	0xbd1c78f4	-0.038201287
250	0x3d015649	0.03157643
251	0xbd8c9ca0	-0.06865811
252	0xbd1b3889	-0.037895713
253	0xbdc1274e	-0.09431325
254	0x3cf1b3f1	0.029504748
255	0x3a23165d	0.0006221289

fc2.bias f4 [256]
0	0x3e806693	0.25078258
1	0x3e0afeb1	0.1357372
2	0xbda2bf93	-0.07946696
3	0xbe6ededc	-0.23327202
4	0xbe49db6b	-0.19712608
5	0x3dff631b	0.12470075
6	0x3e63f845	0.22262676
7	0xbe2e2cb5	-0.17009242
8	0xbd708d06	-0.05872824
9	0x3e7bf687	0.24605761
10	0x3de7cc0d	0.113182165
11	0xbdc27a68	-0.094960034
12	0x3e472471	0.19447495
13	0xbd7b21ec	-0.061311647
14	0x3df9fbe2	0.12206246
15	0xbdd3d4de	-0.103433356
16	0xbdabcd08	-0.08388716
17	0x3e6ca9b8	0.23111618
18	0x3e239a6e	0.15976879
19	0xbdcdaee3	-0.100431226
20	0x3de5585d	0.111984946
21	0x3e3c4b8a	0.18388191
22	0xbd548952	-0.05188877
23	0xbdd15bcd	-0.10222588
24	0xbe239da3	-0.15978102
25	0x3e3a89f3	0.18216686
26	0x3e21bcca	0.15794674
27	0x3e1c35e0	0.15254927
28	0x3c6eef31	0.014583395
29	0xbd7dcbcc	-0.061961934
30	0x3df34098	0.11877555
31	0x3e48c60b	0.19606797
32	0xbd3cd965	-0.04610576
33	0xbe0ec0d6	-0.13940749
34	0x3df6e9f0	0.12056339
35	0x3daafe7f	0.083493225
36	0x3e302746	0.17202482
37	0xbdff7802	-0.124740615
38	0xbe24193e	-0.16025254
39	0xbc3da88f	-0.011575832
40	0x3e462473	0.19349842
41	0x3e393975	0.18088324
42	0x3dff7f7d	0.12475488
43	0x3e4aac99	0.19792403
44	0x3e72be17	0.23705326
45	0x3e226eb3	0.15862541
46	0xbdc2e770	-0.095167994
47	0x3de5f0f0	0.11227596
48	0x3dd40401	0.10352326
49	0x3e30231c	0.17200893
50	0x3e76e73f	0.24111651
51	0x3d9c9203	0.07645037
52	0x3d2b9238	0.041887492
53	0x3dfdbd13	0.12389579
54	0x3da02bd6	0.07820861
55	0xbd933513	-0.071878575
56	0x3dcdf874	0.10057154
57	0x3e0e3823	0.13888602
58	0xbda02d5b	-0.07821151
59	0x3e16a9b3	0.14713173
60	0xbdf692f4	-0.12039748
61	0x3de1f838	0.11033672
62	0xbdd88845	-0.10572866
63	0x3e159084	0.1460591
64	0x3e5865da	0.21132603
65	0xbe03957e	-0.12849995
66	0x3de70c44	0.11281636
67	0xbdf46921	-0.11934114
68	0xbe07b605	-0.13253029
69	0x3e3b20bb	0.18274204
70	0x3e4293e7	0.19001733
71	0x3e90e43c	0.2829913
72	0xbe236ccd	-0.15959473
73	0xbda3c5d8	-0.0799672
74	0x3dde8882	0.108658805
75	0xbdfee4fd	-0.1244602
76	0x3d5a901d	0.053360093
77	0xbd9ab87e	-0.0755472
78	0xbdd34f48	-0.10317856
79	0xbe05bb2d	-0.13059683
80	0xbe272563	-0.16322856
81	0x3e4dc665	0.20095213
82	0x3d37ea51	0.044901196
83	0xbe36caa3	-0.17850737
84	0xbdedc2f3	-0.11609449
85	0x3de7e4a4	0.113229066
86	0x3e0a211e	0.13489196
87	0x3e1553f1	0.14582802
88	0xbdc665ec	-0.09687409
89	0xbdf37f09	-0.118894644
90	0x3e34f35d	0.1767096
91	0x3e059921	0.13046695
92	0xbe5ac792	-0.21365193
93	0x3e0b282a	0.1358954
94	0xbdefc339	-0.11707158
95	0x3da5e606	0.08100514
96	0xbe1b7e75	-0.15184958
97	0x3e77b97e	0.24191853
98	0xbd66c7bb	-0.05634282
99	0x3ce053ad	0.02738365
100	0x3d6b9633	0.057516288
101	0xbddb46c4	-0.10706857
102	0x3d9bc31d	0.07605574
103	0xbda1aa90	-0.0789386
104	0x3e01052a	0.12599626
105	0x3e308c5d	0.17241044
106	0xbe22a148	-0.15881836
107	0x3dcbb583	0.0994673
108	0xbd642b8c	-0.055705592
109	0x3d8f76af	0.07005059
110	0x3d7831a8	0.06059423
111	0x3e12ca96	0.14335093
112	0xbde5765e	-0.112042174
113	0xbcfd5c28	-0.030927733
114	0x3e35f128	0.17767775
115	0xbdbae168	-0.09125024
116	0x3c6dbdf9	0.014510625
117	0x3e219527	0.15779553
118	0x3e0f2fd4	0.13983089
119	0x3e456a40	0.19278812
120	0xbdb5cf41	-0.08877421
121	0xbdd862ba	-0.105657056
122	0x3df82abb	0.12117525
123	0x3e40b1a3	0.18817763
124	0x3e039607	0.128502
125	0x3df4cc68	0.1195305
126	0x3d72c1b9	0.05926678
127	0x3dd6d458	0.1048972
128	0xbdf8dacd	-0.12151108
129	0xbda3c611	-0.079967625
130	0xbdc89843	-0.097946666
131	0xbe0c90f7	-0.13727175
132	0x3dfc67f2	0.123245135
133	0xbdcaa337	-0.09894412
134	0xbde81124	-0.11331394
135	0xbe19cfd2	-0.15020683
136	0xbde9ca3f	-0.114155285
137	0xbe271382	-0.16316035
138	0x3e068226	0.13135585
139	0x3df2cc76	0.11855404
140	0x3e0c586c	0.13705605
141	0xbde9e594	-0.11420742
142	0x3e4277e6	0.1899105
143	0xbe06aaf8	-0.13151157
144	0xbd18d6d8	-0.037314266
145	0xbdea2030	-0.114319205
146	0xbddf2559	-0.108957954
147	0x3e3213be	0.17390344
148	0x3e436fbf	0.19085597
149	0xbea6ff18	-0.32616496
150	0xbe650001	-0.22363283
151	0xbdccbc60	-0.09996867
152	0x3d8cf2c2	0.0688224
153	0x3d78fed0	0.060789883
154	0xbd9fa038	-0.07794231
155	0x3e5f6861	0.21817161
156	0xbd91a2fc	-0.07111165
157	0xbdc8d6f6	-0.098066255
158	0xbe025115	-0.12726243
159	0xbdc4f7a6	-0.09617548
160	0xbe2d5f76	-0.16930947
161	0x3e088d1f	0.13335083
162	0xbdce718d	-0.10080252
163	0x3e08ef69	0.13372578
164	0xbe2816a2	-0.16414884
165	0x3e139246	0.14411268
166	0xbe06095f	-0.13089512
167	0xbe050f65	-0.12994154
168	0xbdbd88b9	-0.092545934
169	0x3e111f67	0.14172135
170	0x3dde9850	0.10868895
171	0xbd9226cd	-0.07136307
172	0xbdca83bd	-0.09888408
173	0x3e1e409a	0.15454331
174	0x3de339e5	0.11095027
175	0x3da58e3a	0.08083768
176	0x3e139a6b	0.14414375
177	0xbd6084c5	-0.05481412
178	0xbdd24a4a	-0.10268076
179	0x3e0be8c6	0.13663015
180	0x3e3049c9	0.17215647
181	0x3e59e9dc	0.21280617
182	0xbd89c02d	-0.06726108
183	0xbe1cc136	-0.15308079
184	0x3e04b7bc	0.12960714
185	0xbe4abc27	-0.19798337
186	0xbe0a7ce7	-0.13524209
187	0xbe58c843	-0.21170144
188	0xbda9de54	-0.08294359
189	0xbd2e8937	-0.042611327
190	0x3e00e70e	0.1258814
191	0xbb9f576e	-0.0048627174
192	0xbd6420ef	-0.05569547
193	0x3dfcb8ca	0.12339933
194	0xbd9b8310	-0.075933576
195	0x3c0eb284	0.008709554
196	0xbde55b17	-0.11199015
197	0x3db350be	0.08755635
198	0xbe004407	-0.1252595
199	0x3dbaa845	0.09114126
200	0x3e1d0f7b	0.15337937
201	0xbd5c9d24	-0.0538608
202	0xbe0106a1	-0.12600185
203	0x3e8187bd	0.25298873
204	0x3dfd82e2	0.123784795
205	0xbde9a3dc	-0.11408207
206	0x3e58d9b3	0.21176796
207	0x3c845327	0.016152931
208	0xbda37ecb	-0.07983168
209	0x3dda324a	0.10654123
210	0xbe045c98	-0.12925947
211	0xbe0bf05a	-0.13665906
212	0x3e14c799	0.14529265
213	0x3e4c3a1c	0.19944042
214	0xbd72286e	-0.059120588
215	0xbe12c45a	-0.14332715
216	0xbe4da089	-0.2008077
217	0xbe85bcc0	-0.26120567
218	0xbd952d11	-0.07283986
219	0x3d50a89e	0.050942056
220	0xbe589c64	-0.21153408
221	0x3da4ea98	0.08052558
222	0xbda0321a	-0.07822056
223	0xbe359f53	-0.17736559
224	0x3e05572e	0.13021538
225	0x3de0cc59	0.10976476
226	0x3e477880	0.19479561
227	0x3dec41db	0.115359984
228	0x3de7e637	0.11323207
229	0x3e126fac	0.14300412
230	0xbb6ffe30	-0.0036620013
231	0x3e15c0ec	0.14624375
232	0xbdc469ed	-0.09590516
233	0x3e01c8fb	0.12674324
234	0x3dd8e0f6	0.10589783
235	0x3e0d814b	0.13818853
236	0x3e113580	0.14180565
237	0xbe24fc07	-0.16111766
238	0xbe618126	-0.22021922
239	0x3e1507c1	0.14553739
240	0xbdbfb8ac	-0.09361395
241	0x3e820e28	0.25401425
242	0x3e45c0c4	0.19311816
243	0xbe141a71	-0.14463212
244	0x3e01e044	0.12683207
245	0xbda773c7	-0.0817638
246	0x3e45185a	0.1924757
247	0x3d5bd6bd	0.053671587
248	0x3d93b626	0.072124764
249	0xbdd2b5ab	-0.10288557
250	0x3dd11596	0.10209195
251	0x3dc62f6f	0.09677016
252	0xbd99d3ef	-0.07511126
253	0x3ddea39c	0.1087105
254	0x3e0080d8	0.1254915
255	0x3dab3159	0.08359022

fc3.weight f4 [1, 256]
0	0x3de304ae	0.11084877
1	0x3d83ea19	0.06441135
2	0xbf7d1b9a	-0.9887024
3	0xbdb077a3	-0.08616569
4	0xbe2b7fe6	-0.16748008
5	0x3db38b87	0.08766847
6	0x3dc34189	0.09533984
7	0xbe73297b	-0.23746292
8	0xbd8722be	-0.065984234
9	0x3d9bf26f	0.076146
10	0x3d93f734	0.07224885
11	0xbf9842ae	-1.1895349
12	0x3d98780c	0.07444772
13	0x3e5f0609	0.21779646
14	0x3e1771f0	0.14789557
15	0xbd95cf29	-0.07314903
16	0xbf4318a7	-0.7620949
17	0x3dd3f2f1	0.10349072
18	0x3de92ca5	0.113854684
19	0xbe1f654c	-0.15565985
20	0x3da69637	0.0813412
21	0x3d7f4357	0.06232008
22	0xbf8e38a5	-1.1111037
23	0xbdd47da2	-0.10375525
24	0xbf5de4f5	-0.86677486
25	0x3d8162d0	0.06317675
26	0x3d8f953d	0.07010887
27	0x3d2f6011	0.042816225
28	0x3e9d88c1	0.30768397
29	0xbdb4aa63	-0.08821561
30	0x3d9914e0	0.07474685
31	0x3daddbcb	0.08489188
32	0xbfcd090d	-1.6018387
33	0xbf21b256	-0.63162744
34	0x3d768c9a	0.06019268
35	0x3d939630	0.0720638
36	0x3d699924	0.057030812
37	0xbe176f57	-0.14788567
38	0xbdfde042	-0.123962894
39	0x3eaaf3d2	0.33389145
40	0x3dc10e5a	0.094265655
41	0x3d878b73	0.06618395
42	0x3e84f5e8	0.25968862
43	0x3da3d236	0.07999079
44	0x3d94b068	0.07260209
45	0x3dba952f	0.09110486
46	0xbda125bb	-0.07868525
47	0x3d541987	0.051782157
48	0x3d533559	0.05156455
49	0x3d5a2877	0.053261247
50	0x3dda33c2	0.10654403
51	0x3dafde83	0.085873626
52	0x3dbbace8	0.091638386
53	0x3da7e38b	0.08197697
54	0x3e1d0c2c	0.15336674
55	0xbe07b7ef	-0.13253759
56	0x3db50b38	0.088400304
57	0x3df5239c	0.119696826
58	0xbe864938	-0.26227736
59	0x3dc1867a	0.094494775
60	0xbd741270	-0.059587896
61	0x3d806b4a	0.06270464
62	0xbdb4346e	-0.08799063
63	0x3e0ff276	0.14057335
64	0x3d875d1a	0.066095546
65	0xbfa48315	-1.2852503
66	0x3d9732d5	0.07382742
67	0xbda2afdc	-0.07943699
68	0xbd9a2bd0	-0.07527888
69	0x3db25e40	0.08709383
70	0x3d5b2e43	0.053510915
71	0x3dd595f6	0.104289934
72	0xbfc7c47d	-1.5606838
73	0xbdb078f4	-0.0861682
74	0x3d92a674	0.07160655
75	0xbdbf6790	-0.09345925
76	0x3edab78d	0.42718163
77	0xbe3d7ed8	-0.18505418
78	0xbe04955a	-0.12947598
79	0xbdd249d2	-0.10267986
80	0xbde2ce5a	-0.11074515
81	0x3d67a534	0.056554034
82	0x3d7be43a	0.06149695
83	0xbdcf396c	-0.10118374
84	0xbd71b397	-0.05900916
85	0x3db931e7	0.09042721
86	0x3d9e10b7	0.07718032
87	0x3e80ae30	0.25132895
88	0xbd8aef79	-0.06783957
89	0xbde0ac57	-0.10970371
90	0x3d740a30	0.059580028
91	0x3d908bc3	0.070579074
92	0xbf5c73ce	-0.86114204
93	0x3da32145	0.0796533
94	0xbde5feba	-0.11230226
95	0x3d718698	0.05896625
96	0xbd42c6bc	-0.04755281
97	0x3d916402	0.07099153
98	0xbdc95952	-0.098314896
99	0x3e34f723	0.176724
100	0x3dd12bc1	0.102134235
101	0xbfc07183	-1.5034641
102	0x3db02597	0.0860092
103	0xbdadb742	-0.08482219
104	0x3d8cd731	0.06876982
105	0x3da24473	0.07923212
106	0xbd90d9e9	-0.07072813
107	0x3e3ad2f2	0.18244532
108	0xbf99eb0d	-1.2024857
109	0x3dc85a6b	0.09782871
110	0x3dc6f5b2	0.097148314
111	0x3d8e0505	0.06934551
112	0xbe242877	-0.16031061
113	0x3e92c0a0	0.28662586
114	0x3d68aaf4	0.05680366
115	0xbe1e27ad	-0.15444823
116	0x3e71f371	0.23628022
117	0x3d8d931e	0.06912826
118	0x3d8eea93	0.06978335
119	0x3d81e1d2	0.063419
120	0xbddcf8ee	-0.10789667
121	0xbdf1b22c	-0.11801562
122	0x3d5715af	0.052510913
123	0x3dd71105	0.10501293
124	0x3d75357a	0.059865452
125	0x3dbbe34c	0.09174213
126	0x3e4ee0d7	0.20202957
127	0x3d62a750	0.055335343
128	0xbdec6542	-0.11542751
129	0xbdf48c06	-0.1194077
130	0xbe99bc49	-0.30026463
131	0xbe219887	-0.15780841
132	0x3db81c9a	0.0898983
133	0xbfa18e6d	-1.262159
134	0xbe8e8e9d	-0.2784318
135	0xbf7f71ce	-0.9978303
136	0xbe02e324	-0.1278196
137	0xbf12cfd1	-0.5734835
138	0x3d8d10e0	0.06887984
139	0x3e48e8f7	0.19620119
140	0x3da10774	0.0786275
141	0xbf12c46d	-0.5733097
142	0x3d7f533c	0.062335238
143	0xbdbc9989	-0.09208972
144	0xbff59fff	-1.9189452
145	0xbda1efbd	-0.079070546
146	0xbd581696	-0.052755915
147	0x3d87e95f	0.06636309
148	0x3dd6a0e7	0.104799084
149	0xbdc6645e	-0.09687112
150	0xbd9d72f6	-0.07687943
151	0xbe12da49	-0.14341082
152	0x3e6a2510	0.228657
153	0x3e8c26ec	0.27373445
154	0xbf39b206	-0.7253727
155	0x3d982711	0.07429326
156	0xbde3f550	-0.11130774
157	0xbd3b971e	-0.045798413
158	0xbdc9aa2a	-0.09846909
159	0xbd17790e	-0.03698068
160	0xbe0033f0	-0.12519813
161	0x3e075d88	0.13219273
162	0xbde67a83	-0.11253836
163	0x3ddb90c4	0.10720971
164	0xbdf8d569	-0.1215008
165	0x3d64f14f	0.055894192
166	0xbddb7dae	-0.10717331
167	0xbe0a2c09	-0.1349336
168	0xbe027167	-0.12738572
169	0x3dc34ab0	0.0953573
170	0x3d735285	0.05940487
171	0xbe1b9d80	-0.151968
172	0xbe1536ec	-0.14571732
173	0x3d92852e	0.07154308
174	0x3dc07380	0.0939703
175	0x3d677e26	0.05651679
176	0x3d9502ee	0.072759494
177	0xbf3012bd	-0.6877859
178	0xbd9b9fdf	-0.07598852
179	0x3d988cbb	0.07448717
180	0x3df62f9f	0.12020802
181	0x3dace86e	0.0844277
182	0xbfeb61b7	-1.8389195
183	0xbdaf8e47	-0.08572059
184	0x3da77f76	0.08178608
185	0xbe7d6ef2	-0.24749354
186	0xbded648f	-0.11591446
187	0xbf107fe2	-0.56445134
188	0xbd95a1f2	-0.07306279
189	0xbe2fabaa	-0.17155328
190	0x3d7effa3	0.062255513
191	0x3e184990	0.14871812
192	0xbe09602a	-0.1341559
193	0x3d754e94	0.05988939
194	0xbe86816d	-0.2627062
195	0x3da6b638	0.08140224
196	0xbf176cec	-0.59150577
197	0x3d81f353	0.063452385
198	0xbdcdabac	-0.100425094
199	0x3db10cbb	0.08645006
200	0x3d5796ff	0.052634235
201	0xbd8f976d	-0.07011304
202	0xbf9f4cad	-1.2445275
203	0x3dd1afec	0.102386326
204	0x3e34a60d	0.17641468
205	0xbd9714b9	-0.073769994
206	0x3d97d399	0.07413406
207	0x3e220daa	0.15825525
208	0xbdbefc16	-0.09325425
209	0x3d6d4085	0.05792286
210	0xbdc68467	-0.096932225
211	0xbef4cfaa	-0.47814685
212	0x3daf1dcb	0.085506044
213	0x3d56e003	0.052459728
214	0xbde16f89	-0.11007602
215	0xbdc26195	-0.094912685
216	0xbe2e4758	-0.17019403
217	0xbde23ade	-0.11046384
218	0xbd89b252	-0.06723465
219	0x3dae3818	0.08506793
220	0xbdfebbf5	-0.12438194
221	0x3d2f8669	0.042852793
222	0xbdce6de7	-0.10079556
223	0xbdf9f1f1	-0.1220435
224	0x3dbdfe24	0.09276989
225	0x3e539cb2	0.20665243
226	0x3d594a23	0.053049218
227	0x3d8c3569	0.06846125
228	0x3e240f59	0.1602148
229	0x3d783c2f	0.06060427
230	0x3e7b0278	0.2451266
231	0x3dc604d6	0.09668891
232	0xbda0388e	-0.07823287
233	0x3d63364e	0.05547171
234	0x3dcb200f	0.09918224
235	0x3d95b2d1	0.07309497
236	0x3da897b6	0.082320616
237	0xbd6826f4	-0.056677774
238	0xbdd18811	-0.10231031
239	0x3d89a109	0.06720168
240	0xbdf05ee0	-0.11736846
241	0x3dceba26	0.10094099
242	0x3d903487	0.07041269
243	0xbe437e38	-0.19091117
244	0x3d91cd22	0.07119204
245	0xbe0215c7	-0.1270362
246	0x3d87661f	0.06611275
247	0x3e35efcc	0.17767256
248	0x3ddfae6d	0.10921941
249	0xbe814004	-0.25244153
250	0x3d891051	0.06692565
251	0x3d84a7f1	0.06477345
252	0xbdfdceae	-0.12392937
253	0x3da0353e	0.07822655
254	0x3d713b88	0.058894664
255	0x3d79e2b9	0.061007235
